output/3/best.pth (torch, 714225 bytes, 4 tensors)

encoder.embeddings f4 [88656, 2]
00000000: f0af e23d b2d9 db3d 0618 f23d b88d ea3d
00000010: 0430 f83d a988 e73d 7888 f13d 9afe eb3d
00000020: a512 f23d b941 ec3d 6251 f63d 2496 eb3d
00000030: 3fbc f23d 33b4 ea3d 835b f43d 6010 bf3d
00000040: eb39 e33d 2b40 933d 1bcd ef3d 9000 ea3d
00000050: 0529 f63d 409f ef3d 5725 fb3d 3b05 f03d
00000060: 4b55 f53d 29cf f03d d992 f43d 414c f03d
00000070: c134 003e 6137 ea3d 7daa fd3d a560 eb3d
00000080: 0d7f fa3d 0684 d03d 2c02 f33d 285a b53d
00000090: 4a76 f23d 0f3b ed3d 1abc f63d 3841 f23d
000000a0: 03c9 f93d c424 f13d 20ae f63d 6845 f13d
000000b0: 9895 f53d 9a53 f13d 2dcf f93d 9b02 f03d
000000c0: bfcc fd3d 94e6 e03d f602 fc3d a24a ef3d
000000d0: 98fb f43d 18a1 eb3d d1f5 f63d 6e19 d93d
000000e0: 9bd6 fb3d 08ea e03d 8b5e fb3d 9c39 e83d
000000f0: 3a02 f73d c5e3 ed3d f54c f73d 1354 ee3d
00000100: 2994 f83d 1380 f13d 6421 f73d 6051 f23d
00000110: 9fe0 f63d c1bb ed3d 7f94 f33d dc0f ea3d
00000120: 91da f43d 02a1 ed3d 6bd9 f73d 1855 f23d
00000130: d5a5 f63d deb0 f03d 2b2f f63d 1db7 ef3d
00000140: 61f0 f83d 32f1 ed3d f329 fa3d 1405 af3d
00000150: b93f f93d 9df0 bc3d 8cdf f63d 4e40 f23d
00000160: 56dd f03d 5e93 ea3d 0d50 f53d d3c0 c33d
00000170: b894 fb3d fe95 d23d c786 fa3d fc41 ec3d
00000180: 996a f73d 0548 f33d 5c5d f83d 3d15 f83d
00000190: 81a8 fb3d b9a5 983d f097 fb3d 6441 ac3d
000001a0: 7793 fa3d 91b8 e93d 6fb8 f13d 8481 eb3d
000001b0: 3c00 f83d fa03 c83d ab25 fe3d 34e5 d43d
000001c0: a0a3 f93d 954e ee3d 6c94 f63d 378a f23d
000001d0: dab6 fa3d a3d3 e33d 3c52 fb3d 76c5 e03d
000001e0: c8ff fb3d 6830 f33d 9e95 f63d 14ab f03d
000001f0: a8a3 f03d 7154 eb3d 1cc3 f83d ee67 d63d
00000200: e5c8 fb3d fd7b ec3d 19db f63d ce6d ef3d
00000210: 8e42 f63d a15d f03d 902e f63d 7298 f13d
00000220: 5262 f63d a251 ee3d 0253 fd3d c418 ec3d
00000230: cc41 f53d f523 ed3d 78e9 ee3d 8647 e93d
00000240: e876 e53d c2bc dc3d 88e0 f33d 7656 e93d
00000250: c406 f43d b488 ea3d 24fe f03d 41eb e83d
00000260: 8e88 f13d 27a3 ed3d e2eb f33d 3a9a ea3d
00000270: 2d1e f63d ffd9 e73d 155a f03d 32c0 e93d
00000280: d8d8 e23d c701 dc3d a8e0 f03d 3220 ea3d
00000290: 924f f53d be00 f03d 1b97 f73d 4032 f03d
000002a0: 1bf3 f33d eb73 ef3d d9fc f53d 6039 f03d
000002b0: 5612 fa3d 5b15 f23d bdbb f73d 202b ee3d
000002c0: 8195 f93d d822 ca3d 7c4f f13d cfeb a33d
000002d0: 89cf f33d bc2e ef3d 394a f63d f437 f13d
000002e0: d7f5 f73d d148 f23d 8aa9 f63d e782 f03d
000002f0: 9ab0 f73d 6326 f03d d666 fd3d ec25 f53d
00000300: f30f fb3d fef8 f33d 5072 fb3d 5fe2 ee3d
00000310: ac23 f93d 414f c53d 7f8f f63d 016f f03d
00000320: 31b7 f73d b8f2 f13d e90e f83d 7027 f13d
00000330: d90a f63d 29ab eb3d 499b f23d 042b ea3d
00000340: 2c19 f63d be4b f03d 8098 fa3d da1d f03d
00000350: a155 f93d 564c f33d 377c f73d 35fb f03d
00000360: 2e48 fa3d 57e8 ec3d aba4 fb3d 0cfe ef3d
00000370: f5f9 f63d 7556 ed3d eda5 d33d 6f39 cb3d
00000380: 5bd7 c63d 83b5 bf3d a79b e23d 66a8 dc3d
00000390: 7079 f63d 038e f13d 48c9 f73d 5947 f03d
000003a0: 6b1d f73d cccf ed3d c313 f73d aa80 f23d
000003b0: 8cb1 f73d 52e8 f13d 3d6a f43d f33b ee3d
000003c0: 346e d63d f6f0 ce3d 2c64 cf3d 152a c73d
000003d0: 49e5 ed3d c25d b13d 1671 fa3d c175 c23d
000003e0: aa59 fb3d a4f0 f83d e09f f53d 069f ef3d
000003f0: b56b fc3d 9609 e53d 97f7 fc3d 03e6 f23d
0.11068714 0.107348815 0.11820988 0.11452812 0.12118533 0.11305363 0.117936075 0.11523171
0.118199624 0.11535973 0.12027241 0.115032464 0.11852311 0.114601515 0.11931517 0.09329295
0.11095031 0.071899734 0.11709043 0.114258885 0.120195426 0.117002964 0.122629814 0.11719748
0.11979159 0.11758263 0.119420715 0.11733294 0.12520124 0.11436344 0.12386034 0.11493043
0.12231264 0.101814315 0.118656486 0.088550866 0.11838968 0.1158353 0.12047596 0.11828846
0.12196543 0.117745906 0.120449305 0.11780816 0.11991423 0.11783524 0.12197719 0.11719247
0.12392568 0.10981479 0.12305252 0.11684157 0.1196205 0.115053356 0.120586045 0.106005535
0.12296792 0.10982138 0.12273892 0.11339113 0.120609716 0.11615709 0.12075225 0.1163713
0.12137634 0.11792006 0.12066916 0.11831927 0.12054562 0.11608077 0.11893558 0.11428806
0.11955751 0.116029754 0.12102016 0.118326366 0.12043349 0.11752485 0.12020715 0.11704848
0.12155224 0.1161827 0.122150324 0.085458905 0.12170357 0.09225581 0.12054357 0.118286714
0.117609665 0.11453889 0.11978159 0.09558263 0.12284225 0.10282515 0.12232738 0.11536023
0.12080879 0.11878971 0.12127182 0.12113426 0.12287999 0.07453484 0.12284839 0.0841091
0.12235158 0.114121564 0.11802756 0.114993125 0.1210942 0.097663835 0.12409528 0.103952795
0.12189412 0.11636082 0.12040028 0.11842769 0.122419074 0.11124351 0.12271544 0.10975163
0.12304646 0.11874467 0.12040256 0.117513806 0.11749965 0.11490715 0.12146589 0.10469042
0.12294177 0.115470864 0.12053508 0.116908655 0.12024413 0.11736608 0.120206 0.11796655
0.12030472 0.11636664 0.12369348 0.11528161 0.119754404 0.11579124 0.116656244 0.11390595
0.1120432 0.1077819 0.1190806 0.11393444 0.11915353 0.11451855 0.117672235 0.11372996
0.11793624 0.116033845 0.119102255 0.11455198 0.12017474 0.11320876 0.11735932 0.114136115
0.11076516 0.107425265 0.117616 0.11431922 0.119780675 0.117188916 0.12089368 0.117283344
0.11911603 0.116920315 0.120111175 0.117296934 0.122105286 0.118204795 0.12096355 0.11629319
0.12186719 0.09869927 0.117827386 0.08003961 0.119048186 0.11678836 0.120258756 0.1177825
0.12107437 0.11830295 0.12044056 0.11743718 0.12094231 0.11726072 0.1237313 0.11970124
0.122589014 0.11912726 0.12277663 0.116642706 0.12165007 0.09634257 0.120390885 0.11739922
0.12095488 0.11813873 0.12112219 0.117751 0.12013788 0.115072556 0.118460245 0.11433986
0.1201652 0.11733197 0.12236118 0.11724444 0.121745355 0.11879794 0.12084239 0.11766664
0.122207984 0.11567753 0.12287267 0.117183775 0.12059394 0.11588756 0.10334382 0.09923064
0.097090445 0.093607925 0.110648446 0.10774307 0.12034881 0.11794665 0.12098938 0.117323585
0.12066158 0.116119 0.12064316 0.11840947 0.12094411 0.1181189 0.11934326 0.11632528
0.10470238 0.101045534 0.10126528 0.097248234 0.11615998 0.08660461 0.12228601 0.09495116
0.122729614 0.121552736 0.11993384 0.11700253 0.12325231 0.11183469 0.123519115 0.118602775

backbone.0.weight f4 [16, 16]
00000000: cb82 7a3e 8f82 0abe c655 fd3d acaa 2fbe
00000010: 0743 85bd ff5f 2cbe 0713 40bd eb00 b03e
00000020: 702d 5bbe d00d a7be 71e4 8cbe a6f6 953e
00000030: 7c71 ea3b f4e9 45bd 190f 523e 820e f8bd
00000040: e3d0 793e 2498 463e bc71 fc3d b49c 083d
00000050: 3c48 f0bd 0cfb 263e ac92 cd3d bd75 9d3e
00000060: b879 1bbd 58d8 37be da84 35bb 3369 4c3e
00000070: 4a91 003e b76e 883e c323 9bbd d83f adbe
00000080: 94f3 9abe 43a4 74be 1a18 543e 33ff 0b3e
00000090: 39d7 113e d025 543d 417a 8a3e 5277 a9bc
000000a0: b908 adbd ce7f 88bc 2d7f 8cbc 0c00 9bbd
000000b0: 8b43 3fbd d0c1 ed3d b30c 4a3e 3017 713e
000000c0: 44f3 78be eff1 5fbd 7396 063e bf4a 58bd
000000d0: 6ca2 8d3e 8f90 dbbd 1606 0b3e 725d 65be
000000e0: 49aa 50be ef8b 1bbd 3d61 683e 5409 983e
000000f0: a9b9 063e 956d 4ebe 835d 84be e8f4 3fbc
00000100: b69e 603c 0b84 8abe e4c7 973e 0110 9d3d
00000110: 634d f63d 58d4 eabd ac4b 6c3d e8af cbbd
00000120: bb2f 8ebe 88e6 ecbd 9b3f a93e 6365 153d
00000130: 7735 12be eac0 07be e14a 5bbd 88cf 143e
00000140: 54c4 e2bd 046c 333e d287 66bc 6c5c bdbd
00000150: 65e4 80be 10c6 04be 8bce 80be f423 e63d
00000160: d2d1 80be f04f 13be eb6a 83be 05cc ec3d
00000170: e066 5dbe bc10 6a3e cc30 dbbc 5c9e 8fbe
00000180: 3eb6 a33e e7bb f0bd b26f 39bd c631 32be
00000190: 21de ddbc aec9 53be 06b7 ee3c 7096 2cbc
000001a0: acb8 0e3d eb35 40be 2f11 b4bd 662d fa3d
000001b0: 4240 0bbe 6d10 7f3e c1f8 243d 0501 62bc
000001c0: 07ac 483e 66ee 3b3d d88a 68be 0a33 6f3d
000001d0: b7b4 5e3d 2286 25be 51dc 37bd be48 943e
000001e0: 6901 b43c 3b96 98be 45b6 89bd d1ac e0bc
000001f0: 21dd 893c 7866 9e3c e404 743e ac54 273d
00000200: 482a dabd e646 5ebe cfd8 6a3e f37f 0b3e
00000210: 0e29 f43d 4692 23be 03ba 9c3c 1391 9bbd
00000220: 07e9 7dbe 8232 3bbe 434f 133e 005e 193e
00000230: 6a6d cbbd ea9a 5cbe 122e f5bc 8d5a 9a3d
00000240: d9e3 f5bc 9ddb 553e 5447 97be a70f 82be
00000250: 3020 8dbe 805a f8bd addc 093e 0293 733e
00000260: c752 91bd 4fc5 1abe 09f9 5bbe 000f 5d3e
00000270: 185e 87be 34d0 5d3e 7cf1 993e c0b0 9bbe
00000280: 95d1 453e ff16 8ebe 82a0 e33d c245 11be
00000290: d493 493e 5e8f 3c3e 51a4 813e b7a8 9dbd
000002a0: d65b 7cbe 281f 01be e277 183e 53ea 4dbe
000002b0: 030d 2fbe 8f3c c93d eab9 683e 0554 adbc
000002c0: 60e4 6abe 7532 c23d 71a6 323e 0ba7 1a3d
000002d0: 914d 32be ed9c 72be b318 8b3e 4486 4cbd
000002e0: f7b6 b83d 0543 4f3e dca5 5a3e 875f 1e3d
000002f0: c14c d6bc 280c 083e 87ae 29be fd71 33be
00000300: 4981 8b3d ff6f 133d 87df abbe 4480 55be
00000310: 1507 16be c5a7 2dbe c560 b2be 64e0 303e
00000320: b2c1 22bd fd8f c73d 9a9f 87be ff5e 983e
00000330: 13a7 3dbe 8bac efbd c961 953b 306e c7bd
00000340: 964e 823e 9b79 7e3d b68e 0c3e c762 1fbe
00000350: 014e e6bc 3f60 1bbe 1b99 c9bc cc91 1e3e
00000360: ff34 1ebd cf0a 49be f051 ae3d 4a83 1dbe
00000370: 7a48 7dbe b4f2 e93c 94eb 4b3d aff0 6bbd
00000380: 1aac 2a3d 4daa 563e 38cd 3b3e b7c5 803e
00000390: 2a04 4f3e a48e 4ebd 6e09 f5bb 9766 12be
000003a0: d0e1 bf3a a560 43bd facf 81be 2b17 2bbe
000003b0: ebae 5cbe d3fc c13d 2ac0 a33e 9a09 97bd
000003c0: 50a0 203b df9f 4cbe e8f9 6dbe 70bf afbe
000003d0: be7e 87bc 3a1c 893d 2b69 45bc 1b9b 153e
000003e0: 32f7 acbd e152 b63d 1d76 6fbe 8783 57be
000003f0: 738b a0bd 5efb 943e eba3 0cbe 6406 de3d
0.24463956 -0.13526367 0.123698756 -0.1715495 -0.06506925 -0.16833495 -0.046893146 0.343757
-0.21404052 -0.32627726 -0.27518037 0.2928974 0.0071546417 -0.04831882 0.20513572 -0.12112142
0.2439609 0.19393975 0.123263806 0.03335257 -0.117325276 0.16306704 0.10037741 0.3075389
-0.037957877 -0.17953622 -0.0027697594 0.19962005 0.12555423 0.2664697 -0.075751804 -0.3383777
-0.3026396 -0.23890786 0.20712319 0.1367157 0.14242257 0.051793873 0.27046397 -0.02068678
-0.08448929 -0.016662505 -0.017150486 -0.07568368 -0.046695273 0.116092324 0.19731407 0.23544002
-0.24311548 -0.054674085 0.1314333 -0.05280566 0.2766298 -0.10720932 0.1357654 -0.22398928
-0.20377459 -0.037975248 0.22693343 0.29694617 0.13156761 -0.2015899 -0.25852594 -0.011716105
0.013709715 -0.27053866 0.29644692 0.07669068 0.12026479 -0.114662826 0.057689354 -0.09945661
-0.2777079 -0.11567408 0.3305634 0.036473643 -0.14278208 -0.13257185 -0.053538207 0.14532292
-0.11072603 0.17521673 -0.014070468 -0.09246144 -0.2517425 -0.1296618 -0.2515758 0.11237326
-0.2516008 -0.14385962 -0.2566751 0.11562351 -0.21621275 0.22857946 -0.026756667 -0.28050506
0.31974977 -0.117545895 -0.045272537 -0.174018 -0.027083458 -0.20682403 0.029140007 -0.010533914
0.034844086 -0.18770568 -0.0879234 0.1221569 -0.13598731 0.2490861 0.040276293 -0.013794188
0.19596873 0.04588165 -0.22709215 0.058398284 0.05437156 -0.16164449 -0.044887844 0.28961748
0.021973329 -0.29802117 -0.06724218 -0.027426155 0.016829075 0.01933597 0.2382999 0.040852234
-0.10652596 -0.21706733 0.22934268 0.13623028 0.11921893 -0.15973768 0.019131666 -0.0759603
-0.24795924 -0.18280986 0.14385705 0.14977264 -0.099329785 -0.2154347 -0.029929195 0.075368024
-0.030015873 0.20884557 -0.29546607 -0.25402567 -0.2756362 -0.121266365 0.13463087 0.23786548
-0.07095867 -0.1511433 -0.21481718 0.21587753 -0.26438975 0.21661454 0.3006705 -0.30408287
0.1931823 -0.2775192 0.11114599 -0.14186767 0.19685298 0.18414065 0.25320676 -0.076981954
-0.24644408 -0.12609541 0.14889482 -0.20108919 -0.17094807 0.09826004 0.2272717 -0.021158228
-0.2293868 0.0948228 0.17446305 0.03775696 -0.17412402 -0.23692675 0.27167282 -0.049932733
0.09019273 0.2024041 0.21352333 0.03866532 -0.026159646 0.13285887 -0.16570483 -0.17523952
0.068117686 0.03599548 -0.33568975 -0.2084971 -0.14651139 -0.1695853 -0.34839454 0.17273098
-0.039735503 0.097442605 -0.26488954 0.29759976 -0.18520765 -0.11702832 0.004558776 -0.097378135
0.2545058 0.06212769 0.13726315 -0.15565024 -0.028113367 -0.15173434 -0.02460914 0.15485305
-0.03862476 -0.1963303 0.08511722 -0.15382114 -0.24734679 0.028558113 0.04978521 -0.05760258
0.041668035 0.20963402 0.18340003 0.25150844 0.20216432 -0.050429 -0.0074779307 -0.14296947
0.0014639441 -0.04769959 -0.25353986 -0.16708057 -0.21551101 0.094720505 0.31982547 -0.07374878
0.0024509616 -0.19982861 -0.23239863 -0.34325743 -0.016539928 0.06694837 -0.012049 0.1460995
-0.08445586 0.08902527 -0.233849 -0.21046267 -0.07839098 0.29098028 -0.13734405 0.10841063

backbone.1.weight f4 [16, 16]
00000000: a0f0 843d f849 343d fc8f 2a3e 670a 2e3e
00000010: 765a 603e 2015 8e3c 3380 4a3e 060b 23bd
00000020: c902 503e 1945 35be 9658 593e c8e3 49be
00000030: 2a0b 26be c35f f4bd ad40 293e 21f0 f53d
00000040: dbfd 223e dc98 9abe 86fb 083e e1ee 6c3e
00000050: 6118 c23d e7ad d9bc b9a5 0cbe 6245 71be
00000060: 3f9d 803e f6e4 0bbd f9e1 d93d e4f5 c9bb
00000070: 15b9 643c b4b1 84be a63a 42be 68fe e9bd
00000080: ef4a eabd dd74 77bd 20aa 98ba 90b0 6cbd
00000090: cb2b 153d 7ad4 80bd e1e0 81b9 7d41 69bd
000000a0: e9f7 81bc 5b71 053d 6412 05be 58f6 05be
000000b0: a65e fa3d 7762 45bb 81a9 ddbc b220 fabd
000000c0: b486 1f3e 5b61 01be f424 b43d b305 903d
000000d0: ca31 a63e b706 12bd 84ed 47be 0fc5 1a3e
000000e0: 5807 953e 2fc6 62be 72be 11be 4a1f 84bd
000000f0: ff4e 9cbd 4216 32be 986a a2bc 2f7c f0bd
00000100: c8e5 d3bb 6886 8b3e b895 053d 1891 38be
00000110: d73e 3d3e 1f8c 05be c1c9 1c3e d082 f4bd
00000120: 930f 3f3d 0309 2e3e 2d75 b3bd 0d05 b2bd
00000130: 2c46 78bd 975c 9a3e b20f 1e3e cb0e bc3e
00000140: 1f0a 123e 295f 04be 9228 9abe d473 5cbe
00000150: 03c6 5fbe e7ae 4bbe f173 2e3e c004 80bd
00000160: 901a 513e 63e3 fe3c db9d 7b3b 03df 83be
00000170: b310 c73d b958 41be 08a6 8e3d ba30 873d
00000180: 09e9 403e 62cf 253e a636 80bd 1bfd 0f3d
00000190: a0de 5fbe c5a1 4f3e 0e73 333e 546e b73e
000001a0: eaa3 09be f47f 3a3e aa70 803e 2874 3dbe
000001b0: c213 a73e 239f cb3d 0713 54bd 2983 823e
000001c0: 95b6 613e 15bd 9dbd acd8 a43d 92e7 88be
000001d0: 33d1 93bd e5a4 1c3e 6637 a33e cc86 f83d
000001e0: ca0e 163d 6111 973e a8ee cd3d 583a 6dbe
000001f0: 5cb6 4a3e 1477 5b3d 75df bfbd dba9 a73e
00000200: 560c 353e f447 083e 36cb ebbd 71a5 f23d
00000210: 35b3 a2bc f95e 523e 81ce 7abc d89f 8f3d
00000220: 3cf2 2cbe 1fb4 2c3e e4d9 10be 7e6d ce3d
00000230: d7ea acbc 9cf9 973d 48dd a73c 0c19 10be
00000240: 4ee5 aabd 0e1c 653e 6c98 223e 8c30 d5bd
00000250: 40e6 ffbd 5dc3 9b3e e3a1 603e c8fc c73d
00000260: d353 25bd 4ee7 9c3e b448 8c3e 249e 01be
00000270: 4fd4 ad3e f89e 963e b25f 5d3e 19f4 83bd
00000280: 8d9e 343e 21af 8c3e 98f7 cabd 8f98 68bd
00000290: b6ef 07be c9ab 873e 5181 563e e44a 0a3e
000002a0: b0c3 ba3d 6cfb 7c3d e114 20be c4e4 293e
000002b0: ede3 d63d 4165 e53c fd1f abbc f6fe 9abd
000002c0: 29e5 663e 2465 e53d 8ed6 283e 767f 6abe
000002d0: b4e3 e23d 3e18 4abd d4ff b03d 21ba 07bd
000002e0: 420c 11bd 75d6 8b3e da88 11be 2bf2 403d
000002f0: 9b11 b23e 4d9e 1e3e 79d8 723e bce3 ad3c
00000300: 7859 32bd 6ffe 31bd 3a2f 47be 84a3 753e
00000310: ffb7 1e3e c236 293e 1523 6cbd 8ff4 71be
00000320: f385 523d b6fe e53d 132b 5b3e d6d4 783e
00000330: 8809 23be b394 343e 46fd 14be 56f1 57be
00000340: 1b03 8dbb 7450 bbbc 1f2e 023e 20ee 7cbe
00000350: bafb 3dbe 13b7 0d3e 89bc 873c ce57 2b3d
00000360: 2964 673e 925d 393e 6817 5b3e dcbf 853c
00000370: b8d3 a73e 419f d7bd b73e a13c 2da7 ebbd
00000380: f276 95be e6c4 12be 634a fdbd 09dd 40be
00000390: e810 743d cbf3 42bd 7ec3 883d 60b8 37be
000003a0: 98b5 4f3d 7d39 65bd 0a5f e9bd 42f0 2abd
000003b0: dec1 81bd 0c06 893d cbae 28be 6565 7e3e
000003c0: bf89 233e 242a 1b3e e75f 40be fd2d 6cbe
000003d0: 500e d03d 0d0d 2fbe f87a 1b3e 99b8 a6bd
000003e0: 111f 80be 8e17 553b 0bc7 68bd 3354 85bd
000003f0: 69ae 68be 35c3 2dbe d7c1 53be c096 3abe
0.06491208 0.044015855 0.16656488 0.16996156 0.21909508 0.017344058 0.19775467 -0.039805435
0.20313562 -0.1770214 0.21225199 -0.19715798 -0.16215196 -0.119323276 0.16528578 0.120086916
0.1591715 -0.30194747 0.13377199 0.23138 0.09477306 -0.02657218 -0.13735093 -0.23561624
0.2511997 -0.0341539 0.10638804 -0.0061633456 0.013960143 -0.25916827 -0.18967685 -0.11425477
-0.11440074 -0.060414184 -0.0011647381 -0.05778557 0.036418717 -0.06290527 -0.00024772345 -0.05694722
-0.015865283 0.032578807 -0.12995297 -0.13082254 0.12225084 -0.0030118504 -0.027058365 -0.122132674
0.15578729 -0.12634794 0.08796111 0.07032337 0.3245986 -0.035650935 -0.19524199 0.15114234
0.29107165 -0.22145914 -0.14232805 -0.064512804 -0.07632255 -0.17391303 -0.019826218 -0.11742436
-0.006466601 0.2725098 0.032613486 -0.18024099 0.18481003 -0.13041733 0.15311338 -0.11939013
0.046645712 0.16995625 -0.08762584 -0.086923696 -0.060613796 0.30148765 0.15435675 0.36730036
0.14261673 -0.12926926 -0.30109078 -0.2152856 -0.21852879 -0.19890939 0.17036416 -0.06250906
0.20420289 0.031114286 0.003839365 -0.25756082 0.09719982 -0.18881501 0.06965262 0.06601091
0.18838896 0.16192392 -0.06260423 0.03515349 -0.21862268 0.20276554 0.17524359 0.3582636
-0.13441435 0.18212873 0.25085956 -0.18501341 0.32632262 0.09942462 -0.05177596 0.25490692
0.22042306 -0.0770208 0.080491394 -0.26739174 -0.07217636 0.15297277 0.31878203 0.121350855
0.036635198 0.29505447 0.10055286 -0.23166788 0.19796127 0.05358036 -0.09368793 0.32746777
0.17680487 0.13308698 -0.11513369 0.11847962 -0.019860843 0.20544042 -0.015308023 0.0701291
-0.1688928 0.16865586 -0.14145619 0.10079478 -0.021108074 0.07420656 0.020491257 -0.14072055
-0.08344518 0.22373983 0.15878457 -0.1040965 -0.124950886 0.30422488 0.21936755 0.09765011
-0.040363144 0.3064522 0.27399218 -0.12657982 0.3395104 0.2941816 0.21618536 -0.06443042
0.17638607 0.27477363 -0.09910506 -0.056786116 -0.13275036 0.2649825 0.20947768 0.13505131
0.09119356 0.061763212 -0.15632965 0.16591173 0.10492692 0.028002383 -0.020889277 -0.07568161
0.22548355 0.11200932 0.16488096 -0.22900185 0.11078587 -0.049339525 0.08642545 -0.03313649
-0.03541208 0.27312055 -0.14212361 0.04710595 0.34779057 0.15490074 0.2371539 0.021226756
-0.043542355 -0.043455537 -0.19451609 0.23988158 0.15499876 0.16524795 -0.057650644 -0.23628448
0.051397275 0.11230223 0.2140315 0.2429994 -0.15921605 0.17634849 -0.14549741 -0.21088156
-0.0043033487 -0.022865511 0.12712906 -0.24700212 -0.18553057 0.13839369 0.016569393 0.041831784
0.22596802 0.181021 0.21395648 0.016326837 0.32778716 -0.10528422 0.019683225 -0.115064956
-0.2919231 -0.14332923 -0.12367704 -0.18834318 0.059586436 -0.04759578 0.06677912 -0.17941427
0.05071029 -0.05596303 -0.113950804 -0.041733034 -0.06335805 0.066906065 -0.16472928 0.24843366
0.15970515 0.15152794 -0.18786584 -0.23064418 0.1015898 -0.17094822 0.15183628 -0.08140678
-0.25023702 0.003251526 -0.056830447 -0.065102 -0.22722782 -0.16968997 -0.20679413 -0.18221569

backbone.2.weight f4 [1, 16]
00000000: 5ac0 2fbd c3f1 a8be d3a3 5d3c 3b87 babd
00000010: e44d 113e f143 1abd c6fb 9f3e 2808 953e
00000020: 355a 303e e031 483e 857c ae3e 1d54 483e
00000030: 55ee 9bbd 1f6a d23d eb97 37be 67f6 0abe
-0.04290805 -0.3299695 0.013527828 -0.091078244 0.14189869 -0.03766245 0.31246775 0.29107785
0.17221911 0.19550276 0.34079376 0.19563337 -0.076138176 0.10274147 -0.17929046 -0.13570558
