output/35/best.pth (torch, 714225 bytes, 4 tensors)

encoder.embeddings f4 [88656, 2]
000000 7f 06 ed 3d 74 ce e0 3d b3 39 fc 3d 47 9d ef 3d
       0.11573505 0.10976878 0.12315693 0.1169992
000010 86 61 fc 3d ad 18 f1 3d 6c 88 ff 3d cd ea f2 3d
       0.123232886 0.11772285 0.12477192 0.11861191
000020 d6 21 ff 3d f9 7c f1 3d 3f 29 fe 3d 67 77 f1 3d
       0.124576256 0.11791415 0.12410211 0.11790352
000030 26 02 fe 3d 05 92 f1 3d 02 76 fc 3d 94 fc ef 3d
       0.124027535 0.11795429 0.12327196 0.11718097
000040 e7 96 ee 3d f8 2b e4 3d e3 cd fb 3d b1 08 f0 3d
       0.11649876 0.11141199 0.12295129 0.11720408
000050 09 f4 00 3e 96 4c f5 3d 4e af 00 3e dc 1f f5 3d
       0.12593092 0.11977498 0.12566873 0.11968967
000060 46 c3 00 3e df 6f f5 3d 29 10 01 3e 57 37 f5 3d
       0.12574491 0.11984228 0.12603821 0.11973446
000070 7e ca 00 3e c6 11 f5 3d a0 f6 00 3e c5 02 f5 3d
       0.12577245 0.11966281 0.1259408 0.11963419
000080 11 18 01 3e 3e f4 f4 3d d9 08 fe 3d ed 4f f1 3d
       0.12606837 0.11960648 0.12404031 0.11782823
000090 74 04 fe 3d a2 93 f1 3d 26 34 01 3e 0c 87 f5 3d
       0.12403193 0.11795737 0.1261755 0.11988649
0000a0 6b 4f 01 3e 14 16 f5 3d c3 2b 01 3e 8f 11 f6 3d
       0.12627952 0.11967102 0.1261435 0.12015068
0000b0 b0 e6 00 3e f3 d0 f5 3d 1d 31 01 3e 6e 26 f5 3d
       0.12588 0.120027445 0.12616391 0.119702205
0000c0 be f8 00 3e 6a 93 f5 3d b6 55 01 3e 04 d8 f5 3d
       0.12594888 0.119910076 0.12630352 0.12004092
0000d0 f2 0d fe 3d d8 f5 f1 3d 84 a2 fe 3d 1c 13 f2 3d
       0.124050036 0.11814469 0.12433341 0.11820051
0000e0 e6 45 01 3e a5 7d f5 3d 2f 65 01 3e 13 d3 f4 3d
       0.1262432 0.119868554 0.12636255 0.11954322
0000f0 2c d1 00 3e 57 ef f4 3d 7f c7 00 3e 8b 57 f4 3d
       0.12579793 0.11959713 0.12576102 0.1193076
000100 fc d3 00 3e e0 14 f4 3d 95 4b 01 3e e6 a0 f5 3d
       0.12580866 0.11918044 0.12626489 0.119935796
000110 6e 1b 01 3e 80 be f5 3d e0 66 fe 3d 7a c0 f1 3d
       0.1260812 0.119992256 0.124219656 0.1180429
000120 78 d9 fc 3d 10 a7 f1 3d f9 8a 01 3e 5c b1 f5 3d
       0.12346166 0.11799443 0.1265067 0.11996719
000130 9c b8 00 3e c4 71 f4 3d ce 59 fa 3d 3e bf ed 3d
       0.12570423 0.119357616 0.1222416 0.11608742
000140 8e 79 f9 3d 5c af ec 3d ff a6 fa 3d 24 85 ed 3d
       0.12181388 0.11556885 0.12238883 0.1159766
000150 d2 a5 00 3e a9 72 f4 3d fb 77 01 3e 1b a3 f5 3d
       0.12563255 0.11935932 0.12643425 0.119940005
000160 df ee fd 3d 61 39 f1 3d 5d 6a ff 3d 18 73 f1 3d
       0.12399077 0.11778522 0.12471459 0.117895305
000170 89 50 01 3e 86 6a f5 3d 4f 7a 01 3e b7 9f f5 3d
       0.12628378 0.11983208 0.12644313 0.11993354
000180 bb b6 00 3e cc 0c f4 3d e4 bd 00 3e 74 0c f4 3d
       0.12569706 0.11916503 0.12572438 0.11916438
000190 1d d3 00 3e cd 0c f4 3d 4d 61 01 3e 53 89 f5 3d
       0.12580533 0.11916504 0.12634774 0.11989083
0001a0 3d 18 01 3e e5 aa f5 3d 4b 83 fe 3d 92 d5 f1 3d
       0.12606902 0.11995486 0.12427386 0.118083134
0001b0 0d bf fd 3d c3 94 f1 3d 6c f8 00 3e 57 8d f5 3d
       0.12389956 0.11795952 0.12594765 0.11989849
0001c0 72 77 01 3e cf e1 f5 3d 18 96 01 3e ad dd f5 3d
       0.12643221 0.1200596 0.12654912 0.12005172
0001d0 7a b5 01 3e 65 08 f6 3d ff 6e 01 3e f1 61 f6 3d
       0.12666884 0.1201332 0.12639998 0.120303996
0001e0 8c ac 01 3e 63 25 f6 3d 9f 6d 01 3e 26 e5 f5 3d
       0.12663478 0.1201885 0.12639473 0.12006597
0001f0 21 4a fe 3d ed 06 f2 3d 66 7d fb 3d b0 8d ef 3d
       0.12416483 0.11817727 0.12279777 0.116969466
000200 56 d8 00 3e 48 01 f5 3d 47 93 01 3e a0 5d f5 3d
       0.12582526 0.11963135 0.12653838 0.11980748
000210 bf 8e 01 3e b1 e8 f5 3d 41 00 01 3e 98 fb f5 3d
       0.1265211 0.12007273 0.12597753 0.12010878
000220 18 5f 01 3e 3d 00 f6 3d 9a 14 01 3e d7 c1 f5 3d
       0.12633932 0.12011764 0.12605515 0.11999863
000230 f3 c6 ff 3d 69 b5 f4 3d 4e 58 fc 3d 06 10 f0 3d
       0.124891184 0.11948664 0.1232153 0.11721806
000240 5c 8a eb 3d c6 13 e1 3d 02 ed fb 3d d3 bd ef 3d
       0.11500999 0.109900996 0.12301065 0.11706128
000250 52 22 fd 3d 52 3e f1 3d 0d 26 fe 3d b8 e6 f1 3d
       0.12360062 0.11779465 0.12409601 0.11811584
000260 4f b0 fc 3d d1 29 f1 3d 14 71 fd 3d c4 05 f2 3d
       0.12338316 0.11775554 0.123750836 0.11817506
000270 8c 20 fd 3d 2b 1d f1 3d 0f 83 f9 3d 53 39 ee 3d
       0.123597234 0.117731415 0.121832006 0.116320275
000280 10 a0 ec 3d 6f ec df 3d 0f c7 fb 3d cb 70 ef 3d
       0.11553967 0.10933768 0.12293827 0.116914354
000290 5d 83 ff 3d f2 a3 f3 3d 29 56 f8 3d 07 d3 ec 3d
       0.124762274 0.118965045 0.12125809 0.11563688
0002a0 2c 65 ec 3d 46 34 df 3d ea ce fb 3d df 4a ee 3d
       0.115427345 0.10898642 0.12295325 0.11635374
0002b0 bd 4e ec 3d d0 3e df 3d bb 49 f9 3d b4 b5 ec 3d
       0.11538456 0.109006524 0.12172266 0.115580946
0002c0 60 a7 00 3e bd bd f3 3d 06 7b fd 3d 6e c5 f0 3d
       0.12563848 0.11901424 0.123769805 0.11756407
0002d0 c4 a2 00 3e e9 1e f5 3d 9e f0 00 3e b3 59 f5 3d
       0.1256209 0.11968786 0.12591788 0.119799994
0002e0 39 c6 e8 3d 9c af db 3d b4 05 d7 3d 04 9c ca 3d
       0.11365933 0.10726854 0.10499135 0.09893039
0002f0 73 b4 ec 3d cf 8c df 3d 20 76 d7 3d b3 60 ca 3d
       0.115578555 0.10915529 0.105205774 0.09881725
000300 87 8f e9 3d c3 5b dc 3d 4f 7e 01 3e a3 47 f5 3d
       0.11404329 0.1075969 0.12645839 0.11976554
000310 5f 67 01 3e e3 2b f5 3d 51 54 01 3e 6d 33 f6 3d
       0.12637089 0.11971261 0.1262982 0.120215274
000320 bd 57 01 3e 91 48 f6 3d bb 4d f4 3d 60 36 e7 3d
       0.12631126 0.1202556 0.119288884 0.11289668
000330 1a b0 e0 3d 6e 10 d4 3d a3 f6 f5 3d b5 86 e9 3d
       0.10971089 0.10354696 0.12009933 0.114026465
000340 ed 75 e1 3d a1 d1 d3 3d f0 42 f4 3d 4d a5 e7 3d
       0.11008821 0.10342718 0.1192683 0.113108255
000350 13 6f 01 3e c7 10 f6 3d 87 5e 01 3e ca 02 f6 3d
       0.12640028 0.12014919 0.12633716 0.12012251
000360 4b 5a 01 3e 9e 4b f5 3d 3d b6 01 3e 11 72 f6 3d
       0.126321 0.119773135 0.12667175 0.12033475
000370 b8 ba f8 3d 7c 18 eb 3d b2 3d dc 3d 24 29 cf 3d
       0.12144989 0.114792794 0.10753955 0.10115269
000380 62 26 dc 3d c2 5a cf 3d 8e 0b dd 3d 9f 3f cf 3d
       0.107495084 0.101247326 0.107932195 0.10119557
000390 5f dc f8 3d c0 db eb 3d 11 87 01 3e f9 29 f6 3d
       0.121514075 0.11516523 0.1264918 0.120197244
0003a0 05 4a 01 3e 7a 7f f5 3d b9 24 01 3e 70 66 f5 3d
       0.12625892 0.11987205 0.12611665 0.11982429
0003b0 a9 38 01 3e 7b 51 f5 3d 1c ad d9 3d 1c 27 cc 3d
       0.1261927 0.11978432 0.10628721 0.09968397
0003c0 df ed ac 3d 5c 97 a0 3d b4 56 a9 3d e3 3d 9d 3d
       0.08443808 0.078413695 0.082684904 0.076778196
0003d0 25 7c ad 3d 3b b2 a0 3d b6 d1 da 3d 98 36 cd 3d
       0.08470944 0.07846495 0.106845304 0.100201786
0003e0 d5 24 01 3e 24 e7 f4 3d 1d 7f 01 3e a7 20 f5 3d
       0.12611707 0.11958149 0.12646146 0.119691186
0003f0 a4 2d 01 3e ad 40 f5 3d 39 ab 01 3e 6f 18 f6 3d
       0.12615067 0.119752266 0.12662973 0.12016379

backbone.0.weight f4 [16, 16]
000000 33 54 87 3d aa c2 1d be 59 e7 b4 3d ac 42 ef bd
       0.066078566 -0.1540629 0.088331886 -0.116826385
000010 86 ef 47 be 90 92 91 3e 8f b5 84 3e ef 6c 2f 3e
       -0.19524965 0.2843213 0.25919768 0.17131399
000020 6b 79 1c 3e a7 a0 93 3b e5 55 56 3d c6 a7 2c 3e
       0.15280692 0.0045052352 0.05232801 0.16860875
000030 48 e6 31 be 9f ea f0 3c a3 21 e1 bd 7c d4 2e be
       -0.17373002 0.029408751 -0.10992744 -0.17073244
000040 01 fc d7 3d 14 49 ac 3e e4 82 ab 3e 1e 22 84 bd
       0.10546113 0.33649504 0.334983 -0.0645182
000050 04 67 9b be 2f 0e 88 be 0e 12 c1 3d ae 10 62 3d
       -0.30352032 -0.2657332 0.09427272 0.05519169
000060 fd 94 67 be f2 37 f6 bc d1 c1 93 be 53 b5 b3 be
       -0.22615428 -0.030055974 -0.28858808 -0.35099277
000070 bd ff 3f 3d 4b 56 5b 3e 33 3c c1 3d f8 56 ac 3e
       0.04687475 0.21419637 0.0943531 0.33660102
000080 48 79 e5 3d 99 cc 0e 3e 7c fc 7d 3e 16 9b bd bd
       0.11204773 0.13945235 0.24803346 -0.09258096
000090 fb 1b 98 be e4 c9 16 3d 42 d0 4a be 96 79 97 3c
       -0.29708847 0.03681363 -0.19806007 0.018490594
0000a0 3a b9 06 be 1e c5 97 bd 8c 3d 56 be 8e f5 fa 3c
       -0.13156596 -0.07410644 -0.20921916 0.030634668
0000b0 1b ef 5b be 69 28 b2 3d 1e 44 9a 3e 12 cb 4d 3d
       -0.2147793 0.08699114 0.30130094 0.05024249
0000c0 29 76 89 bd 1b 55 f9 3c 09 8d 23 3e ad 5d 84 be
       -0.067119904 0.03043609 0.1597177 -0.2585272
0000d0 6c 28 b0 be ea 74 5a be 16 ea 89 be 4a e4 4a 3e
       -0.3440584 -0.21333662 -0.26936406 0.19813648
0000e0 c8 0c 3e be f1 df ea bd 3c 8c 05 be 18 d7 81 be
       -0.18559563 -0.11468495 -0.13041776 -0.25359416
0000f0 a2 60 71 be 50 12 91 3e 9f 82 a0 3d 5a 5e 8b 3d
       -0.23572019 0.28334284 0.07837414 0.068051055
000100 04 86 88 bd 83 09 09 be cc 5c 8c 3e 24 96 9a 3d
       -0.066661865 -0.13382535 0.27414548 0.07548168
000110 0d 95 07 be 31 c2 11 3e 31 9a 78 3e 2f 27 11 3d
       -0.13240452 0.14234234 0.2427757 0.03543776
000120 c3 c9 1b be 92 9c 35 3e 34 ac 35 be 15 7a 1f 3e
       -0.15213685 0.17735508 -0.17741472 0.15573914
000130 09 44 94 3d d1 68 23 be 02 e6 35 be c3 da 4d 3e
       0.07239539 -0.15957953 -0.17763522 0.20102982
000140 8f 0a 77 3e 54 5f 53 3d 47 a0 0e 3e b1 cc 9a bd
       0.24125122 0.051604584 0.13928328 -0.07558573
000150 eb af af be 09 f5 78 be d3 72 5a be 98 09 14 bd
       -0.34313902 -0.24312223 -0.21332864 -0.03614196
000160 da 51 7b be 8c 21 8b be ba 3d 82 be b4 e0 88 3d
       -0.24542943 -0.27174032 -0.2543772 0.06683484
000170 2c 8e 9d 3c b3 cb a1 bc 27 0d 8e 3e a4 bf 48 3d
       0.019232832 -0.019750452 0.2774441 0.049010888
000180 fb 9c 87 be ca 31 a4 3d 63 cf 6e 3d cd 73 e9 bd
       -0.26486954 0.08017309 0.058303248 -0.1139904
000190 17 5b 16 be ad e3 1f 3d 18 6f aa 3c 4b 8f 85 be
       -0.14683186 0.039035488 0.020804927 -0.26085886
0001a0 c6 13 8e 3e fb 2c 83 3e b4 a5 f2 bd 82 f9 3b 3e
       0.2774946 0.25620255 -0.118480116 0.18356898
0001b0 02 0a 0e be 41 fb b9 bc 12 89 0b be 7e 11 16 be
       -0.13871005 -0.022702815 -0.13626507 -0.1465511
0001c0 17 11 6a bd a2 38 14 3d 28 13 58 3d 55 17 af bd
       -0.057145204 0.03618682 0.052752644 -0.08549372
0001d0 aa 0f 7e bd 88 7a 00 bd ee d2 78 3e 50 e9 78 be
       -0.062026657 -0.031366855 0.24299213 -0.24307752
0001e0 43 85 a6 bd 39 b5 34 3e 4f d6 83 bd 34 5d dd 3c
       -0.081308864 0.17647256 -0.064373605 0.027021982
0001f0 e7 c2 f9 3d 94 70 81 bb bf 94 43 be ee c3 a8 3e
       0.12195378 -0.003950188 -0.19099711 0.32961982
000200 16 3d 28 3e 68 99 dc bd 3a b7 02 3e 3f c1 74 be
       0.16429552 -0.107714474 0.12765208 -0.23901843
000210 6a 49 ca 3a 28 cb a3 bd 9b 87 0f 3e 5f 30 98 bd
       0.0015433256 -0.07997733 0.14016573 -0.07431101
000220 55 3f a2 3c 3c 92 37 be a1 fc 18 be 27 e4 2c 3d
       0.01980559 -0.17926878 -0.1494012 0.04220977
000230 e4 e2 d0 3d 78 a9 60 bd c1 de ca 3d 8d 7b bc 3c
       0.10199526 -0.054849118 0.09905768 0.023008132
000240 a6 b8 4d 3e 13 0c 22 3e 2c 52 b6 3d 4c f6 8e bd
       0.20089969 0.15824918 0.08902392 -0.06980571
000250 eb 35 a0 be 8c ef 4d bd 93 55 5e be c1 a7 54 3e
       -0.31291136 -0.050277278 -0.21712331 0.20767118
000260 40 fc d4 bd 9a f7 84 be f4 7c 15 be 03 cd a2 be
       -0.10399675 -0.25970155 -0.14598447 -0.31797037
000270 8a 83 1e be 03 ec 3b 3e 8f d7 b5 3e 81 17 5b 3d
       -0.15479866 0.1835175 0.3551602 0.053489212
000280 0a 78 53 bd d3 67 06 3b 57 64 28 3e ab 94 cb bc
       -0.05162815 0.0020508661 0.16444527 -0.024851164
000290 20 72 00 be 39 af e3 bd 04 49 08 be 0e 00 0a be
       -0.12543535 -0.111174054 -0.13309103 -0.13476583
0002a0 57 9b 45 be c3 a4 a4 bc ea f0 9a bd 11 a0 3b be
       -0.19297539 -0.020098096 -0.07565482 -0.18322779
0002b0 ef 7c af be 08 04 88 bd a8 65 48 3e d8 d2 44 3e
       -0.34275004 -0.06641394 0.19570029 0.19221056
0002c0 89 c1 fb 3d 88 83 15 be 43 5e 2b 3e e8 30 03 3c
       0.12292773 -0.14600956 0.16735177 0.008007266
0002d0 6d 67 5c be 57 0f 75 3d 30 4a 2f be 1e 53 02 be
       -0.21523829 0.059829082 -0.17118144 -0.12727019
0002e0 b4 ea f1 3d 3c 0e 8f 3c 58 b7 a1 bd e9 24 31 be
       0.11812344 0.017462842 -0.07896298 -0.17299236
0002f0 bd 78 9d be e6 ea b9 3d c2 48 64 3e 68 a1 54 3e
       -0.30756178 0.090780064 0.2229338 0.20764697
000300 8d 2f 53 3e e2 33 79 3e f8 06 b6 3d 27 33 1f be
       0.20623608 0.24336198 0.08888048 -0.15546857
000310 d4 28 6a be 52 0a 90 be 26 d2 6d 3d be ef b1 3e
       -0.22867137 -0.28132874 0.05806174 0.3475322
000320 17 b2 44 be 44 79 bb bd 92 fb 41 be d7 b8 7b be
       -0.19208561 -0.09153989 -0.18943623 -0.2458223
000330 2a 4c 3a 3e f3 cd 1d be 03 85 84 bd 7d 70 6a be
       0.18193117 -0.15410595 -0.064706825 -0.22894473
000340 81 1d 14 3d 9b 52 90 3e 83 31 97 3e 43 df d4 bd
       0.03616095 0.28188023 0.29529962 -0.10394146
000350 00 c7 be bd f9 20 8a 3d fa 5b 26 be b5 36 3c be
       -0.093153 0.0674457 -0.16246024 -0.18380244
000360 fc e0 2d be b7 ca 4b 3d 05 98 75 3d 49 1b f4 bd
       -0.16980356 0.04975387 0.05995943 -0.11919267
000370 63 1e 1b be 78 64 fe 3d 31 71 ff 3d 7b 81 ce 38
       -0.1514831 0.12421507 0.124727614 9.846963e-05
000380 de 24 4a 3e c1 d7 1d be 9b c6 30 bc bb 66 4f be
       0.19740626 -0.15414335 -0.010789539 -0.20254032
000390 10 7b ab 3d 4c e9 44 3d 6b 29 ff 3c 25 ff e5 3c
       0.08373082 0.04807405 0.03114768 0.028075764
0003a0 70 5f e8 3d 74 25 b7 3d 3d ff 20 be a1 d3 01 be
       0.11346328 0.089426905 -0.15722366 -0.12678386
0003b0 27 67 8b be 03 5c 90 bd fd ac ca 3d b1 08 89 3e
       -0.27227136 -0.070488 0.09896276 0.26764444
0003c0 3b 93 71 bd 53 e7 30 3e 51 83 b9 3e ee 24 5f be
       -0.0589783 0.17275743 0.36233 -0.21791431
0003d0 b5 b7 a2 3c bd a3 9f be ad 9b 03 3e d8 15 7f 3d
       0.019862989 -0.3117961 0.12852354 0.06227669
0003e0 5f 59 5a bd 03 f6 9a be 40 b6 24 be ce f1 8a bd
       -0.053307887 -0.30265817 -0.16085148 -0.06784402
0003f0 1f dd f3 bd 2e 6a a7 3e a7 a2 84 3e 83 d1 09 be
       -0.1190741 0.32698196 0.25905344 -0.13458829

backbone.1.weight f4 [16, 16]
000000 d9 d6 26 3e 5c 79 49 be 72 dc c7 bd a8 8d d4 3d
       0.16292895 -0.19675201 -0.097588435 0.10378581
000010 52 31 9d 3d 23 1a a3 3d ee e5 e6 bd 76 34 33 3e
       0.07675423 0.079639696 -0.11274324 0.17500481
000020 4c 3e 9e 3d a5 e8 a9 be d9 20 88 bd 03 89 b7 3d
       0.07726726 -0.33185306 -0.0664689 0.0896168
000030 44 9c 5c be a1 5a 72 3e ec 48 a1 bd 74 e8 1d 3e
       -0.21543986 0.23667385 -0.07875237 0.15420705
000040 ec bf 8b be 80 6d 34 3e 3f e6 aa 3e d3 7c 86 3e
       -0.27294862 0.17619896 0.3337879 0.26267108
000050 f0 aa 32 be af 0d 2c 3e c1 da 72 be 24 20 f5 bd
       -0.1744802 0.16802095 -0.2371626 -0.11969021
000060 7e c3 93 3d 5d 9a 8f 3e 23 08 5b 3d 89 33 91 3e
       0.072150216 0.28047457 0.053474557 0.2835963
000070 f2 3c 80 3e fa 06 80 bd ab af 80 3e 58 0b 02 3e
       0.25046498 -0.06251331 0.25134024 0.1269964
000080 f9 17 69 be d2 60 54 3e 42 6b d0 bd 47 72 5f be
       -0.22763051 0.20740059 -0.10176708 -0.21820937
000090 aa 0c 71 bd d5 1d 3e 3e f9 2f 0f bc 43 91 30 3e
       -0.058849968 0.18566068 -0.008739465 0.17242913
0000a0 a8 82 15 bc 93 5e 8e be 4d cc 71 be 60 4f f7 3d
       -0.009125389 -0.2780653 -0.23613091 0.120756865
0000b0 0b 32 6e be ac 35 13 bb 7e ab ca 3d 20 dd a5 bc
       -0.23261277 -0.002246241 0.09895991 -0.020247042
0000c0 5f c1 1d 3d 8c af 38 bd cc 76 93 be a3 10 13 be
       0.03851449 -0.04508929 -0.28801572 -0.14361815
0000d0 89 be 4a 3e ef 74 6a be 68 b0 59 bc 08 10 3a 3e
       0.19799246 -0.22896169 -0.013286687 0.18170178
0000e0 22 a5 87 3d 90 8a 53 be 0f bf f9 3d 3b 49 df 3d
       0.066232935 -0.20658326 0.12194645 0.109026395
0000f0 42 ce 0c be b2 be 66 3d a2 1d 9b be c5 8c 49 3e
       -0.13750556 0.056334205 -0.30296046 0.19682606
000100 1a 4a fe 3c 5f 7c 66 3e 44 ad 10 3e bb 32 2c 3d
       0.031041194 0.22508381 0.14128596 0.042040568
000110 b9 12 6e be d3 8e 7a 3e ea 5a 82 be 45 2f d5 bd
       -0.2324933 0.24468546 -0.25459987 -0.104094066
000120 45 d0 7e 3e 37 16 56 3e f7 50 9f 3d a9 ef 82 3d
       0.24884136 0.20906912 0.07779115 0.06393368
000130 c7 cb 8c bd 38 ec d0 bd 3a 14 aa bd 4f b3 a7 3e
       -0.06874805 -0.10201305 -0.08304639 0.3275399
000140 4c 18 09 be 87 87 4d be ef 89 8b be 8e 7b cf 3c
       -0.13388175 -0.20071231 -0.27253672 0.02532747
000150 53 a4 2c 3e f9 4c cb bd ae a5 5d b6 bf 5b 00 be
       0.1685956 -0.09926791 -3.3028005e-06 -0.12534998
000160 47 5c 42 3e cd 38 81 be fd c1 59 3e 10 60 2a 3e
       0.18980514 -0.25238648 0.21265407 0.16638207
000170 ca 01 10 be 75 ca fe bd 16 66 1e 3e 50 95 c0 bd
       -0.14063182 -0.12440959 0.1546863 -0.09403479
000180 1a 80 49 bd 8d bb 99 3e db 0d 81 3e 85 dc 09 3e
       -0.049194433 0.30025902 0.25205883 0.13463028
000190 ce 67 5b be 45 72 89 3e 62 1d 99 be 65 2d 37 be
       -0.21426317 0.26844993 -0.2990523 -0.1788841
0001a0 aa 91 85 3d ae 19 3d bd 1c 71 6a 3e 3a 35 37 3d
       0.06521924 -0.04616707 0.2289471 0.044728495
0001b0 b0 7c a4 3d f0 37 a9 bd de 4a ae 3e 37 40 99 3e
       0.08031595 -0.08262622 0.34041494 0.29931805
0001c0 1e 5f cc bd ff 2a 27 3d 75 ec 06 be 98 74 80 3e
       -0.0997908 0.04081249 -0.13176139 0.25088954
0001d0 e7 98 3f be d5 22 5b 3d 81 b7 14 be e1 b7 1c 3d
       -0.18710671 0.053500015 -0.14523126 0.038261298
0001e0 3c bd 8c 3e 03 7e 0f be 13 f0 25 be d9 87 46 3e
       0.27488124 -0.14012913 -0.16204862 0.1938776
0001f0 04 24 c3 bc 74 83 1b be 46 69 1b 3d f5 07 22 be
       -0.023820885 -0.15186864 0.037942193 -0.15823348
000200 13 3e b4 bd c8 e0 11 be cc 2f 41 3e 78 66 da 3d
       -0.08800902 -0.14245903 0.1886589 0.106640756
000210 1f 77 d7 3d 63 8d 3b 3d c9 ed 27 be 6a a5 4f 3e
       0.105207674 0.045789134 -0.16399302 0.20277944
000220 e3 4f 80 3c 3a c5 85 be c2 8e 24 be 18 8b 14 bd
       0.015663093 -0.26127034 -0.16070083 -0.036265463
000230 9a 0e fa bd ee f3 04 3e 64 33 54 ba 47 ec 90 3d
       -0.12209816 0.12983677 -0.0008094816 0.07076316
000240 79 6a f4 bd 34 f2 7a be 2d dc 1b be 1c 5c 0c 3d
       -0.119343705 -0.24506456 -0.15220709 0.03426753
000250 20 f0 4a be 8e e6 33 be 23 d6 3d 3d 28 75 55 3d
       -0.19818163 -0.17568418 0.046346795 0.052113682
000260 eb 63 b4 3d 3b a0 00 3e 94 54 98 3d 08 30 6c 3e
       0.0880812 0.12561123 0.07438007 0.23065197
000270 9d 53 f2 3d c8 67 06 3e 2a fb 3f be 12 f5 9b be
       0.11832354 0.13125527 -0.18748155 -0.3046041
000280 0f 34 3a be e7 eb 3a 3e 74 8f aa bd d5 50 9f bc
       -0.18183921 0.18254052 -0.08328143 -0.019447723
000290 1f 18 7e bd 41 49 52 3c 8c af 48 be 44 30 84 bd
       -0.062034722 0.012834848 -0.19598216 -0.064545184
0002a0 40 9b 87 bd 32 77 34 3e 9f 2a 05 3e 8f c0 97 3e
       -0.066214085 0.17623594 0.1300454 0.29639098
0002b0 e8 a3 37 3e 51 11 b3 3e 3e e0 bd bd 03 30 e8 3d
       0.17933619 0.3497415 -0.092712864 0.113372825
0002c0 e3 74 f6 3d 59 18 18 bd bc 11 bb bc f5 44 03 be
       0.12034013 -0.037132595 -0.022835605 -0.12819274
0002d0 47 97 b5 3d 63 5f 2a 3e 7e 07 a8 3d 14 08 08 3e
       0.088667445 0.1663795 0.08204554 0.13284332
0002e0 e3 21 9a be ca 8c 52 bd 02 3e d8 3d a7 97 de bd
       -0.3010398 -0.0514038 0.10558702 -0.10868769
0002f0 ac 7b bc 3d b6 02 81 bc 62 b0 a2 bc fe 16 9f bd
       0.09203276 -0.015748363 -0.019859497 -0.07768057
000300 59 b5 37 3e ce 70 6c 3d 05 ae 17 3e db 68 00 bd
       0.17940272 0.057724766 0.14812477 -0.031349998
000310 dd e2 20 3e 01 91 36 3d 52 ca 89 3e d8 df 23 3e
       0.15711541 0.04457188 0.2691217 0.16003358
000320 d0 17 b7 3d cc 1a 63 ba 66 a4 db bd 10 9a 2b 3e
       0.08940089 -0.0008663356 -0.10724716 0.16757989
000330 d0 77 87 be 14 a9 00 be fb 00 8f 3d 5a 73 27 bc
       -0.26458597 -0.12564498 0.06982609 -0.010220373
000340 b0 75 a4 bd 13 c4 63 3e 22 0f 97 3d e6 84 84 3e
       -0.080302596 0.22242765 0.07375933 0.25882643
000350 4f 5a 32 3c 70 aa 01 bd c9 c1 08 3e ad df 44 3e
       0.010885789 -0.031656682 0.13355173 0.1922595
000360 04 20 da 3d f3 82 91 3e 93 4f 11 3e 91 5b 7b 3d
       0.10650638 0.2842022 0.14190511 0.06136662
000370 4c 5a 1f 3e 00 41 58 3e 5d a9 3f 3e cf 0b 14 3b
       0.1556179 0.21118546 0.1871695 0.0022590046
000380 fe 3d fc 3d bf 27 b2 3e e2 a0 a8 3e d5 a3 a5 3e
       0.123165116 0.3479595 0.32935244 0.32351556
000390 44 2a 6d be 5d 8e 42 3e 4a 0f 5c be 2c ad 21 be
       -0.23160654 0.1899962 -0.21490207 -0.15788716
0003a0 d7 72 a9 3e a6 ca 77 3e 6b 5f 9d 3e 3b 89 a2 bc
       0.33095428 0.24198398 0.3073686 -0.019840827
0003b0 66 2c 21 3e ad c9 a2 3e 08 92 44 3c d3 1b 60 bd
       0.15739593 0.3179449 0.011997707 -0.054714035
0003c0 4a 95 1d 3e c7 83 5a be d1 8e 3a 3c dd ac 05 be
       0.1538898 -0.21339332 0.011386589 -0.13054223
0003d0 41 a3 7c 3c de 01 70 3e fd 0d c7 bd 06 08 d1 3c
       0.015419782 0.23438212 -0.09719465 0.025516521
0003e0 13 49 52 be 68 9b 4f be 75 82 03 3e 7b 76 9b be
       -0.20535688 -0.20274127 0.12842734 -0.3036383
0003f0 bb 00 98 be 10 1d 8a 3d 71 00 21 3c b0 e7 2f 3e
       -0.29688057 0.067438245 0.009826765 0.17178226

backbone.2.weight f4 [1, 16]
000000 3b 6f 9b be 0d 28 af 3e ec f7 8c be b7 af 25 be
       -0.303583 0.34210244 -0.275329 -0.16180311
000010 81 da 5c 3e 05 13 1c be ff 5a 1a 3e 22 7e 8c 3d
       0.21567728 -0.1524163 0.15073775 0.068599954
000020 bd 22 99 bd 02 f2 8e be 4a 59 15 3e a7 46 b6 bd
       -0.07477329 -0.27919012 0.14584842 -0.089001946
000030 95 dd fa bc 7f 3a 5a 3e 28 23 99 3e f6 c6 9a be
       -0.030623237 0.21311377 0.29909635 -0.3022992
