output/19/best.pth (torch, 714225 bytes, 4 tensors)

encoder.embeddings f4 [88656, 2]
000000 9c 39 d6 bd c6 48 e7 3d 5c 27 e9 bd 29 27 f8 3d
       -0.10460207 0.11293177 -0.1138446 0.12116844
000010 ef 50 ee bd 44 a9 f7 3d 98 c4 ef bd f9 e5 f8 3d
       -0.116365306 0.12092832 -0.11707419 0.12153239
000020 e3 5d f1 bd a7 9f f8 3d 85 cc e5 bd 60 ce f5 3d
       -0.117854856 0.12139826 -0.1122065 0.120022535
000030 ae 6e e9 bd fd 75 f7 3d 52 35 ee bd 72 eb f8 3d
       -0.113980636 0.12083051 -0.11631264 0.12154283
000040 61 19 e2 bd a3 d4 e6 3d 59 72 ec bd 6c 21 f7 3d
       -0.11039997 0.11271026 -0.115452476 0.120669216
000050 e3 1d f2 bd 84 e1 fc 3d bb 14 f5 bd 65 7e fd 3d
       -0.11822107 0.12347701 -0.11966845 0.123776235
000060 04 00 f6 bd 7f e6 fc 3d 7c 61 f3 bd 3d 4d f9 3d
       -0.12011722 0.12348651 -0.11883828 0.12172935
000070 ab bb eb bd 48 39 f9 3d da 63 ef bd d9 05 fc 3d
       -0.11510404 0.12169129 -0.11688967 0.12305803
000080 fc 17 f5 bd 62 4c fd 3d e8 8e ee bd da 62 f5 3d
       -0.11967465 0.123680845 -0.11648351 0.11981745
000090 af a3 f0 bd 1d 9a f6 3d 0c 80 f4 bd e2 a9 fc 3d
       -0.1174997 0.120411135 -0.119384855 0.1233709
0000a0 5a fd f4 bd b8 e1 fb 3d d0 a4 f2 bd bf 79 fa 3d
       -0.119623855 0.12298912 -0.11847842 0.122302525
0000b0 2b 85 ea bd 1c 44 f2 3d 27 9a ea bd 7b d8 f6 3d
       -0.11451181 0.11829397 -0.114551835 0.12053009
0000c0 fb eb f1 bd e9 8a fe 3d 6c 5c f7 bd 6d 89 fc 3d
       -0.11812588 0.12428839 -0.12078175 0.123308994
0000d0 3b 64 ee bd a9 b6 f5 3d 20 b0 ed bd 8f e4 f7 3d
       -0.11640211 0.1199773 -0.11605859 0.12104141
0000e0 6b 93 f4 bd 17 96 fc 3d 8b 0f f5 bd 20 30 fc 3d
       -0.1194218 0.12333315 -0.11965855 0.123138666
0000f0 93 f2 f5 bd 81 fa fc 3d 8d d9 f3 bd f1 71 fb 3d
       -0.12009158 0.12352467 -0.11906729 0.12277592
000100 f3 ab f2 bd 56 b1 fd 3d 99 cc f0 bd 6b 1d fe 3d
       -0.11849203 0.1238734 -0.11757774 0.12407955
000110 a5 74 fb bd 26 99 ff 3d e6 52 f2 bd d9 6f f8 3d
       -0.122781076 0.124803826 -0.11832218 0.12130708
000120 08 74 f0 bd 67 a2 f8 3d c3 d5 f5 bd 73 7b fd 3d
       -0.11740881 0.12140351 -0.120036624 0.12377062
000130 b3 ac f3 bd 7c 42 fd 3d b8 6c f2 bd b1 fe fb 3d
       -0.11898174 0.123661965 -0.11837143 0.12304438
000140 48 00 f4 bd f0 28 fd 3d 61 9f f7 bd c8 42 fc 3d
       -0.11914116 0.12361324 -0.12090946 0.12317425
000150 56 59 f7 bd 40 c4 fe 3d 59 7d f5 bd c6 10 ff 3d
       -0.12077586 0.124397755 -0.11986799 0.12454371
000160 58 ec ec bd 8a cb f8 3d 10 84 ea bd 27 cb f6 3d
       -0.115685165 0.12148197 -0.1145097 0.12050467
000170 ca 78 f0 bd 99 6c fb 3d 79 39 f0 bd 6a 1a fd 3d
       -0.11741789 0.12276573 -0.11729712 0.12358554
000180 c1 f7 f1 bd fe a7 fc 3d 0a da eb bd c0 ca fc 3d
       -0.118148334 0.123367295 -0.11516197 0.12343359
000190 51 f8 f3 bd 0b 4c fc 3d 8f 0a f6 bd 20 56 fc 3d
       -0.11912597 0.123191915 -0.12013733 0.123211145
0001a0 61 2c f7 bd 70 29 ff 3d ba cf ee bd db 0a f8 3d
       -0.120690115 0.124590755 -0.116607144 0.121114455
0001b0 73 4f e4 bd 4f 22 f6 3d c3 8d ed bd b9 2f fc 3d
       -0.11147966 0.120182626 -0.115993045 0.1231379
0001c0 3c 72 f2 bd 70 1c fd 3d a0 63 ee bd f2 34 fe 3d
       -0.11838195 0.1235894 -0.11640096 0.12412442
0001d0 c0 b2 e9 bd e7 f0 fa 3d fb b0 ee bd df 95 fc 3d
       -0.11411047 0.1225298 -0.1165485 0.12333273
0001e0 17 f0 f7 bd 0a 98 fe 3d 1f bb f5 bd 75 3d fe 3d
       -0.121063404 0.12431343 -0.11998581 0.12414066
0001f0 e8 b9 ee bd aa bf f8 3d 42 50 dc bd a6 c5 f5 3d
       -0.116565526 0.12145932 -0.107574955 0.12000589
000200 9d 5b e8 bd 4a 6b fa 3d 0f 1a f3 bd d6 c0 fd 3d
       -0.11345599 0.12227495 -0.11870205 0.12390296
000210 38 df f4 bd d7 ef fd 3d ce 9d f4 bd 90 5c fd 3d
       -0.11956638 0.123992614 -0.11944161 0.123711705
000220 3f 48 f1 bd 56 6d fc 3d 27 b8 f5 bd 9e af ff 3d
       -0.11781358 0.12325542 -0.11998015 0.12484668
000230 7d 40 f3 bd a6 c7 fc 3d e3 ee ef bd f5 8b f7 3d
       -0.118775345 0.123427674 -0.11715486 0.120872416
000240 e9 31 cf bd b2 b3 e7 3d 17 0e e0 bd 9c f8 f6 3d
       -0.101169415 0.11313571 -0.109401874 0.12059137
000250 dc b6 e9 bd 8b 6e f7 3d 28 1e f1 bd 3b 8c f8 3d
       -0.11411831 0.12081631 -0.1177333 0.12136122
000260 a5 ac f2 bd 71 43 f6 3d d1 c0 ee bd f2 5d f7 3d
       -0.118493356 0.12024582 -0.116578706 0.120784655
000270 6b fc f1 bd 9b 23 fa 3d 96 02 ed bd 0a e9 f6 3d
       -0.11815723 0.122138225 -0.11572759 0.120561674
000280 18 bc d6 bd 9f 6e e4 3d 42 f1 ea bd fe b2 f5 3d
       -0.10485095 0.11153912 -0.114717975 0.11997031
000290 94 57 f4 bd 5c 4e fd 3d f9 82 f5 bd 8d 05 fc 3d
       -0.11930767 0.123684615 -0.11987872 0.12305746
0002a0 6b 9b f2 bd 64 25 fb 3d 49 fe df bd 27 ee ea 3d
       -0.1184605 0.12262991 -0.10937173 0.11471205
0002b0 8b a6 e8 bd af 46 f7 3d 13 a3 f3 bd 82 f4 fc 3d
       -0.113598906 0.12074029 -0.11896338 0.12351324
0002c0 bf f9 f3 bd 93 2f fd 3d 94 cf e9 bd 09 6e f8 3d
       -0.1191287 0.1236259 -0.114165455 0.121303625
0002d0 e8 76 f6 bd 20 89 fb 3d e6 45 f5 bd 2f 6f fd 3d
       -0.12034398 0.12282014 -0.11976223 0.12374722
0002e0 35 62 f6 bd c9 b9 fd 3d 4c 34 db bd ed d5 e1 3d
       -0.1203045 0.12388951 -0.10703334 0.11027131
0002f0 7c c2 be bd bf c2 bf 3d 8b c0 d5 bd ad f4 df 3d
       -0.09314439 0.09363317 -0.10437115 0.1093534
000300 ea 53 f5 bd f6 1d fe 3d 82 07 f8 bd f1 d6 fd 3d
       -0.11978896 0.12408058 -0.12110807 0.123945124
000310 3d f0 f2 bd 5c e1 fc 3d 25 4f f7 bd 4f 62 fc 3d
       -0.11862228 0.123476714 -0.120756425 0.123234384
000320 6a f8 f5 bd 64 4c fe 3d ae 15 f5 bd 91 05 fd 3d
       -0.12010272 0.12416914 -0.11967026 0.12354577
000330 7b 3b ca bd 12 2b cf 3d 24 04 a2 bd c3 e1 9e 3d
       -0.09874626 0.10115637 -0.07910946 0.077579044
000340 8f 44 c6 bd 0f 0c cd 3d 3f b4 f0 bd d6 fb fc 3d
       -0.09681045 0.100120656 -0.11753129 0.123527214
000350 2c e2 f8 bd e6 84 fe 3d 85 81 f6 bd 69 63 fe 3d
       -0.12152514 0.12427692 -0.12036423 0.12421305
000360 c3 aa f4 bd 28 d6 fb 3d 17 c4 f5 bd 3c af fd 3d
       -0.11946633 0.122967064 -0.12000292 0.12386939
000370 b6 de f2 bd 28 9d fa 3d b0 4f e2 bd 82 4c e6 3d
       -0.11858885 0.122370064 -0.110503554 0.112450615
000380 3b 41 d1 bd 9a 8b d4 3d 49 c3 dd bd 31 0c e6 3d
       -0.1021752 0.103781894 -0.10828263 0.11232794
000390 ba 9c f0 bd fa 28 fc 3d 7e 24 f9 bd a5 57 00 3e
       -0.11748643 0.12312503 -0.121651635 0.12533434
0003a0 26 3d f9 bd 5c 16 ff 3d 03 02 f5 bd 2c 31 fd 3d
       -0.12169866 0.124554366 -0.11963274 0.123628944
0003b0 1d b6 f7 bd b8 73 fe 3d 31 85 f2 bd c1 1a fa 3d
       -0.12095282 0.12424415 -0.118418105 0.12212134
0003c0 68 a8 e1 bd ff d7 e5 3d ef 85 d9 bd 2b ee df 3d
       -0.11018449 0.112228386 -0.10621249 0.10934099
0003d0 78 fc df bd 3d 48 e6 3d 27 80 f8 bd 95 ae fb 3d
       -0.109368265 0.11244247 -0.12133818 0.12289158
0003e0 4c 94 fa bd 26 60 00 3e fa 45 f7 bd a7 f0 fe 3d
       -0.12235317 0.12536678 -0.12073894 0.124482445
0003f0 8b 93 f3 bd 0b c4 fc 3d 1e 8b f4 bd 50 9f fd 3d
       -0.11893376 0.1234208 -0.11940597 0.12383902

backbone.0.weight f4 [16, 16]
000000 42 94 e2 3c 53 f6 18 be 79 60 e1 bd 41 73 54 bd
       0.027658585 -0.14937715 -0.11004729 -0.051867727
000010 e0 68 33 3e 25 50 38 3e d5 ef 7e 3e 8b de 1f 3e
       0.17520475 0.17999323 0.24896176 0.15612237
000020 37 8c 5d bd 7f 42 4d be 3e b9 1e be c6 92 2a 3e
       -0.054088797 -0.20044897 -0.15500352 0.16657552
000030 81 69 1c bd ea 74 c2 3c dc 7a 15 bd 9b ed a6 be
       -0.038186554 0.02373739 -0.03649412 -0.32603154
000040 2c 3b 5a be ec 0d 58 bd 21 32 66 bd 98 e0 1f be
       -0.21311635 -0.052747652 -0.05620015 -0.1561302
000050 25 fe 51 bd ac aa 80 3e 82 35 5f 3e 42 f6 8e 3d
       -0.05126776 0.25130212 0.21797755 0.06980564
000060 ac c7 c1 3b c3 45 d0 3d 72 ee db 3b 3e 4c 6f 3e
       0.0059136953 0.10169556 0.0067117745 0.23368928
000070 54 33 e4 bd 13 24 e4 3d c4 b3 22 3e c7 b0 11 be
       -0.111426026 0.11139693 0.15888888 -0.14227591
000080 9c 28 a1 be e1 74 43 3e de 54 f0 bd 24 12 f9 ba
       -0.31476295 0.19087555 -0.11734937 -0.0019002599
000090 91 47 d8 3d 1e 0c e8 bd f4 4a 9a be a1 a9 44 3e
       0.10560525 -0.11330436 -0.3013531 0.19205333
0000a0 18 13 a3 3e a0 b0 b1 bd 44 d6 92 be cd a2 09 3e
       0.31850505 -0.08676267 -0.28679097 0.1344101
0000b0 5a 57 62 bd 78 1f 83 be af d0 02 be ce 48 fc 3d
       -0.055259086 -0.25609946 -0.12774919 0.12318574
0000c0 48 10 33 be b2 bd 5d bd 84 d9 3a 3e 04 07 af bc
       -0.1748668 -0.054135986 0.18247038 -0.02136565
0000d0 2a 1e e9 bc 32 ae 62 be 9a 8a 99 bd 2d ce 3a be
       -0.028456766 -0.22136763 -0.07497139 -0.18242712
0000e0 1f 9b a1 3d 04 6b b2 bd c8 d7 29 3e d9 51 e6 bd
       0.07890915 -0.08711818 0.1658622 -0.1124608
0000f0 c3 5d 1e be 96 d0 84 be 9d 20 34 be 7a 56 95 be
       -0.15465455 -0.25940388 -0.17590566 -0.2916754
000100 a4 9b 00 be 96 e9 98 3e 6d 6d b3 be 00 06 54 3e
       -0.12559372 0.29865712 -0.35044423 0.20705414
000110 12 84 44 bd f7 0f 7b 3d 45 63 0f be 5a cc 8e 3e
       -0.047977515 0.061294522 -0.14002712 0.27890283
000120 94 79 84 3e 3f 63 e3 bc 33 84 2c be a0 2c af 3e
       0.25874007 -0.027757285 -0.16847305 0.34213734
000130 8f f7 af bd 2e 1a a9 be ee 06 a0 3e 3a ca 0b be
       -0.0859214 -0.33027786 0.31255287 -0.13651362
000140 13 41 d7 bd 30 4c 8b bd 1e 6e 5c be 3b dd 65 be
       -0.10510459 -0.06801641 -0.21526381 -0.22447674
000150 0a f1 e2 3d 71 92 33 3e 3a b7 76 3e d0 bf ba bd
       0.11081131 0.17536332 0.24093333 -0.091186166
000160 93 4b 6d bd 64 9e 23 3e 63 91 0b 3d a7 50 59 be
       -0.0579334 0.1597839 0.0340742 -0.21222173
000170 a0 e7 74 bc 45 71 10 be ef 6e 58 3d db 5e 84 bd
       -0.014947802 -0.14105709 0.05284017 -0.06463405
000180 1a a8 cf bd 51 37 63 be cb 4f 3f be a9 b9 8d 3b
       -0.10139485 -0.2218907 -0.18682782 0.004325111
000190 9c c4 a0 3d ea dd 1c bd 86 cd ff bd 6b b8 bb 3d
       0.0785 -0.03829757 -0.12490372 0.09166034
0001a0 10 21 2b bb bb 02 85 3d 3d 0f d5 3d ba 5c 47 3e
       -0.0026112236 0.064946614 0.10403297 0.19468966
0001b0 eb 49 02 bd af 47 db bd b4 9d 71 be 47 e1 19 be
       -0.031808775 -0.10707032 -0.23595315 -0.15027343
0001c0 be e1 1e be 20 d1 91 3e a7 c1 31 be 64 38 c8 bd
       -0.15515801 0.28479862 -0.17359029 -0.09776381
0001d0 7f d9 a8 bc 98 d5 0b 3e 04 eb ca bd e1 08 c0 3d
       -0.020611523 0.13655698 -0.09908107 0.093766935
0001e0 61 4c d3 3d fc 29 88 bb 6f bc 86 bd 44 0d 58 3e
       0.103173025 -0.0041553956 -0.065789096 0.2109881
0001f0 f0 6e 3f be 73 1c 85 be 29 f8 73 3e ff 9a 4d be
       -0.18694663 -0.25998268 0.23825134 -0.20078658
000200 01 f6 ab be 1e 24 a1 bd 24 ce ab be b3 90 dc 3d
       -0.33586124 -0.07868217 -0.3355571 0.10769787
000210 8b 67 4d be 87 0e 12 be 41 4c 9b be 6f eb 0e bd
       -0.2005903 -0.14263354 -0.30331615 -0.034892496
000220 4a 80 b1 3e 35 50 a5 be 43 52 90 be 0c b1 5c bd
       0.3466819 -0.32287756 -0.2818776 -0.053879783
000230 d0 3c b5 3e 86 c4 aa be 74 06 9e 3e a9 ac 60 3e
       0.3539796 -0.3335306 0.30864298 0.21940865
000240 2b 19 26 bd b0 1a 92 3e 43 87 42 bd 09 b1 74 bd
       -0.040551346 0.28535986 -0.047492277 -0.059739146
000250 6b f2 5c be da 6c 1b 3d 88 65 33 be 07 75 6a bd
       -0.2157685 0.037945606 -0.175192 -0.057240512
000260 e4 42 59 3d fc a5 39 be 8b 65 27 3d f2 a9 b1 3e
       0.053042307 -0.18129724 0.040868323 0.3469997
000270 0e d4 5d 3e c4 d9 b1 be 22 e1 7e 3e 24 89 70 bd
       0.21662924 -0.34736454 0.24890569 -0.058724537
000280 d9 f8 70 be 6c f5 0b bd 86 7c 54 3d 7f 00 56 3e
       -0.23532428 -0.0341696 0.051876567 0.20898627
000290 57 01 a7 3d e6 6f 8f 3d 6e 1e 99 be 13 83 a8 3e
       0.081545524 0.07003765 -0.29906029 0.32912502
0002a0 b8 6d a0 3e 94 bd a7 be 7d 96 2d 3b 1b 28 75 bb
       0.3133371 -0.32761824 0.0026487403 -0.0037407938
0002b0 ed a1 a7 3d 31 20 8f be 8f 2f 4b 3e 4f 82 a9 3d
       0.08185182 -0.27954248 0.19842361 0.082768075
0002c0 97 86 77 be e2 2a 23 3d bc 7b 98 be 4a 83 55 3d
       -0.24172436 0.039835818 -0.29781902 0.05212716
0002d0 bb 6a ae bd 67 6d 67 be 0a 13 1c be 01 b5 e0 3d
       -0.08516451 -0.22600327 -0.15241638 0.10972024
0002e0 61 e5 34 3e 99 3b aa bd 5f 42 2c be 61 d1 4c 3e
       0.17665626 -0.083121486 -0.16822194 0.20001747
0002f0 9c aa 1e 3e 14 5c 95 3c b8 6e 31 3d af 85 05 3e
       0.1549477 0.018232383 0.04331848 0.13039277
000300 bc ca 9d 3d 10 f8 62 3e d8 b1 d4 3c 21 43 58 3e
       0.07704684 0.22164941 0.025963709 0.21119358
000310 20 9a 20 be 9e 5c ac be b4 9d fc bb 95 d7 97 3e
       -0.15683794 -0.3366441 -0.0077092294 0.29656664
000320 65 5c 34 3e 45 ca 11 be 26 a2 61 bd 84 ae 24 3e
       0.1761337 -0.14237316 -0.055086277 0.16082197
000330 fe c3 79 3e f1 36 dd bd 5a a4 56 3d 5d 33 5a 3e
       0.24391171 -0.10801495 0.05240283 0.21308656
000340 7b eb 6e be 71 0f eb bd 20 d3 3d be 02 bb 1e be
       -0.23332016 -0.114775546 -0.18537569 -0.15501025
000350 14 b8 39 3e b0 fb cc bb d4 a2 4b 3e 66 84 11 3e
       0.18136626 -0.0062555894 0.19886333 0.14210662
000360 7e ed fc bd 73 2a 64 3d 78 0c 35 bc 41 be ac 3c
       -0.123499855 0.055704545 -0.011050336 0.021086814
000370 ce 1b eb 3d e7 b5 0d be ef df fd bd d1 ff f7 bc
       0.11479913 -0.13838921 -0.123962276 -0.03027335
000380 92 86 b7 3d f4 24 0b 3e 91 18 b7 be 99 29 60 3d
       0.08961214 0.13588315 -0.3576093 0.05472717
000390 c7 81 35 be 9d 28 b9 be bd a1 53 be 8b 12 e5 3c
       -0.17725287 -0.36163798 -0.20667167 0.027962944
0003a0 c8 67 b1 3e fe f1 3b 3d 27 c4 7e be f1 91 08 3d
       0.3464949 0.04588508 -0.24879514 0.033342306
0003b0 d8 6c 9f 3e e1 7d 12 3e eb 96 77 3e 17 a3 a0 bd
       0.3113773 0.14305831 0.24178664 -0.07843607
0003c0 3b 75 04 3e 46 fc 62 3e 11 d7 d7 3d a1 0c d7 bd
       0.12935345 0.22166547 0.105390675 -0.10500456
0003d0 a8 e5 45 3e f4 1f f0 3d 89 5a 30 3d 16 86 a3 be
       0.19325888 0.117248446 0.04305509 -0.31938237
0003e0 48 40 cf 3c 37 c6 71 bb ab 8e 24 3e c9 31 93 be
       0.025299206 -0.0036891827 0.16070049 -0.2874892
0003f0 be fd 89 be 42 ff 57 be b3 be 52 3e 66 5e 1f be
       -0.26951402 -0.21093467 0.20580558 -0.15563354

backbone.1.weight f4 [16, 16]
000000 85 29 64 bd 8a 74 3b 3e ee b3 e1 3d bc 8c 3f be
       -0.05570366 0.18306175 0.11020647 -0.1870603
000010 f8 44 d8 bc 5f 2f ef bc 10 76 17 be c5 4d 7d 38
       -0.026400074 -0.029197393 -0.14791131 6.039233e-05
000020 21 d8 86 3e 62 cc e8 3d aa ea ae 3e af 46 a0 3e
       0.26336768 0.11367108 0.3416341 0.31303927
000030 47 18 a5 3d 36 5c 99 3c 9b 52 96 bd f8 69 f5 3d
       0.08061271 0.018720727 -0.073399745 0.119831026
000040 13 3f 2a bd 5e 96 3c 3e 0c bc b3 3e ba 19 ab 3c
       -0.04156406 0.18416736 0.35104406 0.02088629
000050 f4 3a 76 3e c5 d4 ce bd ae a2 02 3d 05 af 85 3e
       0.24045926 -0.10099176 0.031893425 0.26110092
000060 c0 fb 8e 3e 32 01 a7 3d 68 36 2f 3d 16 7b b1 3e
       0.27926445 0.08154525 0.042776495 0.3466422
000070 35 53 89 3e 26 9d 61 3e fc 3e 4a 3c 2a ed 11 be
       0.26821294 0.22032604 0.012344118 -0.14250627
000080 49 49 b7 3b b5 82 1f 3e 2b 5f 9d bd be d8 d8 38
       0.005593453 0.15577205 -0.076841675 0.00010340054
000090 ea 4e 8b 3c 5e 39 2d 3e 78 22 cd bd d8 51 81 3d
       0.017005403 0.16916415 -0.1001634 0.063144386
0000a0 ec fc aa 3d 7b 50 01 be 4b 87 2c 3e a6 08 30 3e
       0.08349022 -0.12628357 0.16848485 0.17190799
0000b0 c7 2a f1 bd 76 f6 41 3e 54 33 53 be bb 22 95 bd
       -0.11775737 0.18941674 -0.20625049 -0.07282015
0000c0 54 50 80 3e 8d 20 f8 3d e9 92 8a be 3c e1 d5 3d
       0.25061285 0.121155836 -0.2706521 0.10443351
0000d0 cf 16 07 be 02 3b 30 be 66 a0 7b 3e ef 2d 49 be
       -0.13192295 -0.1721001 0.24572906 -0.19646429
0000e0 38 c1 a5 be c1 70 a2 be 6d 06 e3 bd a8 d0 89 3e
       -0.32373977 -0.3172665 -0.1108521 0.26917005
0000f0 ec 76 d5 3d 05 58 50 be 88 52 9b 3e 4e 5c e2 bd
       0.10423073 -0.20346077 0.30336404 -0.11052762
000100 40 2a c3 bd eb 2d 7e bd e6 5d 50 bd e6 a1 c2 bd
       -0.09529543 -0.06205551 -0.0508708 -0.09503536
000110 61 80 ff 3d d6 91 06 bd 2e 7f 79 3d 53 a1 5c be
       0.12475658 -0.032853924 0.060912304 -0.21545915
000120 34 68 48 be 2c b6 86 be fa 8a d7 bd b5 8e dc bd
       -0.19571 -0.2631086 -0.105245546 -0.10769407
000130 c8 e0 94 3e 64 e8 c7 bd 30 58 7b 3c 8e a8 87 bd
       0.29077744 -0.09761122 0.01534085 -0.06623946
000140 f1 18 f6 3d 37 9f d7 bd 2a f5 19 3e c7 b1 e5 3b
       0.12016476 -0.10528415 0.15034929 0.007009718
000150 5c cc 03 bd 03 03 46 be 62 63 6b be 76 d9 ce 3b
       -0.032177314 -0.19337086 -0.2298713 0.0063125445
000160 69 4f b4 bc 32 53 4a be fc 5a 42 be cc 6a 4e bd
       -0.022010522 -0.19758299 -0.1898002 -0.05039482
000170 99 2a 0c 3d dc 2a f8 3d b8 2b de bd a8 59 6f 3e
       0.03422031 0.1211755 -0.108481824 0.23374045
000180 bc f9 83 bd ef 59 47 3e 0b 13 a6 3e 41 a1 28 3e
       -0.064441174 0.194679 0.32436404 0.16467763
000190 f5 00 61 3e a2 ae 0f 3e 94 c4 59 3d 34 3c 9b 3e
       0.21973021 0.14031461 0.053165987 0.3031937
0001a0 e3 fe 84 3e 06 3e 2c 3e 06 b7 86 3e c0 5f a3 3e
       0.25975713 0.16820535 0.2631151 0.3190899
0001b0 7e c1 02 be ce 4a 74 bd 65 76 e1 bd 6a 52 81 3d
       -0.12769124 -0.05964165 -0.1100891 0.06314547
0001c0 dd a4 12 be 7c 46 79 bd 5a 5d 83 be 6e e0 b4 bc
       -0.14320703 -0.060858235 -0.2565716 -0.022079673
0001d0 a8 03 5c be 61 07 55 3e 6a 46 1f 3e 5d 24 7d 3d
       -0.2148577 0.20803596 0.15554205 0.061802257
0001e0 35 a3 ff 3d b2 02 b1 bd b2 4b ca bd d5 6f e4 bd
       0.12482301 -0.08643092 -0.09877719 -0.11154143
0001f0 2a c9 0a 3e 1a b9 eb 3c af d5 e3 bd 1f bf d2 3b
       0.135533 0.028774787 -0.11124741 0.006431475
000200 02 bb bd 3d cc ad 28 3e b4 a8 4e be 04 1e 5f 3e
       0.092641845 0.16472548 -0.20181543 0.21788794
000210 9e 5c 08 be 3a 80 2b 3c 2c e8 e2 bd 25 13 a1 bc
       -0.1331658 0.010467583 -0.110794395 -0.01966245
000220 f6 91 10 3e 5d 1b 13 bd a3 87 83 3d 4f bd 88 3d
       0.1411818 -0.035914768 0.06422355 0.06676733
000230 a1 9f 12 3e 26 74 23 3e b0 57 40 be d6 92 3f be
       0.14318706 0.15962276 -0.1878345 -0.18708357
000240 cb 0a 25 be c4 7a b0 bd 9f 4f 38 3e 1d e7 ab bd
       -0.16117398 -0.08617166 0.17999123 -0.08393691
000250 13 4c 53 3e 6b 4a 95 bc 47 26 60 bd 4f cc 4b bd
       0.20634489 -0.018223962 -0.054724004 -0.04975539
000260 a2 ef 7d 3e 6a 94 ad 3e 80 9e 23 3e ad f4 f2 3d
       0.24798444 0.33902293 0.15978432 0.118630745
000270 81 62 9b 3e 3c 9b 85 bd 29 3b 3f 3e 09 66 50 3d
       0.3034859 -0.06523749 0.18674912 0.05087856
000280 30 f3 96 3e 65 c0 03 3d 39 8d 38 be 5c 6a 4a 3e
       0.29482412 0.032165904 -0.18022622 0.19767135
000290 51 e2 4c be 24 14 74 be 05 6c 5a 3e 5f ea a3 bd
       -0.20008208 -0.23835808 0.21330269 -0.08003687
0002a0 e0 f9 8f be ee cc c0 3d bf 7f 74 be 74 61 46 be
       -0.28120327 0.09414087 -0.23876856 -0.19373113
0002b0 2e 15 78 3e 91 5c ac 3d 4d 65 6a 3e c3 35 1a 3e
       0.2422683 0.08416093 0.22890206 0.15059571
0002c0 27 56 20 be 3e f1 71 3b e6 36 25 bc b4 35 10 3d
       -0.15657865 0.0036917473 -0.01008389 0.035207465
0002d0 a0 d9 5d 3e d2 1e 5e 3e b2 42 ff 3d 59 21 1c 3c
       0.21665049 0.21691445 0.12463893 0.009529435
0002e0 e1 3a 8f 3e 4d ea 54 3e 1f fa 13 3e 16 04 8a 3e
       0.2797461 0.20792504 0.14450882 0.26956242
0002f0 fd e2 97 3e 74 37 f2 3d 4b 01 26 3e d1 ed 52 3e
       0.29665366 0.11826983 0.1621143 0.20598532
000300 1d bb cf 3d a6 48 23 3e 91 69 4b be d6 18 85 3d
       0.10143111 0.15945682 -0.19864489 0.06498878
000310 25 01 3f be 64 e9 b7 bd 31 67 28 3e 54 2e 93 3d
       -0.1865278 -0.089800626 0.16445614 0.07186571
000320 f9 8f 73 bd 6b f2 5a bd 83 c1 27 be 67 4a 08 3c
       -0.059463475 -0.053453844 -0.16382413 0.00831852
000330 b4 ab b5 3d f6 cc 43 be bb 7e 7f 3c 10 74 d7 3d
       0.088706404 -0.19121155 0.01559418 0.10520184
000340 8e be 39 be 83 cd 22 3e 6e 86 e4 3d af b2 0d be
       -0.18139097 0.15898709 0.11158453 -0.13837694
000350 18 7c 98 3d 8b d1 42 3d 86 eb 2c 3d 61 74 39 3d
       0.07445544 0.047563117 0.0422168 0.045277003
000360 ab 77 9a be 12 f0 b9 bd 02 b7 b4 be 3b 50 3a 3e
       -0.30169424 -0.09078993 -0.35295874 0.18194668
000370 f5 28 49 3e 4a e2 28 be 6f 3b a7 3d 64 bf aa 3d
       0.1964453 -0.16492572 0.08165633 0.08337286
000380 29 af 0c be 74 54 2d 3e d1 42 90 3e f9 87 33 be
       -0.13738693 0.16926748 0.28175977 -0.17532338
000390 be 76 a1 3e d9 19 b9 3d dd b0 84 be a3 36 77 3e
       0.31535906 0.09038133 -0.25916186 0.24141936
0003a0 14 39 9d 3d 97 66 22 3e de ed cb 3d 66 40 02 be
       0.076769024 0.15859447 0.09957479 -0.12719879
0003b0 d3 db 41 3e ab 32 ad 3d ff ea 88 3e 92 8c 32 be
       0.18931513 0.0845693 0.26741788 -0.17436436
0003c0 8a c1 8a 3e 5d 22 2f 3e 7e 9a 82 bd f5 17 55 3d
       0.27100784 0.17102952 -0.06377123 0.0520248
0003d0 83 05 d4 3d 10 d8 2a 3e fc 3e 4b be 58 d7 30 be
       0.10352614 0.16683984 -0.19848245 -0.17269647
0003e0 17 19 21 be 54 ef 1a 3e 1f e7 82 be ca 6d e8 bd
       -0.15732227 0.15130359 -0.25566956 -0.113490656
0003f0 88 fe d1 bd 0e 76 85 3d 77 bc a2 bd f5 f7 86 3e
       -0.10253626 0.06516658 -0.07946103 0.2636105

backbone.2.weight f4 [1, 16]
000000 34 9a 74 3e 92 20 81 3e b8 26 87 be 06 e0 83 be
       0.23886949 0.25220162 -0.26396728 -0.25756854
000010 33 f8 d0 bd 16 f1 2a be e0 a2 c4 3d 8b 4f a5 3d
       -0.1020359 -0.1669353 0.096013784 0.08071812
000020 11 e9 87 3d 58 64 b0 3e dd 4a 8c be e1 66 01 3e
       0.06636251 0.34451556 -0.27400866 0.12636901
000030 b0 3e d3 bd 35 c9 8d be 78 1f 92 3e ae 8b 21 be
       -0.10314691 -0.2769257 0.28539634 -0.1577594
