output/15/best.pth (torch, 714225 bytes, 4 tensors)

encoder.embeddings f4 [88656, 2]
0	0xbddd6305	-0.10809902
1	0xbde28b0c	-0.11061677
2	0xbdf0cc02	-0.117576614
3	0xbdeda3de	-0.11603521
4	0xbdf64597	-0.12024992
5	0xbdf138f9	-0.11778445
6	0xbdf4cd4a	-0.11953218
7	0xbdf2c4c7	-0.118539385
8	0xbddcbfbc	-0.10778758
9	0xbde3d5f3	-0.11124792
10	0xbdd0ad9a	-0.10189362
11	0xbdc3f0d6	-0.0956742
12	0xbdd4e945	-0.10396055
13	0xbde8e30f	-0.11371433
14	0xbde67e0e	-0.11254512
15	0xbdec2d84	-0.11532119
16	0xbde37643	-0.11106541
17	0xbddd85d0	-0.10816538
18	0xbdf027f6	-0.11726372
19	0xbdf02bf0	-0.117271304
20	0xbdf87398	-0.12131423
21	0xbdf2f160	-0.11862445
22	0xbdfddfe4	-0.123962194
23	0xbdf4e15e	-0.11957048
24	0xbdfdff9f	-0.124022715
25	0xbdf8a16a	-0.12140162
26	0xbdee43ac	-0.11634001
27	0xbdf78549	-0.12085969
28	0xbded5b4d	-0.1158968
29	0xbdf5e380	-0.12006283
30	0xbde57540	-0.11204004
31	0xbdf7ea87	-0.121052794
32	0xbdf2d27b	-0.11856552
33	0xbdf23e57	-0.11828297
34	0xbdf137e8	-0.117782414
35	0xbdef48a5	-0.11683778
36	0xbde73a03	-0.11290362
37	0xbded7671	-0.115948565
38	0xbdf6afdc	-0.12045261
39	0xbdf1d949	-0.11809022
40	0xbdfdd2b1	-0.12393702
41	0xbdf3275f	-0.11872744
42	0xbdff8ed0	-0.12478411
43	0xbdf3605a	-0.11883612
44	0xbdff289b	-0.12458917
45	0xbdf3e3c0	-0.11908674
46	0xbdff3a83	-0.12462332
47	0xbdf5f046	-0.12008719
48	0xbdfbe501	-0.122995384
49	0xbdf71f30	-0.120664954
50	0xbdf88eca	-0.1213661
51	0xbdf3cd6e	-0.11904417
52	0xbdecb59f	-0.11558079
53	0xbdef4976	-0.116839334
54	0xbdf4c065	-0.11950759
55	0xbdf2b879	-0.118515916
56	0xbdfce77d	-0.123488404
57	0xbdf6fb08	-0.12059599
58	0xbdfc057e	-0.12305735
59	0xbdf5f42c	-0.12009463
60	0xbdfdf3c7	-0.124000125
61	0xbdf434d8	-0.11924142
62	0xbdffab53	-0.124838494
63	0xbdf33c91	-0.118767865
64	0xbdf36fd9	-0.118865676
65	0xbdf597fd	-0.1199188
66	0xbdf49997	-0.119433574
67	0xbdf37c9d	-0.118890025
68	0xbdf3fcac	-0.11913428
69	0xbdf43385	-0.11923889
70	0xbdeb1820	-0.11479211
71	0xbdf2579d	-0.11833117
72	0xbdeeecb6	-0.11666243
73	0xbdf15946	-0.11784606
74	0xbdfb25c9	-0.12263066
75	0xbdfb9cc0	-0.12285757
76	0xbdfe0aac	-0.12404379
77	0xbdf7f384	-0.12106994
78	0xbdf494db	-0.119424544
79	0xbdf2b536	-0.118509695
80	0xbdf33501	-0.11875344
81	0xbdf04efd	-0.11733816
82	0xbdec4ee3	-0.11538484
83	0xbdf45f9d	-0.11932299
84	0xbdfbfee7	-0.12304478
85	0xbdf356af	-0.11881768
86	0xbdfc8c9d	-0.12331507
87	0xbdf5c3be	-0.120002255
88	0xbdf5fbcd	-0.12010918
89	0xbdf4da71	-0.11955727
90	0xbdf1b679	-0.11802382
91	0xbdf26bb7	-0.11836951
92	0xbdfbe8dc	-0.12300274
93	0xbdfb7bf6	-0.12279503
94	0xbdfecf17	-0.12441843
95	0xbdf8cee7	-0.121488385
96	0xbdf8b7e9	-0.12144453
97	0xbdf69f85	-0.12042145
98	0xbdfa2075	-0.12213222
99	0xbdf18836	-0.11793558
100	0xbdfd6f1f	-0.1237471
101	0xbdf4b2aa	-0.1194814
102	0xbdfda9c9	-0.123858996
103	0xbdf33a5e	-0.11876367
104	0xbdf8dd00	-0.121515274
105	0xbdf4e493	-0.119576596
106	0xbdea6900	-0.114458084
107	0xbdf225fd	-0.11823652
108	0xbdf68818	-0.120376766
109	0xbdf431ae	-0.11923538
110	0xbdfe7dc6	-0.12426333
111	0xbdf710c9	-0.120637484
112	0xbdfdd1a3	-0.12393501
113	0xbdf810d1	-0.121125825
114	0xbdfca3c3	-0.123359226
115	0xbdf792f0	-0.12088573
116	0xbdfd5d93	-0.123713635
117	0xbdf7cfb8	-0.12100166
118	0xbdff63ee	-0.12470232
119	0xbdf7290c	-0.12068376
120	0xbdfd1436	-0.123573706
121	0xbdf4ff9a	-0.11962815
122	0xbdff93b1	-0.12479342
123	0xbdf5b90b	-0.11998185
124	0xbdf2330e	-0.11826144
125	0xbdf1a1c6	-0.11798434
126	0xbdf41288	-0.11917597
127	0xbdee7db2	-0.11645068
128	0xbdfb1832	-0.12260474
129	0xbdf2560c	-0.118328184
130	0xbdfb8c1f	-0.12282585
131	0xbdf63447	-0.1202169
132	0xbdfc3c9a	-0.12316246
133	0xbdf713ae	-0.120643005
134	0xbdfc3428	-0.123146355
135	0xbdf7176c	-0.12065014
136	0xbdfabf2e	-0.12243496
137	0xbdf7aa06	-0.12092976
138	0xbdfb6f72	-0.12277116
139	0xbdf6393b	-0.120226346
140	0xbdf73b25	-0.12071828
141	0xbdf36823	-0.11885097
142	0xbdecdcef	-0.11565577
143	0xbdef6ce8	-0.11690694
144	0xbddfe647	-0.10932594
145	0xbddac96e	-0.10682951
146	0xbdf071e4	-0.11740473
147	0xbdee8807	-0.11647039
148	0xbdf61089	-0.120148726
149	0xbdf1df49	-0.118101664
150	0xbdf700d1	-0.120607026
151	0xbdf4e33a	-0.119574025
152	0xbdf6ebc1	-0.12056685
153	0xbdf1dbb9	-0.11809487
154	0xbdf51537	-0.11966937
155	0xbdf07f2c	-0.11743006
156	0xbdf4cfab	-0.11953672
157	0xbdf01a1b	-0.11723729
158	0xbdf23c6b	-0.1182793
159	0xbdef37da	-0.11680575
160	0xbddf032a	-0.10889275
161	0xbddd0b3a	-0.10793157
162	0xbdec4a7b	-0.115376435
163	0xbdee0535	-0.11622087
164	0xbdfb48b0	-0.122697234
165	0xbdf43fce	-0.11926232
166	0xbdfbe702	-0.122999206
167	0xbdf370cd	-0.118867494
168	0xbdf7792c	-0.120836586
169	0xbdf29c5f	-0.11846232
170	0xbdd50cc0	-0.104028225
171	0xbdebea25	-0.11519269
172	0xbddd2bef	-0.10799395
173	0xbde841fc	-0.113407105
174	0xbdf9702f	-0.121796004
175	0xbdf8bddc	-0.12145588
176	0xbdfd44f9	-0.12366671
177	0xbdf7e7cc	-0.121047586
178	0xbdfa15cc	-0.12211189
179	0xbdeeba31	-0.11656607
180	0xbdf9f03c	-0.12204024
181	0xbdf444a5	-0.119271554
182	0xbdfc5065	-0.123200215
183	0xbdf3a1e4	-0.118961126
184	0xbdfb192f	-0.12260663
185	0xbdec4537	-0.11536639
186	0xbdf28dcf	-0.11843454
187	0xbde89079	-0.11355681
188	0xbde90e26	-0.11379652
189	0xbdf00231	-0.11719168
190	0xbdf3056a	-0.11866267
191	0xbdf1a9e1	-0.1179998
192	0xbdfc1cd8	-0.12310189
193	0xbdf5151f	-0.11966919
194	0xbe00d164	-0.12579876
195	0xbdf79524	-0.12088993
196	0xbdfa792c	-0.12230143
197	0xbdf4d644	-0.119549304
198	0xbdf4c71c	-0.119520396
199	0xbdf260cc	-0.11834869
200	0xbdfa3cb6	-0.12218611
201	0xbdf1469b	-0.11781045
202	0xbdf2e511	-0.11860097
203	0xbde6b010	-0.1126405
204	0xbded5ed0	-0.1159035
205	0xbddeddd5	-0.10882155
206	0xbdef5079	-0.11685271
207	0xbde4084d	-0.11134396
208	0xbdf599ec	-0.11992249
209	0xbdea48fa	-0.114397004
210	0xbdf9204d	-0.12164364
211	0xbdf09fee	-0.11749254
212	0xbe0101d8	-0.1259836
213	0xbdf57085	-0.11984352
214	0xbdf79d01	-0.12090493
215	0xbdf32928	-0.11873084
216	0xbdfa769e	-0.12229656
217	0xbdf73eba	-0.12072511
218	0xbdfe096d	-0.124041416
219	0xbdf78347	-0.12085586
220	0xbdf3022b	-0.11865648
221	0xbde92f34	-0.113859564
222	0xbde6df57	-0.112730674
223	0xbddd8230	-0.10815847
224	0xbdf189f1	-0.11793888
225	0xbde3c1d8	-0.11120957
226	0xbdf699ec	-0.12041077
227	0xbde76993	-0.112994336
228	0xbdf57b97	-0.119864635
229	0xbdeb1edb	-0.114804946
230	0xbdfc7eb7	-0.123288564
231	0xbdf2fdd2	-0.11864819
232	0xbdf0245a	-0.117256835
233	0xbdf4477b	-0.11927696
234	0xbdfab496	-0.12241475
235	0xbdfa45d4	-0.1222035
236	0xbdfd52a6	-0.123692796
237	0xbdfc595f	-0.12321734
238	0xbdf49018	-0.11941546
239	0xbdeb28ff	-0.11482429
240	0xbde9ed8d	-0.11422262
241	0xbddda7eb	-0.108230434
242	0xbded3506	-0.11582379
243	0xbde2472b	-0.110487305
244	0xbdf277dd	-0.11839268
245	0xbde6675c	-0.11250183
246	0xbdf75a48	-0.12077767
247	0xbdec4a22	-0.11537577
248	0xbdf6e4d4	-0.12055364
249	0xbdf3c654	-0.119030625
250	0xbdf81532	-0.12113418
251	0xbdf4156f	-0.11918151
252	0xbdfd30af	-0.12362801
253	0xbdfb469e	-0.122693285
254	0xbe0096b3	-0.12557487
255	0xbdfbe16d	-0.12298856

backbone.0.weight f4 [16, 16]
0	0xbe48e0ef	-0.19617055
1	0xbe44cd72	-0.19218996
2	0x3e64fd2f	0.22362207
3	0xbda316fd	-0.07963369
4	0x3d6f1adb	0.05837522
5	0x3de328ea	0.11091788
6	0xbe0b6c63	-0.13615565
7	0x3e0a1e6b	0.13488166
8	0xbd21527e	-0.03938531
9	0x3e36c9cf	0.17850421
10	0x3dcdb0e2	0.10043503
11	0xbea12db9	-0.31480196
12	0x3d8828f4	0.06648436
13	0x3e819ebf	0.25316426
14	0x3eabb9fd	0.33540335
15	0xbe0aff12	-0.13573864
16	0xbe81d48a	-0.25357467
17	0xbe1f5b8e	-0.15562269
18	0xbea467b4	-0.3211037
19	0xbe55d3cf	-0.2088158
20	0xbe2c66e4	-0.16836125
21	0x3e209c89	0.15684713
22	0x3e4208ac	0.1894862
23	0x3e448d98	0.19194639
24	0xbdd5f069	-0.10446245
25	0xbeab8f72	-0.33507878
26	0x3e88026a	0.26564342
27	0x3e24582d	0.16049261
28	0x3d2e7ce2	0.042599566
29	0x3deb5ee4	0.11492708
30	0xbd39c28e	-0.045351557
31	0xbd2a4243	-0.0415671
32	0x3e3de2b0	0.18543506
33	0x3d49a3c8	0.04922846
34	0x3d612aa6	0.054972313
35	0x3e08b8d7	0.13351761
36	0xbe4d1dd2	-0.20030907
37	0x3dc182f3	0.09448805
38	0x3e67ce39	0.22637261
39	0xbe12abc0	-0.1432333
40	0x3df0cf31	0.117582686
41	0xbe708cdf	-0.23491238
42	0x3cf97088	0.030449167
43	0xbe653fc3	-0.22387604
44	0xbe8e1602	-0.27751166
45	0x3e2a9816	0.16659579
46	0xbe962a60	-0.29329205
47	0xbc9d1f81	-0.019180061
48	0x3e34e283	0.17664532
49	0x3e3d8334	0.18507081
50	0xbddc7e53	-0.10766282
51	0x3e7d2232	0.24720076
52	0xbe4cfab5	-0.20017512
53	0x3c5a8997	0.013338468
54	0x3e87ab43	0.2649785
55	0xbe8251a2	-0.25452906
56	0xbe39bf4f	-0.18139385
57	0x3e209d6e	0.15685055
58	0xbdd1e95b	-0.10249587
59	0xbe0fe570	-0.14052367
60	0x3e055e13	0.13024168
61	0x3e5a5cb5	0.21324427
62	0x3d39904a	0.04530362
63	0x3e89ed29	0.2693875
64	0xbe4f4599	-0.20241393
65	0xbe3c6e2b	-0.184014
66	0xbea0ea92	-0.31428963
67	0x3b0c1fa0	0.0021381155
68	0xbe903ed4	-0.28172934
69	0x3e0cc514	0.13747054
70	0x3dbaa3f5	0.091133036
71	0x3eaacff0	0.3336177
72	0x3c7ccdbd	0.015429911
73	0x3cea6d14	0.028616466
74	0x3e47799a	0.19479981
75	0xbe7549ee	-0.23953983
76	0xbdf0aa56	-0.11751239
77	0xbe9502c5	-0.29103675
78	0xbe50d119	-0.20392264
79	0xbd2662eb	-0.04062168
80	0x3da27922	0.079332605
81	0x3e40e6ee	0.18838093
82	0x3e4d3f26	0.2004362
83	0x3e36a9fd	0.17838283
84	0xbdfe1e8b	-0.12408169
85	0xbe58da99	-0.21177138
86	0x3e2aa7d0	0.16665578
87	0xbde16e2c	-0.11007342
88	0xbe0a35e8	-0.13497126
89	0x3929d1dd	0.00016195276
90	0x3dfff5f7	0.12498086
91	0xbe7be7e6	-0.24600181
92	0x3e499bb3	0.19688301
93	0xbd981f49	-0.07427842
94	0xbd52ea48	-0.05149296
95	0xbdc8bf5b	-0.09802123
96	0x3c2fcaad	0.010729474
97	0xbe69d290	-0.2283423
98	0xbe9069e5	-0.2820579
99	0xbe25ba7d	-0.16184421
100	0xbd2fc7ee	-0.042915277
101	0x3eb1b368	0.3470719
102	0x3e9fcb57	0.31209823
103	0x3d711681	0.058859352
104	0xbea97eba	-0.33104497
105	0xbe98197f	-0.29706952
106	0xbe4810f1	-0.19537713
107	0xbc03b6dc	-0.008039203
108	0xbe434238	-0.19068229
109	0xbe39b2b6	-0.18134579
110	0xbe88695a	-0.26642877
111	0xbd4037d4	-0.04692824
112	0xbd14af99	-0.036300275
113	0xbe26a631	-0.16274334
114	0xbe7dfb43	-0.2480288
115	0xbe9e7350	-0.3094735
116	0xbc8b5f26	-0.017013144
117	0x3d824368	0.06360513
118	0xbda6a491	-0.08136857
119	0x3e800ee6	0.25011367
120	0xbe71fe1c	-0.23632091
121	0xbe876e3a	-0.26451284
122	0xbc00b6b3	-0.007856059
123	0xbea59e5c	-0.3234738
124	0x3e36727c	0.1781711
125	0xbe99112a	-0.29895908
126	0xbe3daaba	-0.18522158
127	0xbe236256	-0.15955481
128	0xbe2a1532	-0.16609648
129	0x3c1bc6b8	0.009507827
130	0xbe4ea327	-0.20179425
131	0xbe70f22a	-0.23529878
132	0x3ddc2884	0.10749915
133	0x3e606acb	0.21915738
134	0x3e92960c	0.28630102
135	0x3e5bac17	0.21452366
136	0x3dc80480	0.09766483
137	0xbe3abc54	-0.18235904
138	0xbe3ebfb5	-0.18627818
139	0xbe8e43b7	-0.27786037
140	0xbe87d571	-0.2653003
141	0xbe359ed5	-0.17736371
142	0xbea047a3	-0.31304654
143	0xbde71349	-0.11282975
144	0xbe326a8c	-0.17423457
145	0xbe388c14	-0.18022186
146	0xbea7a77d	-0.3274497
147	0x3a7864ab	0.000947545
148	0xbd568b26	-0.052378796
149	0x3e099e7c	0.13439363
150	0x3ea1baa4	0.31587708
151	0x3e32ad1b	0.17448847
152	0xbdbd7f72	-0.09252824
153	0xbcd85caa	-0.026411373
154	0x3dc0f199	0.09421081
155	0xbc469d1b	-0.012122418
156	0x3df10303	0.117681526
157	0xbe1400f4	-0.14453489
158	0xbe85f742	-0.26165205
159	0xbeb7d8b8	-0.3590753
160	0xbe8c7884	-0.27435696
161	0xbdfd9bfa	-0.12383266
162	0xbe3d0fe5	-0.18463095
163	0xbdbabbc4	-0.09117845
164	0xbe7a6004	-0.2445069
165	0x3ddc2fc1	0.10751296
166	0xbdda3323	-0.10654285
167	0x3d972201	0.073795326
168	0xbe529fcc	-0.2056877
169	0xbeb3d928	-0.35126615
170	0x3e1586cc	0.14602202
171	0xbe5800d1	-0.21094061
172	0xbe1563df	-0.14588879
173	0xbe51d872	-0.20492724
174	0xbdd6ef11	-0.10494817
175	0xbeb46f98	-0.3524139
176	0x3e368a93	0.178263
177	0x3dc40b3d	0.09572456
178	0xbe007bb4	-0.12547189
179	0xbd4963e7	-0.04916754
180	0x3d860527	0.065439515
181	0x3e41a77c	0.18911546
182	0xbe30c4bf	-0.17262553
183	0xbdbd6fb2	-0.0924982
184	0x3e187da7	0.14891683
185	0xbe2644c5	-0.16237171
186	0xbe3ec5aa	-0.1863009
187	0xbc5e55a2	-0.013570221
188	0x3e1b93e3	0.15193133
189	0xbe333bf9	-0.17503347
190	0x3e4bc7e1	0.19900467
191	0x3d8d5fd5	0.06903044
192	0x3e831c95	0.25607744
193	0xbd8b86ba	-0.068128064
194	0x3d8ac60e	0.06776057
195	0x3b868fed	0.0041065128
196	0xbe66e25a	-0.22547284
197	0xbe47f775	-0.19527991
198	0xbe0e0568	-0.1386925
199	0xbd0212e0	-0.03175628
200	0xbd1be200	-0.038057327
201	0x3ca7ea06	0.020497333
202	0x3d46f43a	0.048572756
203	0x3e24bbe7	0.16087304
204	0x3e5da4f6	0.21644959
205	0xbced3a4f	-0.028958468
206	0x3dc0f572	0.09421815
207	0x3d3882fe	0.0450468
208	0xbe94d550	-0.29068995
209	0x3cca27ab	0.024677118
210	0xbea6ed51	-0.32602933
211	0xbe5eae3c	-0.21746153
212	0xbcc3a5ba	-0.023882736
213	0x3e79874e	0.24368021
214	0xbdbc4346	-0.09192519
215	0xbdd9bc3e	-0.106316075
216	0xbd061efe	-0.0327444
217	0xbe957c0a	-0.29196197
218	0x3d96e680	0.07368183
219	0xbe11a8ee	-0.14224598
220	0xbe15818d	-0.14600201
221	0x3dc13569	0.09434015
222	0xbda893d5	-0.08231322
223	0xbcf76339	-0.03019868
224	0x3df35037	0.11880534
225	0xbe9c41b6	-0.30518883
226	0x3d7f107e	0.062271588
227	0xbe6c4d7f	-0.23076437
228	0xbe8e918a	-0.27845412
229	0x3d8372c5	0.06418375
230	0x3eabb43b	0.33535942
231	0x3e999e15	0.3000342
232	0xbe8ac7c4	-0.27105534
233	0xbe16a0bb	-0.14709751
234	0x3e9c5cd5	0.30539575
235	0x3d26102e	0.040542774
236	0xbe249564	-0.16072613
237	0xbe68942f	-0.22712778
238	0xbe26e708	-0.16299069
239	0x3d3c590f	0.04598337
240	0xbe65e474	-0.22450429
241	0x3dc3f0ba	0.09567399
242	0xbeb5ca9e	-0.35506147
243	0xbe2de34b	-0.16981237
244	0xbeb05780	-0.34441757
245	0x3e3d33dc	0.18476814
246	0x3d7db199	0.06193695
247	0x3caf0056	0.021362465
248	0x3cef8f2f	0.02924308
249	0xbe6d735b	-0.23188536
250	0x3e4288a2	0.18997434
251	0xbe24cfbe	-0.16094872
252	0xbd8543de	-0.06507085
253	0xbd9e565f	-0.07731318
254	0xbdc4b91f	-0.096056215
255	0x3db71b5a	0.08940764

backbone.1.weight f4 [16, 16]
0	0xbd247074	-0.040146306
1	0x3ea456cd	0.32097474
2	0x3e20d349	0.15705599
3	0xbd50864f	-0.050909337
4	0xbd2f6758	-0.042823166
5	0xbddb3ca3	-0.10704925
6	0x3e6fcc0a	0.23417678
7	0x3cf6e115	0.030136624
8	0x3e794276	0.24341759
9	0x3eb27663	0.34855947
10	0x3e2b9788	0.16757023
11	0xbe93ad44	-0.2884313
12	0xbdc172a1	-0.09445692
13	0x3dca2f4d	0.09872303
14	0x3e9d3171	0.30701783
15	0x3e6d3cc9	0.23167719
16	0xbd402649	-0.04691151
17	0xbe403917	-0.18771778
18	0xbd9d6a1b	-0.07686254
19	0x3c4274e3	0.011868688
20	0x3db51323	0.08841541
21	0x3d649abe	0.055811636
22	0xbe6f5cc8	-0.23375237
23	0xbdce89a0	-0.10084844
24	0xbe5d9d1b	-0.21641962
25	0x3ddc87ba	0.10768075
26	0x3d223318	0.039599508
27	0xbd13bf03	-0.036070835
28	0xbd2bdbd4	-0.04195769
29	0xbe08d6ff	-0.13363265
30	0xbe2f9e3e	-0.17150208
31	0xbd9354e4	-0.07193926
32	0xbe13be87	-0.14428149
33	0x3e7ee6a3	0.24892668
34	0xbcd08eda	-0.025458742
35	0xbce0a440	-0.02742207
36	0xbde6f5e4	-0.11277369
37	0x3e02f0bd	0.12787147
38	0x3d3b7bbd	0.045772303
39	0x3e697c12	0.22801235
40	0xbd4450b3	-0.047928523
41	0x3e47fb9d	0.19529577
42	0x3d20c0c7	0.039246347
43	0xbe5ea324	-0.2174192
44	0x3d023112	0.03178508
45	0x3e99401d	0.29931727
46	0x3d4a4246	0.04937961
47	0xbdd7c658	-0.10535878
48	0x3d873e52	0.066036835
49	0x3debcfab	0.11514219
50	0xbe158a7d	-0.1460361
51	0x3d8b9585	0.06815628
52	0x3dea4761	0.11439396
53	0xbe51e0fb	-0.2049598
54	0x3da787bb	0.081801854
55	0x3e27b00a	0.16375747
56	0xbcce9b8c	-0.025220655
57	0x3e2d3602	0.16915134
58	0xbe480b5a	-0.1953558
59	0xbe2af50e	-0.16695043
60	0xbe0348c6	-0.1282073
61	0x3d15b9cb	0.03655414
62	0x3e08185e	0.13290545
63	0x3d958951	0.07301582
64	0x3dfaa36a	0.122382
65	0xbd65dddf	-0.056119796
66	0x3eae63b3	0.3406044
67	0x3e6b24b2	0.22963217
68	0xbc7a748f	-0.015286579
69	0x3da6c56a	0.081431225
70	0x3dd862c5	0.10565714
71	0x3eaaf824	0.3339244
72	0xbd2c5dda	-0.04208169
73	0x3e5d0895	0.21585305
74	0x3d5394eb	0.05165569
75	0x3e23bb0d	0.15989323
76	0xbe5b1f37	-0.21398626
77	0xbb7068c2	-0.0036683534
78	0x3e8a1fda	0.26977426
79	0x3e44fa71	0.19236161
80	0xbe375482	-0.17903331
81	0xbccf8756	-0.025333088
82	0x3e3f1bb4	0.18662912
83	0x3dae4f53	0.08511224
84	0x3e50f372	0.20405367
85	0x3e4e2738	0.20132148
86	0x3e8b332b	0.27187476
87	0x3e844a61	0.25837997
88	0xbda8cb32	-0.082418814
89	0x3dc20430	0.09473455
90	0x3e5ce121	0.21570255
91	0x3c1782d8	0.009247504
92	0x3e1ee06a	0.15515295
93	0x3e222766	0.15835342
94	0xbd9e9e01	-0.077449806
95	0x3e8f57f9	0.27996805
96	0x3df973d8	0.121802986
97	0x3cfc4902	0.030796532
98	0xbd9faaec	-0.07796273
99	0xbea86274	-0.32887614
100	0xbd81d261	-0.06338955
101	0x3dd3167d	0.10307024
102	0xbd452796	-0.048133455
103	0xbeb362db	-0.35036358
104	0x3e859c79	0.26095942
105	0xbd0d7460	-0.034534812
106	0xbea455e5	-0.32096782
107	0xbe2a4bec	-0.16630524
108	0x3deb7bab	0.11498197
109	0x3d7c5706	0.06160643
110	0x3d0235fc	0.031789765
111	0x3dcf6de7	0.10128384
112	0x3e6518fb	0.2237281
113	0x3da147c4	0.07875016
114	0xbe69e3ab	-0.22840755
115	0x3c40098e	0.011721028
116	0xbe28fea0	-0.16503382
117	0x3e03694a	0.12833133
118	0x3e84312e	0.2581877
119	0xbe85b2ef	-0.26113078
120	0x3e029b1f	0.12754487
121	0xbd5d87e0	-0.05408466
122	0xbdfb9657	-0.122845344
123	0x3caceda3	0.021109408
124	0x3e0de5a0	0.13857126
125	0xbce23000	-0.027610779
126	0xbe86b975	-0.26313367
127	0xbe0221a3	-0.12708144
128	0x3e09af34	0.13445741
129	0xbddb5a89	-0.107106276
130	0x3a651f8f	0.00087403593
131	0xbd995a17	-0.074878864
132	0xbb0da459	-0.0021612851
133	0xbde2d279	-0.11075301
134	0xbe0b6db7	-0.13616072
135	0xbe153c92	-0.14573887
136	0xbe2ebb3a	-0.17063609
137	0xbe6b5b0f	-0.22983955
138	0xbc029d22	-0.007972034
139	0xbdbe65cf	-0.09296762
140	0xbaaa4a5f	-0.0012992135
141	0x3d7bdcc3	0.06148983
142	0xbaf53a61	-0.0018709415
143	0xbce89973	-0.028393483
144	0x3dd1da34	0.10246697
145	0x3d5f16bd	0.054465044
146	0xbe73b523	-0.23799567
147	0xbe9b6f50	-0.30358362
148	0xbe69037a	-0.22755232
149	0xbd9ac593	-0.075572155
150	0x3e996ca4	0.299657
151	0xbeba989b	-0.36444554
152	0x3d4c7a51	0.049921338
153	0xbe4a63eb	-0.19764678
154	0xbdfe645d	-0.124214865
155	0xbe212599	-0.15736999
156	0xbd505d29	-0.050870094
157	0x3df8d35b	0.12149688
158	0xbeb15f2f	-0.34642932
159	0x3e240539	0.16017617
160	0xbe64fb8f	-0.22361587
161	0xbe04dd97	-0.12975155
162	0xbd70bb24	-0.05877222
163	0x3e0f300b	0.1398317
164	0x3d1a0c4c	0.037609383
165	0x3e387c77	0.1801623
166	0xbe3c8fc3	-0.18414216
167	0x3d8bd076	0.0682687
168	0xbe9d99fb	-0.3078154
169	0x3d8c444b	0.06848963
170	0xbd3d2c97	-0.046185102
171	0xbd97fd7b	-0.074213944
172	0xbd37e986	-0.04490044
173	0xbdcd6231	-0.10028494
174	0xbd9c86bf	-0.07642888
175	0x3e2b7b35	0.16746219
176	0x3e619406	0.22029123
177	0xbe2ecdfb	-0.17070763
178	0x3d6fcbfd	0.058544148
179	0xbdb7466a	-0.08948977
180	0x3d266676	0.040625058
181	0x3c17ea34	0.009272147
182	0x3e3ea069	0.18615879
183	0xbe3bbd48	-0.18333924
184	0x3e2ff10d	0.17181797
185	0xbeaca543	-0.33719835
186	0xbeb86010	-0.3601079
187	0x3e611091	0.21978976
188	0x3e463bf0	0.19358802
189	0x3d77a254	0.060457543
190	0x3c7648bf	0.015031992
191	0xbe063353	-0.13105516
192	0xbe7f6d6f	-0.2494409
193	0x3ccc753b	0.024958244
194	0x3db71d8e	0.08941184
195	0x3e4aec06	0.19816598
196	0x3eb7e96c	0.35920274
197	0x3d1bf56f	0.03807586
198	0x3e5a6799	0.21328582
199	0x3e586f9b	0.21136324
200	0x3d93796f	0.07200896
201	0x3d26dbb6	0.040736876
202	0x3db7e30a	0.08978851
203	0xbe392cd9	-0.18083514
204	0xbda84f84	-0.082182914
205	0x3e738420	0.2378087
206	0x3e2c8c3e	0.16850373
207	0x3ea7922f	0.32728717
208	0x3e614651	0.2199948
209	0x3d645fd5	0.055755455
210	0xbcd90979	-0.026493775
211	0xbca96330	-0.02067718
212	0xbe96b88b	-0.2943767
213	0x3bbe8494	0.0058141444
214	0xbdf20ead	-0.118192054
215	0x3da5ab90	0.080893636
216	0x3c8e41a5	0.017365286
217	0xbeabc9d1	-0.3355241
218	0x3e0cd536	0.13753209
219	0x3e3cb31a	0.18427697
220	0x3ca3fb67	0.020017339
221	0x3db496d9	0.088178344
222	0x3cfd7932	0.03094158
223	0x3d54e60e	0.05197721
224	0xbe1002ea	-0.14063612
225	0xbdc469da	-0.09590502
226	0xbc75fa50	-0.015013292
227	0x3e214197	0.15747677
228	0xbe1e866f	-0.1548097
229	0x3da37fb7	0.07983344
230	0xbdcb9876	-0.09941189
231	0x3dfee5b6	0.12446158
232	0xbddf0f85	-0.10891632
233	0xbe0ca777	-0.13735758
234	0x3dc5bf55	0.09655634
235	0xbe02e3a3	-0.12782149
236	0xbdef9b4c	-0.116995424
237	0x3e2ba3f3	0.1676176
238	0x3e015778	0.12631023
239	0xbc3123a1	-0.010811717
240	0xbdd82fcb	-0.10555991
241	0xbdf9b952	-0.1219355
242	0x3e92ab87	0.2864649
243	0x3ead06db	0.33794293
244	0x3e89c477	0.26907703
245	0xbe37e0ea	-0.17956892
246	0xbd00ffa8	-0.031493813
247	0x3eb21080	0.34778214
248	0x3d21c631	0.03949565
249	0x3cdf1fbc	0.027236812
250	0xbd530372	-0.051516958
251	0xbd7bf777	-0.061515298
252	0xbe0b491d	-0.13602109
253	0x3e4e12ab	0.20124309
254	0xbdbf82ef	-0.093511455
255	0x3e2d7b67	0.16941606

backbone.2.weight f4 [1, 16]
0	0x3eae7f62	0.3408156
1	0xbda8c945	-0.08241514
2	0x3e0b589a	0.13608018
3	0x3d88da13	0.06682219
4	0x3e00e8a9	0.12588753
5	0x3e08d406	0.1336213
6	0xbe8cb913	-0.2748495
7	0xbe14eca2	-0.14543393
8	0xbe128bfc	-0.14311212
9	0xbea5432f	-0.3227782
10	0xbdd9ec08	-0.106407225
11	0xbdf64201	-0.12024308
12	0x3e751ba1	0.23936321
13	0xbe91a4e2	-0.28446108
14	0x3d5eb6e3	0.054373633
15	0x3ebb94fe	0.3663711
