output/46/best.pth (torch, 714225 bytes, 4 tensors)

encoder.embeddings f4 [88656, 2]
00000000: 961d e23d 7480 e2bd 48bd f63d 5345 f3bd
00000010: 47a1 fc3d 7c1f f9bd cfeb fc3d 42f3 f8bd
00000020: 6fe2 fc3d 7505 fbbd 9618 fc3d 1c60 f7bd
00000030: 34fb fb3d 62c1 f8bd 14a7 f33d bb76 f2bd
00000040: b3de e13d 4fbc e5bd 7438 f53d 9807 f2bd
00000050: 8655 fe3d 162a f9bd 1dbc 003e 9d60 fdbd
00000060: 1248 013e 299b fcbd ee5c 003e fdca febd
00000070: 3d6b 003e 5fbc fdbd d7cc 003e 6b93 fcbd
00000080: daf8 ff3d 3413 fabd 6993 f93d c933 f7bd
00000090: 8838 fe3d a679 f9bd 1089 003e f262 fdbd
000000a0: 4a56 013e 9bc5 fdbd 0fa3 023e 1fc5 fabd
000000b0: 3bad ff3d 556d febd 60b1 fd3d 900f ffbd
000000c0: 97ab ff3d 44b2 fdbd 09fd fc3d a6b9 f9bd
000000d0: 4d7c f43d ac7d f5bd 8fa0 f83d 7e96 f6bd
000000e0: bb66 fe3d c428 fcbd 36e5 fc3d c8ca f9bd
000000f0: 87f7 fa3d eca6 f7bd 395a 003e 1452 fbbd
00000100: 2e72 ff3d c901 fabd bac6 fd3d c4ea f8bd
00000110: 4d6b fa3d 1d2c f6bd 70e7 f23d 71b9 f0bd
00000120: 87bd f93d dbc3 f6bd 450f fd3d c3fa fbbd
00000130: a003 003e beb7 fabd 69d3 fd3d bd9b f5bd
00000140: bae6 fd3d f0a9 f7bd 729f fe3d 9718 f9bd
00000150: a1f7 f93d 918b f5bd 0637 f83d 1ac4 f4bd
00000160: b557 f43d 03c4 f0bd b00f f83d 2436 f2bd
00000170: a28e f93d 06f3 f1bd 1017 f53d 8e45 f3bd
00000180: cea5 f73d 972f f1bd 4fe4 f73d 554b f3bd
00000190: 4b66 f73d 3fc0 f2bd 229f f83d 852b f2bd
000001a0: f279 f83d 8c4e f4bd cadd f53d af69 f2bd
000001b0: ca33 f93d e8fd f7bd 9949 fa3d 7fe4 f6bd
000001c0: d84a f93d afc3 f2bd 2282 fa3d a553 f5bd
000001d0: ee1f fa3d 6593 f7bd 07ce fa3d f494 f6bd
000001e0: 3a94 f73d 0b16 f6bd 09cb f93d 0974 f8bd
000001f0: a2ff f93d ceb7 f7bd 5ccb f63d 6965 f3bd
00000200: df9e fd3d b9a6 f6bd 944e fa3d b9bb f6bd
00000210: bc09 013e 4c3f fabd ae61 fc3d f086 fbbd
00000220: da3d 013e b38c fdbd 5a95 003e 4413 fdbd
00000230: af41 003e 6a07 fcbd 921d fa3d d15b f7bd
00000240: 1331 e53d 9c88 e2bd fec3 f43d d6b4 efbd
00000250: 0df7 f73d 02ab f1bd 84da f93d d4ec f3bd
00000260: a5c9 f93d 521b f8bd a306 fe3d d0b6 f8bd
00000270: 8484 fa3d 8735 f8bd 2722 f63d b114 f4bd
00000280: 06d7 e23d a9bf e3bd ae51 f33d 9db2 f0bd
00000290: fc87 fa3d 3414 f7bd 51ed 013e 8800 fbbd
000002a0: 3ad4 003e 9a2d fcbd 9234 003e b669 febd
000002b0: ef10 003e f212 febd a17f 003e f01c fdbd
000002c0: df78 fd3d 3f41 f8bd 5c58 f53d bc4a f3bd
000002d0: 8d61 f83d e218 f4bd ba20 fc3d 788f f5bd
000002e0: 3e2b fe3d 39f0 f6bd 3ca5 003e cd0e f9bd
000002f0: 4372 003e 626a febd 3a2f fe3d c8a8 fbbd
00000300: 2ed7 fd3d 211b fabd bd4c fd3d f91d f7bd
00000310: c725 fc3d 4fd2 f7bd f5a1 f03d 6099 ecbd
00000320: 3015 e33d 4f50 debd 5550 e13d 33dd d9bd
00000330: f194 ec3d 49d0 ddbd 98ad f83d fb7b f5bd
00000340: 5c11 e23d 3121 e1bd 5e34 df3d 6972 dbbd
00000350: 91ad e23d 258a dbbd 9889 ee3d 97e9 e8bd
00000360: 546d e53d 9375 e4bd 304d d63d c501 d5bd
00000370: ea3e d63d a6c4 d0bd a30c df3d 5393 d5bd
00000380: 5674 f13d 0de5 eabd a8f8 da3d fc46 d5bd
00000390: 8697 da3d 304b d5bd 7e2e de3d d7b5 d8bd
000003a0: c511 ec3d 9a5c e6bd da41 e63d f48f e0bd
000003b0: 868a d63d c40f d2bd 8a98 d73d 836f d2bd
000003c0: b15a da3d bfc6 d1bd 30c5 df3d d13d d8bd
000003d0: cf98 d83d 7bfa d1bd d49c df3d 7780 dbbd
000003e0: c4e9 e73d 8a79 e4bd 06a4 ee3d e731 ebbd
000003f0: ed38 ce3d 4e76 c8bd 5781 ba3d 54c6 b4bd
0.11040799 -0.11059657 0.12047821 -0.11878457 0.12335449 -0.12164208 0.123496644 -0.12155773
0.12347876 -0.122569 0.12309377 -0.12078878 0.123037726 -0.1214626 0.11897102 -0.11839052
0.11028805 -0.11217558 0.11973658 -0.11817855 0.12418656 -0.121662304 0.1257176 -0.12371943
0.12625149 -0.12334282 0.1253545 -0.12441061 0.12540908 -0.123894446 0.1257814 -0.12332805
0.124986365 -0.12210694 0.121863194 -0.12070424 0.12413126 -0.12181406 0.12552285 -0.12372388
0.12630573 -0.12391206 0.12757514 -0.12244629 0.12484213 -0.12423197 0.12387347 -0.1245414
0.124839 -0.12387517 0.1235295 -0.12193613 0.11937771 -0.11986861 0.12139999 -0.12040423
0.12421938 -0.12312463 0.12348406 -0.121968806 0.12254243 -0.12092385 0.12534417 -0.122715145
0.1247295 -0.12207372 0.1239142 -0.12154153 0.12227497 -0.12020133 0.118605494 -0.1175412
0.121943526 -0.12049075 0.12356428 -0.123036884 0.12501383 -0.12242077 0.12393839 -0.11992595
0.12397523 -0.1209296 0.124327555 -0.12162893 0.122054346 -0.11989511 0.1211987 -0.11951466
0.11930791 -0.11756136 0.12112367 -0.11826733 0.12185408 -0.11813931 0.119672894 -0.11878501
0.120921716 -0.11776655 0.12104093 -0.11879603 0.12080058 -0.11853074 0.12139727 -0.11824707
0.12132634 -0.11929044 0.120051935 -0.11836564 0.12168081 -0.12108976 0.12221069 -0.12055301
0.121724784 -0.1185373 0.12231852 -0.119788446 0.12213121 -0.1208866 0.12246328 -0.12040129
0.12088819 -0.12015923 0.12196929 -0.12131507 0.12206961 -0.12095605 0.120505065 -0.11884577
0.12383818 -0.120435186 0.12222019 -0.12047524 0.1260137 -0.12219104 0.123233184 -0.12281597
0.12621251 -0.12380352 0.12556973 -0.1235719 0.12525056 -0.123061016 0.12212671 -0.120780595
0.11191001 -0.110612124 0.11951445 -0.117044136 0.12107668 -0.11800195 0.12199882 -0.11910406
0.12196664 -0.12114586 0.124036096 -0.12144244 0.122323066 -0.121195845 0.12018233 -0.11918009
0.11076169 -0.11120541 0.118808135 -0.11752818 0.12232968 -0.120644 0.12688185 -0.12255961
0.12580958 -0.12313385 0.12520054 -0.124225065 0.1250646 -0.12405957 0.12548687 -0.12359035
0.1237657 -0.1212182 0.11979744 -0.11879489 0.12127981 -0.119188085 0.123109296 -0.11990255
0.124105915 -0.120575376 0.12563032 -0.12161026 0.12543587 -0.12422635 0.124113515 -0.12288052
0.12394558 -0.12212206 0.12368152 -0.12066264 0.12311893 -0.1210066 0.11749641 -0.115526915
0.110880256 -0.108551614 0.1100165 -0.106378935 0.11551846 -0.10830743 0.121424854 -0.11986538
0.11038467 -0.10992659 0.1089866 -0.107151814 0.110682614 -0.10719708 0.11647338 -0.11372679
0.11202493 -0.11155238 0.10463941 -0.10400728 0.10461219 -0.10193758 0.10891082 -0.104284905
0.117897674 -0.11469469 0.10691959 -0.1041393 0.10673432 -0.104147315 0.108487114 -0.10581558
0.11526827 -0.11248131 0.11243029 -0.10964957 0.1047564 -0.10256913 0.105271414 -0.102751754
0.10661829 -0.10242986 0.109262824 -0.105586655 0.10576021 -0.102528535 0.109185845 -0.10717862
0.11323884 -0.11155994 0.11652379 -0.114841275 0.100694515 -0.0978819 0.09106701 -0.088268906

backbone.0.weight f4 [16, 16]
00000000: 69c6 203e 35f2 3dbe 21d3 35bd 6024 7f3e
00000010: 212d 38bd d07f c73c 67da 3ebe ef73 08be
00000020: 4b21 ff3d 71fd 7fbd d063 cd3c 68c6 a43e
00000030: ce25 c93d b01a 993d 7f5e 8bbe c8e7 8e3e
00000040: 2d74 5abd b3d5 3ebe 97a7 0fbe 542d bc3d
00000050: bfb2 553e 11f0 ebbc bdb4 903e 53b1 583e
00000060: 0649 09be ea16 c43b 6e11 a1be aeda 16be
00000070: 2816 89be a058 b23d 7a7b 66bd 63d5 abbd
00000080: 85b6 7ebe 6365 ab3d 02dc 24be ce0e 4bbe
00000090: 01e3 123e 2cc7 8fbe a779 093e f39b e3bd
000000a0: ad9a ab3d e70f 1e3e a4cf 623e 64b7 eb3c
000000b0: 5765 573d 23e3 8ebe 81dc 27be 7453 2c3e
000000c0: 57a0 9b3e 9ce7 50be d5ce 4e3e 07a3 f1bd
000000d0: a8ed abbe 02b4 04bd 4ab8 d4bd 5b9c afbe
000000e0: 9026 e2ba 84ae a7be 9976 abbd 49b7 613d
000000f0: 1efa ca3d 4385 06bd a3ef eebd 9f6a 6cbd
00000100: 5b48 c83d f354 5dbe 3cdb 42be 9227 cebd
00000110: 4faa 883c 5a85 2e3e bf05 213e 2301 f1bd
00000120: a874 873e a035 d53c 71e2 0ebd cebf 16be
00000130: 49fd 813e 6d41 973e 73fc d33c 7286 483e
00000140: c228 a5bd 547d 1b3e a138 6fbe 6ecf f5bc
00000150: 9f7a 08be b305 3bbe 8127 0e3e b20c cdbd
00000160: 9332 e53d 8666 eb3c 7523 a13d 0779 273e
00000170: 9692 0bbe 634d ff3c df8d bcbc 5a70 a1be
00000180: 3e2a 8c3e 8c30 1cbe aed0 5bbe c386 2bbe
00000190: 32b6 94bd aa4c 923e ce0a 503e 3cdb de3c
000001a0: cef7 02be 084b 31be 364b 8f3c 46e1 083d
000001b0: 48c0 1d3e ac16 09be d114 ab3d ad77 9dbe
000001c0: 011b c43d 581d 5c3e 6635 89bd c78e e33c
000001d0: 0b34 e33d b2e0 e33d fd60 f03d fc83 03be
000001e0: 45c0 743e 6f3a 423e 5d72 483e fb66 0abd
000001f0: f947 863d 4ee0 95bd 409e 81be e415 04be
00000200: 59f1 6f3e 9baf 82be 7d4f 0a3d abc3 763e
00000210: 3e66 91be 6351 a93e 3057 4bba d18f febd
00000220: 7a81 82bc e82c a4be 8177 a9be 7cf0 973d
00000230: c44d 4a3e 90f8 743d 04dd a6be a201 273d
00000240: a57f bebd 578b 443d 9216 353d 6725 63bd
00000250: ec82 acbe 5c34 453e 0264 a8be f8e9 f53d
00000260: 686a 873e 1237 adbe 02e7 a1bd 50a7 813e
00000270: cf56 0b3e 616f 953e 5136 a6bd 8ffd e63d
00000280: 58d5 423b f690 77be e2cf 873e 0a21 ce3d
00000290: c59a 61be 1185 953e 62f6 bf3c 2b08 3bbe
000002a0: ac05 b8bc 0505 f7bd 144e 08be 85b1 663e
000002b0: d45e 8bbc 67d9 aa3c ba54 afbe 4d5b 133e
000002c0: 5d5d b33e b5ac c4bd 0973 a73e d6ef 993e
000002d0: f048 773b 393e 4abd 7f09 c3bd acc8 acbe
000002e0: ab8d a73e 4840 83be a0ef fe3c 9dda a03e
000002f0: 2ee8 b43e ef8c 16bb f86e 65bd 8209 c4bc
00000300: 1d3f fcbc 067d 0c3e c3df eabd 09ff c4bd
00000310: 7a4d 17be 2c5f 863e 130f 77be 1b7f 3abe
00000320: 9249 e43d d3f0 183e 84e8 d3bd 39e6 863e
00000330: 28b4 a73e 17d8 f4bd 56f3 07be 5bb6 9b3e
00000340: 4270 8cbd fccf 963c 9c31 613d d3d4 993e
00000350: 7455 8fbe ac2b 513e cda8 b8bd b90e 8fbe
00000360: 5c14 d0bd 63c6 89be e941 e8bc 1f3d ad3e
00000370: 403f b03d af20 893e 3000 b4bc 0c80 9f3d
00000380: e512 b7bd 19b8 b7ba 8088 993e 0a83 a7bd
00000390: b473 3abe 1270 5c3e 03e1 82be 5811 adbe
000003a0: f880 9a3e 87eb 8bbe d69d 9bbe 2852 9e3e
000003b0: 5989 a53e 6e07 a23e c7fc ecbd be99 71bd
000003c0: 8120 0fbd 9c1e b0be a946 c7bd 5022 8c39
000003d0: bc88 643d 12db 833e 7447 8bbe 6680 91be
000003e0: d934 163e 7b6e a43d 03d9 3abe cedb 853e
000003f0: cbc3 3f3e c42b b03e d3c0 8abe 27b7 953e
0.15700687 -0.18549426 -0.0443908 0.2491622 -0.044964913 0.024352938 -0.18638001 -0.13325475
0.12457522 -0.06249756 0.025072008 0.32182622 0.09821664 0.07475793 -0.27220532 0.2791121
-0.05333345 -0.18636207 -0.14028774 0.09188333 0.20868967 -0.028800996 0.28262892 0.21161394
-0.13406762 0.005984177 -0.3145861 -0.14731857 -0.26774716 0.0870831 -0.0562701 -0.0839031
-0.24874313 0.08368947 -0.16099551 -0.19829866 0.14344408 -0.28081644 0.13425313 -0.11113729
0.083791114 0.15435754 0.22149521 0.02877397 0.05258688 -0.27907667 -0.1639271 0.1682871
0.30395767 -0.20400852 0.20196088 -0.11798673 -0.33579755 -0.03239823 -0.10386713 -0.34298977
-0.0017253924 -0.32750332 -0.0837223 0.055106435 0.09910987 -0.032841932 -0.11666801 -0.05771887
0.09779426 -0.21614437 -0.19028944 -0.10066141 0.016682772 0.17043057 0.15724848 -0.11767795
0.2645619 0.026026547 -0.03488392 -0.14721605 0.25388554 0.29542103 0.025877213 0.19582537
-0.080644146 0.15184528 -0.23361446 -0.030006137 -0.13328026 -0.18263893 0.13882257 -0.10012187
0.11191287 0.02873541 0.07868091 0.16354762 -0.13630137 0.03116483 -0.023016868 -0.3153103
0.27375978 -0.15252894 -0.21466324 -0.16750626 -0.072613135 0.28574115 0.20316622 0.027204148
-0.12789842 -0.17313778 0.017491918 0.033417962 0.1540538 -0.13387555 0.0835358 -0.30755368
0.09575463 0.21495569 -0.06699638 0.027778042 0.11093911 0.111268416 0.11737249 -0.12843317
0.2390147 0.18967603 0.19574876 -0.033789616 0.065566964 -0.07318173 -0.25316048 -0.12898976
0.2343191 -0.255246 0.033767212 0.24098079 -0.28398317 0.33069906 -0.00077568274 -0.124297746
-0.01593088 -0.3206551 -0.33098987 0.07418916 0.19756228 0.05980736 -0.32590497 0.04077304
-0.0930169 0.047984447 0.044210978 -0.05545559 -0.33693635 0.19258255 -0.328888 0.120075166
0.2644837 -0.33831078 -0.07905389 0.25322962 0.13607334 0.29186538 -0.08115829 0.11278831
0.0029729214 -0.24176392 0.2652579 0.100648955 -0.22031696 0.29203084 0.023432914 -0.18264835
-0.022463642 -0.12061504 -0.13311034 0.22528656 -0.017012991 0.020855619 -0.3424433 0.14390297
0.35032168 -0.09603254 0.32704952 0.30065793 0.0037732683 -0.049375746 -0.095232956 -0.3374685
0.32725272 -0.2563498 0.031120121 0.3141679 0.3533339 -0.0022972187 -0.05601403 -0.023930315
-0.030791814 0.13719568 -0.114684604 -0.096189566 -0.14775649 0.26244485 -0.24126844 -0.1821255
0.11146845 0.14935617 -0.10347083 0.2634752 0.32754636 -0.11955278 -0.13276419 0.30412564
-0.06857349 0.018409722 0.05497895 0.30045184 -0.27994883 0.20426816 -0.09016571 -0.2794092
-0.10160133 -0.2690917 -0.02835174 0.33835694 0.08605814 0.26782748 -0.021972746 0.07788095
-0.08939151 -0.0014016657 0.29986954 -0.081792906 -0.182082 0.21527126 -0.25562295 -0.33802295
0.3017652 -0.2732813 -0.30393857 0.30922055 0.3233135 0.31646293 -0.11571651 -0.05898451
-0.034943108 -0.34398353 -0.09730274 0.00026728446 0.055794463 0.25753075 -0.27202952 -0.28418273
0.14668597 0.08028885 -0.18246846 0.2614426 0.18727033 0.3440839 -0.27100238 0.29241297

backbone.1.weight f4 [16, 16]
00000000: 900d a0be 6ff8 3fbe d19d babd 1c8e c8bd
00000010: be4d 6a3d 68ce 993d 6241 673e aad0 2fbe
00000020: 506d bcbd 5e7b 73be 984f bf3d bc3b e33d
00000030: fc3e 2f3e 84c8 393e ac15 e7bd 5b50 2cbd
00000040: 8b6e 953e a685 2f3d 92f1 803e e582 6b3d
00000050: 1951 f33c 8102 f43d 5dda 3bbe e2dc edbd
00000060: 8dbf 113d 108b 693e 92f1 93bc 06b2 873e
00000070: c464 983e dbe8 aa3d 4615 543e 4a5c a83b
00000080: cc1d 36bd 8960 953e 5929 18be f1d2 613e
00000090: 7998 7dbd 47db 87be 4828 dd3c 6fe0 173e
000000a0: 1e94 8f3e 70d2 ac3d 5aaa 9a3e a1a3 903e
000000b0: 8bf9 75bd 315f 883e cf93 8f3e ce28 5f3e
000000c0: 3e63 213e 4b0c 7c3e 527a 5a3e 087c 813e
000000d0: 84c5 debc b718 ce3c 68a2 9dbd 9875 c13d
000000e0: 998c 593e bb61 0ebd 3dd3 723e e267 5d3e
000000f0: 62a2 f03c 4edb 313e 4375 803d 2fc2 a43e
00000100: 897d cbbd 0b4c 99be fbf0 55be cd09 1fbe
00000110: 2390 8e3c 3c9f a13e 7fa2 c6bd eb83 e9bb
00000120: 5ee5 93be ca58 89bd ada4 633d e0ff d2bd
00000130: d199 813e 2d89 133e a46f e7bc 204c d1bd
00000140: 7ad3 c13b 9df3 b73d b203 0e3e 9f58 9cbe
00000150: f8e6 7c3e 2c03 f73d 1f89 3e3e 5f02 353e
00000160: 474c 78bd b85e 04be 14c8 593d bdd6 0ebd
00000170: f36a 2dbe fad7 523d 2f91 9fbe 7aba b13d
00000180: fe59 c1bd da36 01be c7a7 fcbc 265b 523d
00000190: 5188 5f3e abad 0ebe 3af5 6abe 40b9 423e
000001a0: 0b22 ac3d 0b43 91be 4b1a 88be 5706 053e
000001b0: 261c 0b3e cf3d febc 4926 7dbd 2390 f0bd
000001c0: 40f9 aebc b52f b0be 86b5 84bc 439a 843d
000001d0: bd27 b53d 8ce4 0cbe 419b 7f3e e4f4 993c
000001e0: fbc9 bf3d 9cf5 c9bd d5ec f4bc 485d 19be
000001f0: 263e 3dbe 2ccb 01be 89ea f0bd e6f3 ff3d
00000200: 5a41 1f3e f8bc 3ebe 259a 0c3e 6a0b 39bd
00000210: 5d7b 733e 7536 95be 45bd 4d3d d8b8 e23d
00000220: e6b2 773e 71f1 943e fd0f 883e b15b 923e
00000230: 1534 853e df82 183e 87d5 a9bd 68cc 043e
00000240: bcbe 863e d8ba a2bd d1c6 36bb fb65 943e
00000250: acf0 243d 4638 233e 9f24 59bd c788 10be
00000260: 8c7b 6a3e 714c a3bd 5a7f 15be 2230 863d
00000270: acff f23d 1f0a 963d f529 31bd f6b5 913e
00000280: 214c 143e 9d09 da3d cbb9 2c3e c9b8 553e
00000290: 2bae 9a3e 01f4 20be 5e46 2b3e c07d 94bc
000002a0: a6ac 973e 83ed 423e f5f5 b5bd 3cfd 3a3e
000002b0: 9ef0 9b3e da8a 0c3e cd30 fc3d dad3 5e3d
000002c0: 072f 7fbe a397 ef3d 827f c4bd d29f 03bd
000002d0: da0d 0f3e 2b2d 893e 43db 48be 664c 7b3e
000002e0: 685b 1d3e 48a5 79be 276d 1abe 6fe8 81be
000002f0: 3c13 7e3e cda5 16be 74e2 c83d 6514 6fbe
00000300: 423b 14be 20ae 983d 5b5c 1fbe 8454 06be
00000310: 4d22 653e 5b58 f03d 1ea9 2ebe 2437 8f3d
00000320: 1410 7bbc 81eb 4ebe 7a8f 2dbe 2dda 1ebe
00000330: cbef 3c3e c98b 3fbd f42a c63d 7e57 3bbe
00000340: 6d62 1dbe c754 0cbe 20a1 39be a65c 87bd
00000350: d754 e23b b87d 033e a435 513e 20aa cbbd
00000360: 5a7b 113e d039 2a3e 9a38 1ebe 2771 9dbe
00000370: 7502 813e 65fb 97be eeba 95be 6eac 19bd
00000380: baf7 b0bd 0fba 85be a7a4 58be 9b2d d13d
00000390: 3394 6a3e 84ca 5a3c 10d2 733e 8f1a f63d
000003a0: 4c09 97bd 5a62 233e 6407 c7bd 102f bcbc
000003b0: 53fa d73d 5af0 b4be 6164 84be 04b2 42be
000003c0: de49 ab3e d21f 8dbd c46b 25be 6e1c 04be
000003d0: 4620 2a3e 1b8d 983b 8570 143c 15bc c2bb
000003e0: 0b7f 943e f26b b0bd e60c 3e3d af73 853d
000003f0: f225 883e b961 ed3d 762c 9c3a 07a9 803e
-0.31260347 -0.18747114 -0.09112132 -0.0979273 0.057203047 0.07510072 0.22583535 -0.17169443
-0.09200537 -0.2377753 0.09341353 0.11095378 0.1711387 0.18142897 -0.112834305 -0.04206882
0.291859 0.042852066 0.25184304 0.057497878 0.029701756 0.1191454 -0.18345018 -0.11614396
0.035583068 0.22806954 -0.018059526 0.2650301 0.29764378 0.08345195 0.2071124 0.005137955
-0.04446201 0.29175213 -0.14859523 0.22053124 -0.061912987 -0.26534483 0.026996747 0.14831708
0.28042692 0.08438575 0.30208093 0.2824984 -0.060052436 0.26635125 0.28042457 0.2179291
0.15760514 0.24614064 0.21335724 0.2528994 -0.027193792 0.02515827 -0.07696992 0.09446257
0.2124504 -0.03476117 0.23713394 0.2162166 0.029374305 0.17368814 0.06272366 0.321794
-0.09936053 -0.2994083 -0.20892708 -0.15531082 0.017402714 0.315668 -0.096989624 -0.0071263216
-0.2888593 -0.06706388 0.05557697 -0.103027105 0.25312665 0.14407797 -0.028251477 -0.10219598
0.0059151025 0.089820124 0.13868597 -0.30536363 0.24697483 0.12061152 0.18606995 0.17676686
-0.06061962 -0.12926757 0.053169325 -0.03487276 -0.16935329 0.051475503 -0.31165454 0.08678146
-0.09440993 -0.1261858 -0.030841721 0.051356457 0.21829344 -0.13933437 -0.22945109 0.1901598
0.08404931 -0.28371462 -0.2658256 0.129907 0.13584957 -0.031035332 -0.06180409 -0.11746242
-0.021359086 -0.34411398 -0.016199838 0.064747356 0.0884547 -0.13759059 0.24961568 0.01879353
0.093646966 -0.098612994 -0.029898087 -0.1497699 -0.18480739 -0.1267516 -0.11763484 0.12497692
0.15552273 -0.18626773 0.13730676 -0.0451769 0.23777528 -0.2914311 0.05022933 0.110704124
0.24189338 0.29090455 0.26574698 0.2858558 0.26016298 0.14893673 -0.0829268 0.129686
0.26317394 -0.07945794 -0.00278895 0.28984055 0.040268585 0.15939435 -0.05301344 -0.14114676
0.22898692 -0.079735644 -0.14599362 0.06552149 0.11865172 0.07326149 -0.043252904 0.28459138
0.14482166 0.10646365 0.1686775 0.20871271 0.30211005 -0.1571808 0.16726062 -0.018126369
0.29623908 0.19035916 -0.08884803 0.18260664 0.30457014 0.13724843 0.123139955 0.054401256
-0.24920283 0.11698844 -0.09594633 -0.03213484 0.13970128 0.26792273 -0.19614892 0.24540862
0.153669 -0.24379456 -0.15080701 -0.25372645 0.24812025 -0.14711685 0.098088175 -0.23347624
-0.1447573 0.07455087 -0.15562575 -0.13118178 0.22376366 0.117356025 -0.170567 0.06992939
-0.015323658 -0.20207025 -0.16949263 -0.15512915 0.18450849 -0.04676417 0.096761614 -0.18295094
-0.15369578 -0.13704215 -0.1812787 -0.06609468 0.0069070864 0.12840927 0.20430619 -0.09944558
0.14207211 0.16623616 -0.1545128 -0.3075039 0.25197187 -0.29683986 -0.2924418 -0.037517957
-0.08641 -0.26118514 -0.2115656 0.10213777 0.22908096 0.013353948 0.23810601 0.120167844
-0.0737482 0.15955487 -0.097182065 -0.02297166 0.105457924 -0.35339624 -0.25857833 -0.1901322
0.33454794 -0.06890835 -0.1615439 -0.1290147 0.16613874 0.004655493 0.00906003 -0.0059428313
0.29003176 -0.08614339 0.04639902 0.065162055 0.2659145 0.11590905 0.0011915106 0.25128958

backbone.2.weight f4 [1, 16]
00000000: 53fa 04be 09f9 773e 00ee b03e e12b 953e
00000010: 8e76 2fbe 0d1a 61be f5a4 19be 7cdd d1bd
00000020: 422b 8d3e 037e c83d e8a3 803e 939a 71be
00000030: 37a9 0abe 83bb aabe 6fe7 91be c055 263e
-0.12986116 0.24216093 0.3455658 0.2913504 -0.17135069 -0.21982594 -0.15004332 -0.10247323
0.27572066 0.0978966 0.2512505 -0.23594122 -0.13541113 -0.33346185 -0.28496882 0.16243649
