output/8/best.pth (torch, 714225 bytes, 4 tensors)

encoder.embeddings f4 [88656, 2]
00000000: 9f5d de3d f08d e23d 1b51 ec3d 3240 ef3d
00000010: aa83 eb3d 6f11 ef3d 507b eb3d 4a6c ee3d
00000020: e075 ec3d 3a98 ed3d ca36 ed3d d419 ef3d
00000030: e023 ee3d 127d ef3d 5549 eb3d ec87 ed3d
00000040: f49d dc3d a61b df3d 2e27 eb3d cd1c ee3d
00000050: 86f4 ef3d 19ce f23d b66a ef3d af89 f23d
00000060: 8e52 ee3d 30f3 f03d e85c ed3d 4f58 f03d
00000070: 096a ef3d 456a f13d 4bbe f03d 58e1 f13d
00000080: 2623 ef3d f987 f03d 6659 ea3d f80b ec3d
00000090: 1690 ec3d 0f12 ef3d 67cd ef3d 037b f23d
000000a0: 542c ec3d cf77 ee3d 975a c93d b28b cb3d
000000b0: 75fb b33d 7566 b63d c88f c83d 32cf ca3d
000000c0: 82da eb3d e278 ec3d d915 f03d e887 f03d
000000d0: 4810 ec3d 3773 ee3d 144f ec3d b28e ee3d
000000e0: 9419 ef3d 9d12 f23d 9069 ca3d 9641 cd3d
000000f0: 64c0 823d 33a2 833d bfa4 463d 1cb5 463d
00000100: 4b45 823d f86f 823d 7cf0 c93d 6be1 ca3d
00000110: bcef ee3d 3d8f f03d 7444 eb3d 4d88 ed3d
00000120: f8bc ec3d f6d5 ed3d 22a4 ee3d 4fc8 f03d
00000130: c188 b83d 6cc4 ba3d 72d1 513d d733 513d
00000140: b5ed 1a3d fa7a 163d 4040 533d 418c 543d
00000150: 0a10 b83d 947f ba3d a535 ee3d 3226 f03d
00000160: a908 ed3d b86e ee3d dd35 ec3d b4a3 ed3d
00000170: d072 f03d 6bac f03d ebba cd3d 3ee7 ce3d
00000180: ca18 883d c100 8a3d bc89 553d c2b3 573d
00000190: 1ada 883d 3b19 8b3d e6e2 cd3d ecf5 ce3d
000001a0: c5c6 ef3d b812 f13d c965 ec3d 7aa5 ed3d
000001b0: 927f ec3d 6d42 ec3d 9d7e f03d 37b9 f03d
000001c0: 2034 ec3d 1cf0 ed3d 8d7c ce3d a7e7 d03d
000001d0: bcd9 bc3d 2e62 be3d ecf7 ce3d aec6 d03d
000001e0: 04ad ec3d 65f5 ed3d 84ed ef3d 6309 f23d
000001f0: 186a ec3d b128 ef3d e256 eb3d d483 ec3d
00000200: 707b ef3d 4b3d f13d 7503 f03d d4d8 f13d
00000210: 540c f03d 682a f13d 8ebf ee3d 7c85 f03d
00000220: 1e53 ee3d 4704 f13d 4269 ef3d 3d05 f23d
00000230: 5dc0 ef3d 9334 f23d b8bc eb3d fadf ed3d
00000240: 8dc3 dc3d 59ad de3d 5226 eb3d 5e8a ed3d
00000250: 51e1 ea3d a47d ec3d 65ab eb3d 41b7 ec3d
00000260: dfaa eb3d 2765 ed3d 41f9 ea3d bbe0 ec3d
00000270: 4fd6 eb3d 7186 ee3d ba90 ea3d 4806 ed3d
00000280: 5801 de3d 3fb2 de3d f0d8 ea3d 0ffd ee3d
00000290: b1c8 f03d 5804 f33d 9547 ef3d 77d7 f13d
000002a0: c58b ee3d 2169 f13d 281c ef3d 799a f13d
000002b0: 8696 ef3d ad25 f23d 2ef4 f03d f19a f23d
000002c0: e4a3 ef3d cb02 f23d c297 e93d f333 ec3d
000002d0: a224 ef3d 5a28 f23d 2fe3 f03d 4e65 f33d
000002e0: 8c10 f03d 4138 f23d cfd4 e83d 8b57 eb3d
000002f0: e521 de3d ed3f e13d 4c37 e93d c7aa eb3d
00000300: fa24 f13d c879 f23d bd6f f03d ba96 f23d
00000310: cdf5 ee3d e35e f13d 0bce ef3d 4070 f23d
00000320: e2c8 f03d d44d f33d 6061 e23d ae59 e43d
00000330: 6b4f ac3d 981e ae3d 00f2 933d 93c1 953d
00000340: 1d61 ac3d f914 ae3d 046d e23d 9f95 e33d
00000350: e627 f13d fa6f f23d afb2 ef3d b15d f13d
00000360: d84f f03d 097a f23d a399 ee3d f8a0 f13d
00000370: 1818 b53d ebe8 b63d d125 4a3d 9b01 493d
00000380: 3c81 243d fc4d aa3c 1268 453d 8b20 443d
00000390: 0779 b43d 39df b53d 467e ee3d a5f0 f03d
000003a0: f436 ef3d 4611 f23d f543 f03d 8fc6 f13d
000003b0: a94a ec3d 952e ef3d 0864 9e3d 7751 a03d
000003c0: ecb7 f13c 4d37 e23c c195 c039 c230 60bc
000003d0: 7ecc 033d afcf 033d 60ef 9d3d d67b 9f3d
000003e0: 0020 ed3d 025b ee3d ad25 f13d fc0d f23d
000003f0: bfd6 ef3d 86e3 f13d 2929 f03d b7fc f03d
0.108577006 0.11062229 0.11538907 0.11682166 0.11499722 0.11673247 0.11498129 0.11641748
0.1154592 0.116013005 0.11582716 0.11674848 0.11627936 0.11693777 0.11488596 0.11598191
0.10772315 0.108939454 0.11482082 0.11626587 0.11716561 0.11855716 0.11690275 0.11842667
0.1163684 0.11765134 0.11589986 0.117355935 0.116901465 0.117878474 0.117550455 0.11810559
0.11676626 0.11744685 0.11442833 0.1152572 0.1155092 0.11673366 0.11709099 0.11839869
0.115318924 0.116439454 0.09831732 0.09938754 0.08788196 0.08906261 0.09793049 0.099028006
0.115162864 0.11546494 0.11722917 0.11744672 0.11526543 0.11643069 0.115385205 0.11648311
0.116748005 0.118199565 0.09883416 0.10022275 0.06384352 0.064274214 0.048496958 0.048512563
0.06360873 0.063690126 0.09860322 0.09906276 0.116668195 0.117460705 0.11487666 0.11598263
0.115594804 0.116130754 0.116523996 0.11756956 0.09010459 0.09119496 0.051225133 0.05107483
0.03782435 0.036738373 0.051574945 0.05189157 0.08987434 0.09106365 0.11631326 0.11726035
0.115739174 0.11642212 0.11533711 0.116034895 0.11740649 0.11751636 0.100454174 0.101027
0.06645353 0.06738425 0.052133307 0.052661665 0.066822246 0.06791922 0.10053043 0.101054996
0.11707834 0.117711484 0.115428515 0.11603828 0.115477696 0.11536107 0.117428996 0.11754077
0.115333796 0.11618063 0.1008235 0.10200434 0.09221217 0.0929607 0.10105881 0.10194145
0.115564376 0.11619071 0.117152244 0.118181966 0.11543673 0.11677683 0.11491181 0.11548582
0.11693466 0.11779269 0.117194094 0.11808935 0.117211014 0.117756665 0.1165763 0.1174421
0.11636947 0.11768394 0.11689998 0.118174054 0.11706612 0.11826434 0.115106046 0.11614986
0.10779486 0.10872907 0.114819184 0.11598657 0.11468757 0.115474015 0.115073 0.115583904
0.115072004 0.11591559 0.11473323 0.115663014 0.115154855 0.116467364 0.11453386 0.11573464
0.108401 0.108738415 0.11467159 0.11669361 0.11757029 0.11866063 0.11683575 0.11808675
0.11647753 0.1178763 0.11675292 0.117970414 0.11698632 0.11823592 0.117653236 0.11845959
0.117011815 0.11816939 0.11405899 0.11533346 0.11676909 0.11824103 0.11762082 0.11884557
0.11721906 0.11827136 0.11368715 0.11491307 0.108463086 0.10998521 0.113875 0.115071826
0.11774631 0.11839634 0.117400624 0.11845155 0.116679765 0.11785676 0.117092215 0.11837816
0.11757065 0.11880079 0.11053729 0.111499175 0.08413585 0.08501929 0.07223892 0.07312312
0.084169604 0.08500094 0.11055949 0.11112522 0.11775188 0.11837764 0.11704003 0.11785448
0.11733979 0.118396826 0.11650398 0.117982805 0.08842486 0.08931144 0.04935247 0.049073797
0.04016231 0.020789139 0.048194952 0.047882598 0.08812147 0.08880467 0.116451785 0.11764649
0.11680403 0.11819701 0.11731712 0.1180545 0.11537678 0.11678807 0.07733923 0.07828038
0.029506646 0.02761426 0.0003673267 -0.0136835 0.03217744 0.032180484 0.07711673 0.07787292
0.11578369 0.11638452 0.11774764 0.118190736 0.117108814 0.11810975 0.11726601 0.117669515

backbone.0.weight f4 [16, 16]
00000000: b2c6 c2b9 4353 f63c d3a7 b2bd 7c15 67be
00000010: eedf 893e 83a8 66be cfe0 553d cc7d 813a
00000020: 1956 9a3d f34c 403c f7b9 1dbe b03f 4bbe
00000030: ef78 4abc c42d 3cbd e9de 94be 2d4d f4bd
00000040: a4d1 593d 1757 3cbe 304c 27be 68c8 293e
00000050: cd41 0dbe 0d03 32be c308 4dbe 30e9 533c
00000060: 2428 283e f7e1 c13d 123e 61bd 6d8a 203d
00000070: 28ac 3c3d d9be 64bc 2d67 6c3e ff47 21bd
00000080: e4ea 503e f15e 7b3e bc03 993e b1a3 84be
00000090: 7e60 993d e036 97be 6c70 883e 7a94 d03d
000000a0: 27f1 b73d da8b c3bd 7a17 35be 348a 513c
000000b0: 5859 61be 0fde 8dbe 0d3e b4be d966 14be
000000c0: 23f3 013e 232a eebd 6df1 42bd db13 973c
000000d0: 21b2 69be 11b2 533e 2d3c cbbc a399 5d3e
000000e0: 7783 6f3e 2e4a 173e 5149 92bc e286 3f3e
000000f0: 7332 77be 42c5 b0bd 8fdd 3dbd cc3f a9be
00000100: eae0 2b3d c3d0 1bbe 7971 fdbd 71ea 8c3d
00000110: 7278 e93d 77a5 553c ccf9 afbd b2bc 90be
00000120: d949 62bd 9497 ff3d 5502 de3d 4405 e53d
00000130: 6c0f 4a3e 75fc 76be 7794 8b3d 5370 173e
00000140: 7c17 1e3e 7d7b 3e3e a698 7f3e 8661 55be
00000150: 2298 883e 5948 19bd e631 afbd d8a7 3a3e
00000160: 4944 9f3e 004d 70be d0ab 4bbe 968d 9fbe
00000170: df7b f33d aced a8be ba13 90be 2251 8b3e
00000180: 929c f33d eedc a93d d0e4 6d3e dcbb 263e
00000190: 9a03 8e3d 5401 383d 96dd 83be 97a7 533e
000001a0: 9793 033e f888 adbe b7aa 92be ba53 78be
000001b0: 3d7c 363d c347 aebd 5adf 703d b425 8f3e
000001c0: 6401 4b3e 65d4 12be deaf f3bd 8ba8 60be
000001d0: 355a b43e c0b6 8ebe 9543 22bd 0a22 f83d
000001e0: 2c22 1abd 79ef aabd 6f2d 9cbe 743f a3be
000001f0: c02c acbb 0720 073e 96d4 57be abbb b23e
00000200: e5d0 61be 5a43 72be 673e 7dbd 1cd9 30be
00000210: d15f 6c3e b01d c5bc deb4 9cbe 10f4 93bd
00000220: 479e 43be b379 d0bb c001 6abd c1e6 5bbe
00000230: 3b97 a53d 2822 583d 4ad8 c63c 5e55 26bd
00000240: 9e6c 18be baa5 af3d af6f d6bd e499 d93d
00000250: ae72 df3d fcf4 23be 86ea 8bbe 9521 623e
00000260: 6d4e a13d bc02 a6be 1041 ad3d c470 543d
00000270: c7f6 b13a d0fc 82be df61 76bc ab15 a23e
00000280: accd 223e ab1d 473e 6e05 76bd 125f b53d
00000290: 2490 f53c 5270 47be 67b3 7d3e 82dc a93e
000002a0: 937d 8d3e 42a5 cdbc a3c3 cebd 328a 563e
000002b0: 2c00 05be 0ec4 38be 6cb7 883d d932 edbd
000002c0: 8f89 013e 2dc7 bcbd 1b3b 53bd b312 b03d
000002d0: b61e 23bd 7906 6aba 3afc 5ebe 0ab4 103e
000002e0: bf4c ebbc 69c2 3abc de2d 403e 008f 13be
000002f0: cded 953d a165 953e fee4 7dbe 3a1c dbbd
00000300: 9dca 58bc 88ce 08be 41c3 dcbd 9cba 483d
00000310: 12c7 1ebd e9b1 89be 9e77 bebd f956 2c3c
00000320: 5800 773e eeac 383d 5485 e03d 3e8a 9f3d
00000330: 0122 90be 8fe3 8a3e be90 113e 953d 19be
00000340: 6474 773e 9da2 6f3e 1386 353e eaea babc
00000350: 47cb 9f3d 96ce cbbd 7b08 4bbe 2c4c 083e
00000360: 273b 08be 4752 a6be 9c8e 9fbe 9ee9 75be
00000370: 27d9 42be c370 6e3b cf08 473b 70a0 953e
00000380: c6e8 0d3d 7fc0 17be bc50 b03d c041 a7be
00000390: ea53 3fbd a47f d83d 72d4 dcbd efb3 513e
000003a0: b62a 5e3d a234 5bbe be51 42be cbba a3be
000003b0: 8df6 86bd e610 62be d1a2 d6bd 2e61 6f3d
000003c0: a2a9 7b3e 5479 303d 9183 ac3e 5f29 34be
000003d0: f38b 8d3e 3e69 243e 8804 05bd 1e76 073e
000003e0: adad 323e fdae e73c f027 27be 974a 0ebe
000003f0: f4d8 a2be 9108 54be b302 8bbe cfa1 d73d
-0.00037150603 0.030069 -0.08723416 -0.2256679 0.26928657 -0.2252522 0.052216347 0.0009879409
0.07535953 0.011737096 -0.15402971 -0.19848514 -0.012357934 -0.045942083 -0.29076317 -0.119287826
0.053178445 -0.18392597 -0.16337657 0.16580355 -0.13794632 -0.17383976 -0.20022874 0.012934014
0.16421562 0.094669275 -0.054990835 0.039194513 0.04606262 -0.013961517 0.23086233 -0.0393753
0.20402104 0.24547936 0.29885662 -0.25906137 0.074891075 -0.29534054 0.2664827 0.1018457
0.08981543 -0.09548159 -0.17684737 0.012789298 -0.22006738 -0.2770848 -0.3520359 -0.14492358
0.12690406 -0.11629131 -0.047593523 0.018442085 -0.22821857 0.20673396 -0.024808967 0.21640639
0.23389994 0.14774391 -0.017857226 0.18703797 -0.24140339 -0.08631374 -0.046353873 -0.33056486
0.04196254 -0.15216355 -0.12375159 0.06880654 0.11399926 0.013039938 -0.08592567 -0.28268963
-0.055246208 0.12480083 0.108402885 0.11182645 0.19732445 -0.24119742 0.06815427 0.14788942
0.15438646 0.18601795 0.24960575 -0.20837983 0.26678568 -0.03742251 -0.08554439 0.1822809
0.31106785 -0.23466873 -0.1988976 -0.3116271 0.11888861 -0.3299383 -0.2814005 0.27210337
0.11895098 0.08294092 0.23231816 0.162826 0.06934281 0.04492314 -0.25754994 0.20669399
0.1284927 -0.3389356 -0.2864587 -0.24250689 0.044552077 -0.08509781 0.058806755 0.27958453
0.19824749 -0.14338835 -0.118987784 -0.21939294 0.35225073 -0.27873802 -0.039615232 0.121158674
-0.037630245 -0.08346457 -0.30503413 -0.31884348 -0.005254358 0.13195811 -0.21077189 0.34908804
-0.22052343 -0.23658505 -0.06182709 -0.1727032 0.23083426 -0.024062008 -0.3060674 -0.072242856
-0.19103347 -0.006362164 -0.057130575 -0.21474744 0.080854855 0.05276695 0.024273057 -0.040608756
-0.14885184 0.08576532 -0.10470521 0.106250554 0.10910545 -0.16011423 -0.27327365 0.22083123
0.07876287 -0.3242396 0.08459675 0.051865354 0.0013577574 -0.25583506 -0.015037983 0.31657156
0.1589877 0.19444911 -0.060063772 0.08856024 0.029975958 -0.1947644 0.24775468 0.33176047
0.27634868 -0.025103215 -0.100959085 0.20951155 -0.12988347 -0.18043539 0.0667561 -0.11581964
0.1265013 -0.09217677 -0.05157004 0.085973166 -0.03982421 -0.0008927356 -0.21775904 0.1413118
-0.028723119 -0.01139889 0.18767497 -0.14410019 0.073207475 0.291791 -0.24794385 -0.10698743
-0.0132319005 -0.13360035 -0.10779429 0.04900609 -0.038764067 -0.26893547 -0.09300159 0.010518783
0.24121225 0.045086794 0.1096293 0.077900395 -0.28150943 0.27126738 0.14215371 -0.14964898
0.24165493 0.23401876 0.17726927 -0.022817094 0.07802444 -0.099515125 -0.19827454 0.13310307
-0.13303815 -0.32484648 -0.3116349 -0.24014899 -0.1902815 0.003638313 0.003037024 0.29223967
0.03464582 -0.14819525 0.08609149 -0.3266735 -0.046710886 0.105712205 -0.10782708 0.20478795
0.05423995 -0.21406797 -0.18976495 -0.3197845 -0.065899946 -0.22076759 -0.104802735 0.058442287
0.24576429 0.043084458 0.33694127 -0.17593907 0.27645835 0.16055772 -0.032475024 0.13228652
0.17449065 0.028281683 -0.16323829 -0.13895641 -0.31806147 -0.20706393 -0.27150497 0.105289094

backbone.1.weight f4 [16, 16]
00000000: 0e88 773e 90ea 44be c00c aa3e 5ba2 5fbd
00000010: 1811 f13d 7375 003e 36b8 693e 6288 803e
00000020: 9ffc 393d 539a 683e 292e 863d 3534 febd
00000030: 15c3 73be 7d9b a33e 58d1 c2bd 6d60 6e3e
00000040: 6940 4bbd 7ee3 ad3d 02f6 573e 2141 913e
00000050: a4dd dcbb c8b3 923e a382 673e eda0 d63d
00000060: 337c 71be cf62 f63d b53e 7c3e d7e9 a43c
00000070: 4b2e a93b 8037 8c3e c169 ac3e 6079 063e
00000080: a0f9 6b3e a875 41bd 2a51 28bd fed8 a9be
00000090: 4cdf 74be 813b e1bd 3984 e03d 7eef 70bd
000000a0: 7161 353e 9bd9 623a 5fb2 92bb 18e7 283e
000000b0: 6651 853e 5518 7abd 9ea6 f8bd ea50 2ebe
000000c0: 30ff 36bd bcec 83bd ed9f 823e 22ef a83e
000000d0: 2c9b 4e3e 33df 5c3e 571b 763e eb03 bf3d
000000e0: 5c33 543e 7138 b53a fc14 79bd c33e 9d3c
000000f0: 88ad 04be e42f 053d b380 4dbd 28ba 513d
00000100: 9b87 8a3e 533a b23b d0a5 f5bd 3edd 61be
00000110: 6d7d a33d 2688 1abe f63a 393e 6d15 323e
00000120: ae27 a5bd 60ab 2e3e 9636 da3c fdcd 2b3e
00000130: 3875 4b3d bf7e b73d 6553 42be bba9 3ebe
00000140: 25d0 a03e 6ec0 c73d 4933 f23b 8f4e 0b3d
00000150: 8d59 b43e ebfc 643e 36f4 933d df9a 1f3e
00000160: c577 c0bd 49da 463e f97e bc3d 9187 97be
00000170: e471 31be 67b4 b43e 2ad0 213e 8111 a83e
00000180: 071d 87bd faad b4bc c1d9 9f3e e8e4 853e
00000190: 0e2c f23c be60 113d be07 4bbd 452f 3cbd
000001a0: 0b53 b6bd 30a1 213d 3c48 7b3e d895 693d
000001b0: 06db c3bd 956e d93d eafc 8bbc d7e0 67bd
000001c0: 2fa8 123e ac5d 913e cae1 603c f5c7 9fbe
000001d0: ca48 9bbe 5d8a 3fbe 2272 52bd 05bd 043e
000001e0: 604a c23d 937d ddbc ae43 33be 0933 bc3d
000001f0: deab 8a3e 6f73 06be a4e6 a6be 15f5 97be
00000200: 2f92 203d 1c76 923d 9166 903e 00ef e3bd
00000210: 8243 973e 5212 4f3e 4ad0 523d dbcc 063e
00000220: 4836 7abd 238b 683e 252f 753c 14ff 66be
00000230: 77ba f5bd 7dc5 0a3e 6c7a 9b3e 93b1 23bd
00000240: 448f 003e e879 8d3d bd3f a9be 6ea4 f93b
00000250: c69d be3b eb27 3ebd f427 473d 1f2a e93c
00000260: efec e43d 29a4 1cbe 9e82 233e 26b6 ad3e
00000270: 5daf 103e a171 f13d e66d 473d 7937 d3bc
00000280: 8726 c2bd 5f47 ebbc bcb0 0d3e faa8 cd3d
00000290: db60 2ebe c9a7 783d f598 62be 7e78 643e
000002a0: 34bd a73d 56d0 ef3d 74d0 a9be 093d 903e
000002b0: 5bd6 0abe 6fe5 40be d145 513d fe7f 8cbe
000002c0: 7813 343d 7474 703e ca96 de3d bd01 43bd
000002d0: ce77 fb3d b1e0 b13e 0293 31bd abd0 8f3e
000002e0: 4b6d 1ebe 5466 b6bd 3c98 ad3d 82cb b43c
000002f0: a060 27bd a6e0 8dbc 3093 ce3d 7c9c a93e
00000300: 11f8 e53d aafe 13be 8d86 edbd e2ae 72be
00000310: b972 333e b5a6 313e efba 523e 2efa 8a3c
00000320: dc83 8f3e 7d12 983d 67ed 1bbe bdaf c4bd
00000330: 7fa4 23be 9a4b 083e 1203 e2bd c893 103e
00000340: d978 a13e 025c 84be f056 c7bb 23ea 1d3e
00000350: 73d2 983d ecb7 673e 06fa a03e 8071 b63e
00000360: 651e 53be 8f41 d4bd 1783 753e 3ca4 20be
00000370: dca7 bebc 5173 15bd 9711 4f3e 458b b43e
00000380: 623f 07bd 971b 253b 7d83 2ebe cd09 e13d
00000390: 1c66 49be d66f 283e 24ea 6f3d 71cc 313e
000003a0: 7a5d 58be a4db b43d 0f09 8dbe c033 b53c
000003b0: 386f 8e3e 0db0 4e3d b3fc c1bd 4d73 26be
000003c0: 5667 853d d811 a5bd 8569 b33e 0bb6 9a3e
000003d0: 42f0 1abe 5daa d23d ea53 e03d 4104 73bd
000003e0: 8e0d 50be 8a17 18bb f5c4 2fbd 91a9 1d3d
000003f0: db5e bd3d 9b90 1e3e 59a7 4c3e b330 033e
0.24172994 -0.19230103 0.33212852 -0.054598194 0.117708385 0.12544803 0.22824177 0.25104052
0.045406934 0.2271512 0.06551773 -0.124123015 -0.23804887 0.31954566 -0.095125854 0.23278971
-0.049621973 0.08490656 0.21089938 0.28370002 -0.006740289 0.28652787 0.22608428 0.10479913
-0.23582534 0.12030565 0.24633296 0.020131035 0.0051629893 0.27386093 0.33674434 0.13132238
0.23044443 -0.047231346 -0.04109303 -0.33173364 -0.23913306 -0.109976776 0.109627195 -0.058822148
0.17712952 0.00086536416 -0.00447683 0.16494405 0.26038665 -0.06105836 -0.12141155 -0.17023054
-0.04467696 -0.06441638 0.2551264 0.32994944 0.20176381 0.21569519 0.24033867 0.09326919
0.20722717 0.0013826025 -0.060811028 0.019194966 -0.12956822 0.032516375 -0.050171565 0.051202923
0.27056584 0.0054390817 -0.11994517 -0.22057053 0.079829074 -0.15090999 0.18088898 0.17390986
-0.08064209 0.17057562 0.026637357 0.16777797 0.049672335 0.08959722 -0.18977125 -0.18619435
0.31408802 0.097535 0.0073913676 0.034010466 0.35224572 0.22362106 0.07224314 0.15586422
-0.09397844 0.19419207 0.092039056 -0.29595616 -0.17328602 0.35293886 0.15802065 0.32825854
-0.065973334 -0.022055615 0.3122082 0.26151204 0.029562023 0.03549265 -0.04956793 -0.045943517
-0.08902558 0.03946036 0.24539274 0.057027668 -0.0956326 0.10616795 -0.017088372 -0.05661091
0.1432197 0.28391778 0.013725707 -0.31207243 -0.3032897 -0.18705125 -0.051378377 0.1296273
0.09486842 -0.027037418 -0.17506287 0.09189422 0.2708425 -0.13129972 -0.3259784 -0.2967917
0.03920191 0.07151434 0.28203252 -0.1112957 0.29543692 0.20221832 0.05146817 0.13164084
-0.061086923 0.22709326 0.014964853 -0.22558242 -0.11998456 0.13551898 0.30366838 -0.03996427
0.12554651 0.069080174 -0.3305644 0.0076184785 0.005817148 -0.046424787 0.048622087 0.028462468
0.11178004 -0.15296997 0.15967795 0.3392803 0.14129396 0.11789251 0.04868879 -0.025783287
-0.09480005 -0.028720556 0.1383695 0.10041995 -0.17029135 0.060706887 -0.22128661 0.22311589
0.081903845 0.11709659 -0.3316685 0.28171566 -0.13558333 -0.18837522 0.051091973 -0.274414
0.04396388 0.23481923 0.108686045 -0.04760908 0.1227871 0.34741738 -0.04335309 0.2808889
-0.1547138 -0.08906236 0.08476302 0.022069696 -0.040863633 -0.017319035 0.100866675 0.331272
0.112289555 -0.14452615 -0.11597929 -0.23699525 0.17524232 0.1734875 0.20579122 0.016964998
0.28030288 0.07425401 -0.1522728 -0.09603832 -0.15980719 0.1331009 -0.11035742 0.14118874
0.31537512 -0.25851446 -0.006083362 0.15421347 0.07462015 0.22628754 0.31440753 0.3563347
-0.20617063 -0.10364067 0.23975788 -0.1568765 -0.023273401 -0.036486927 0.20221554 0.35262504
-0.03301943 0.0025193447 -0.17042346 0.109881975 -0.19667858 0.16448912 0.058572903 0.17363144
-0.21129408 0.088309556 -0.27545974 0.022119403 0.27819228 0.050460864 -0.09472027 -0.16254921
0.065138504 -0.08060044 0.35041443 0.30217013 -0.15130714 0.102864005 0.10953505 -0.05933023
-0.2031767 -0.002320739 -0.042912442 0.03849179 0.09246608 0.1548485 0.19985713 0.12811546

backbone.2.weight f4 [1, 16]
00000000: f142 ad3e e92a 943e 0bae 93be a502 9c3e
00000010: 6820 3cbe ea11 953e c342 0c3e d577 70be
00000020: 8290 a53e e96c 81bd d50a 98be 5047 153e
00000030: 4a5b 823e 75b2 593e d4c1 f9bd d0d0 603e
0.33840135 0.28938988 -0.28843722 0.30470768 -0.18371737 0.2911523 0.13697343 -0.23483212
0.32336813 -0.06319601 -0.29695764 0.14577985 0.25460273 0.21259482 -0.12195173 0.21954656
