output/0/best.pth (torch, 714225 bytes, 4 tensors)

encoder.embeddings f4 [88656, 2]
000000 09 3e e6 bd 52 4e e1 3d fb c7 f3 bd 40 13 f1 3d
       -0.11242301 0.110012665 -0.119033776 0.1177125
000010 f6 b9 f4 bd 2b f9 f3 3d 5b 3a f3 bd d4 6c f4 3d
       -0.11949532 0.119127594 -0.11876365 0.1193482
000020 51 e5 f3 bd 10 5f f2 3d 48 25 f4 bd 60 68 f3 3d
       -0.11908973 0.11834538 -0.11921173 0.11885142
000030 8f 27 f4 bd e3 c8 f1 3d a2 e6 f1 bd 22 86 f0 3d
       -0.11921608 0.11805894 -0.11811568 0.11744334
000040 9a 9b e4 bd 5a 03 e4 3d a5 22 f3 bd bf 18 ef 3d
       -0.11162491 0.11133452 -0.11871842 0.11674642
000050 3a 35 f8 bd cb 62 fb 3d 5a 6b f8 bd bc 08 f9 3d
       -0.12119527 0.12274703 -0.12129851 0.12159869
000060 d8 37 ed bd 4f d9 ef 3d 72 a6 d7 bd 97 18 da 3d
       -0.11582917 0.1171137 -0.10529794 0.106492214
000070 83 da ee bd e8 87 ef 3d ca 30 f7 bd d3 01 f8 3d
       -0.116627716 0.11695844 -0.12069853 0.12109723
000080 01 e9 f6 bd 8b 84 f7 3d c0 e5 f1 bd d2 38 f3 3d
       -0.12056161 0.120858274 -0.118113995 0.11876072
000090 d2 81 f5 bd c9 cc f1 3d f3 fa f8 bd 77 57 fa 3d
       -0.11987652 0.11806638 -0.1215724 0.12223714
0000a0 2a 37 f4 bd 32 48 f5 3d 5b b6 ad bd 9c f1 ad 3d
       -0.11924584 0.11976661 -0.08482047 0.08493349
0000b0 71 83 82 bd 68 e8 84 3d 91 aa a9 bd 80 e5 ab 3d
       -0.06372727 0.064896405 -0.08284486 0.08393383
0000c0 f5 7e f2 bd 59 85 f3 3d 78 90 f7 bd e5 16 f9 3d
       -0.118406214 0.118906684 -0.12088102 0.1216257
0000d0 02 06 f5 bd b2 78 f2 3d a2 d4 f4 bd 1c da ee 3d
       -0.119640365 0.11839427 -0.11954619 0.11662695
0000e0 bf b1 f8 bd 91 12 f6 3d 94 53 e6 bd 39 13 e8 3d
       -0.121432774 0.1201526 -0.1124641 0.113317914
0000f0 d6 e1 7e bd e9 cf 7d 3d 92 5b 27 bd cc d2 25 3d
       -0.062227093 0.061965857 -0.040858813 0.040484235
000100 30 65 73 bd b3 8e 77 3d c4 fd de bd 28 8e e3 3d
       -0.05942267 0.060438823 -0.10888246 0.111110985
000110 95 6a f8 bd b1 04 fb 3d 1f fb f2 bd a5 51 f4 3d
       -0.12129704 0.12256754 -0.11864304 0.11929635
000120 d9 17 f5 bd fd 31 f4 3d cc 6b f8 bd 65 f6 fa 3d
       -0.11967439 0.11923597 -0.121299356 0.12254027
000130 87 77 ea bd 76 88 ed 3d 3e 69 8c bd 92 5b 8b 3d
       -0.11448579 0.115982935 -0.06856011 0.06804575
000140 39 1d 43 bd bc f5 42 3d 18 2e 88 bd a1 b8 88 3d
       -0.04763529 0.04759763 -0.06649417 0.0667584
000150 3e f5 e6 bd 59 98 e8 3d 53 95 f8 bd c3 fc fc 3d
       -0.11277245 0.11357183 -0.12137856 0.12352898
000160 3a 51 f3 bd 00 e4 f1 3d 58 a9 f4 bd 97 2c ed 3d
       -0.11880727 0.11811066 -0.11946362 0.115807705
000170 81 1b f8 bd 32 45 f6 3d b5 ef f4 bd 2f a2 f8 3d
       -0.12114621 0.12024917 -0.11959783 0.12140309
000180 50 75 bb bd 30 81 bf 3d dd 99 95 bd d8 1c 9a 3d
       -0.09153235 0.093508124 -0.07304738 0.07525033
000190 fb b5 b7 bd e2 43 bb 3d fa d6 f4 bd ac ca f4 3d
       -0.08970257 0.09143807 -0.11955066 0.11952719
0001a0 2b 64 f8 bd be e7 fb 3d 63 32 f4 bd a1 9a f6 3d
       -0.121284805 0.12300061 -0.11923673 0.12041212
0001b0 25 af f3 bd 4a a1 ef 3d f8 3a f8 bd 91 77 f8 3d
       -0.118986405 0.11700685 -0.121206224 0.121321805
0001c0 10 48 f8 bd 9a c5 f8 3d 19 4b ee bd b5 7b f0 3d
       -0.1212312 0.121470645 -0.116354175 0.11742345
0001d0 bb ba d8 bd ea a8 db 3d 93 15 ec bd 55 e7 ee 3d
       -0.10582491 0.10725577 -0.115275525 0.11665217
0001e0 a6 33 f8 bd 75 9a f7 3d 3d bc f8 bd ca 87 f7 3d
       -0.12119226 0.12090007 -0.121452786 0.120864466
0001f0 66 bc f4 bd e0 7b f1 3d 36 e7 f2 bd c8 37 f2 3d
       -0.11949997 0.117912054 -0.11860506 0.11827046
000200 0a d8 f7 bd 3d e4 f8 3d 02 64 f8 bd 79 d8 f9 3d
       -0.12101753 0.12152908 -0.1212845 0.12199492
000210 0f 9f f7 bd 71 8f fb 3d f1 ee f6 bd ec cb f9 3d
       -0.12090885 0.12283219 -0.12057293 0.12197098
000220 fd a4 f7 bd e6 4e fb 3d a0 2f f8 bd 6e 9c fa 3d
       -0.12092016 0.12270908 -0.12118459 0.12236868
000230 ed 76 f7 bd 31 a8 f9 3d 5c 07 f3 bd 22 4b f1 3d
       -0.1208323 0.12190283 -0.11866638 0.117819086
000240 c2 cc e5 bd c0 9d e0 3d 20 c8 f2 bd 36 3f ee 3d
       -0.11220695 0.109675884 -0.11854577 0.1163315
000250 d8 99 f3 bd df 94 f1 3d 1c c7 f2 bd cd 30 f5 3d
       -0.11894578 0.11795973 -0.11854383 0.11972199
000260 2a 38 f3 bd ab e1 f2 3d 79 3b f4 bd 01 53 f5 3d
       -0.11875947 0.11859449 -0.11925406 0.11978722
000270 0e 99 f3 bd ea 3f f4 3d 0e 2b f3 bd 59 70 f0 3d
       -0.11894427 0.11926253 -0.118734464 0.117401786
000280 41 27 e5 bd 6e fb da 3d 62 28 f4 bd 40 5c f3 3d
       -0.11189128 0.10692488 -0.11921765 0.1188283
000290 f6 0a f8 bd f8 66 fa 3d 67 03 f8 bd 63 46 fc 3d
       -0.12111466 0.12226671 -0.12110024 0.12318113
0002a0 30 ef f5 bd ee b8 f7 3d 2c 21 f2 bd 44 06 f1 3d
       -0.12008512 0.120958194 -0.11822733 0.11768773
0002b0 a6 08 f7 bd 35 dd f5 3d 40 c0 f7 bd 91 d4 f6 3d
       -0.120621964 0.120050825 -0.12097216 0.120522626
0002c0 c4 93 f6 bd c1 10 f8 3d 0e 20 f1 bd 6a 7b f1 3d
       -0.12039903 0.121125706 -0.11773692 0.117911175
0002d0 2c ad f8 bd af d8 fa 3d 36 82 f9 bd 1f a0 fd 3d
       -0.12142405 0.1224836 -0.12183039 0.12384056
0002e0 1a 04 f8 bd 93 33 fb 3d 13 1c d2 bd f6 bd d7 3d
       -0.12110157 0.122656964 -0.10259261 0.10534279
0002f0 60 73 b3 bd 98 15 b8 3d 6a 34 d2 bd db 6f d6 3d
       -0.087622404 0.08988494 -0.102639034 0.104705535
000300 3a 73 f7 bd 47 13 f8 3d 34 80 f8 bd 72 ef fa 3d
       -0.120825246 0.12113052 -0.12133828 0.12252702
000310 b9 56 f6 bd bc 7d f7 3d 0a f2 f8 bd 31 8c fb 3d
       -0.1202826 0.12084529 -0.1215554 0.12282599
000320 32 f6 f9 bd 0c ee fb 3d 00 c5 e8 bd ac 90 eb 3d
       -0.12205161 0.12301263 -0.113657 0.11502203
000330 f0 4d 74 bd 78 e1 64 3d 9b c3 e3 bc 2a 1b 7f 37
       -0.05964464 0.055879086 -0.027803233 1.5205509e-05
000340 e1 22 62 bd 82 4d 4b 3d 5f 01 e2 bd 42 fa e4 3d
       -0.055209044 0.049634464 -0.11035418 0.111805454
000350 fd 14 f9 bd 17 83 fa 3d 55 42 f8 bd 3b 29 f9 3d
       -0.12162206 0.12232035 -0.12122027 0.12166067
000360 44 7a f8 bd 6b 06 fc 3d 6a f6 f8 bd 13 7d fc 3d
       -0.12132695 0.12305912 -0.12156375 0.123285435
000370 4f 14 d5 bd 2b b9 d9 3d 61 ae 19 bd a2 f5 08 3d
       -0.10404264 0.10631021 -0.037519816 0.03343738
000380 cc 24 60 bc 4b 9a 9d bc de 4c f1 bc 5a 71 b9 3c
       -0.013680648 -0.019238612 -0.029455598 0.022637058
000390 bc df cd bd f7 d8 d3 3d 64 1e f9 bd bf c2 fb 3d
       -0.100524396 0.10344117 -0.12164 0.12293004
0003a0 6a b6 f7 bd 18 b8 f9 3d 6f 24 f8 bd 0a 9e f8 3d
       -0.120953396 0.12193316 -0.12116324 0.121395186
0003b0 72 a2 f8 bd 50 3d fb 3d a0 ca d7 bd 39 89 da 3d
       -0.12140359 0.12267554 -0.105366945 0.106707044
0003c0 92 29 27 bd 96 77 23 3d ce af 58 bc aa d3 51 bc
       -0.04081113 0.039908968 -0.013225509 -0.012806812
0003d0 dc 01 17 bd 3d f9 13 3d 1a 6a d2 bd 03 7b d6 3d
       -0.036867008 0.036126364 -0.102741435 0.104726814
0003e0 0a 63 f9 bd 79 29 fc 3d c3 27 f7 bd 9f 55 fa 3d
       -0.12177093 0.12312598 -0.12068131 0.12223362
0003f0 db f2 f7 bd 8b ae f6 3d 1a 44 f9 bd 88 de f9 3d
       -0.12106868 0.1204501 -0.121711925 0.122006476

backbone.0.weight f4 [16, 16]
000000 ab 35 97 be 17 11 66 3d 2f 78 81 3e 34 1a 7c 3e
       -0.29533133 0.056168642 0.25287005 0.2461937
000010 1a 76 6e 3e 86 57 70 3e df 75 a4 3e 63 98 18 3e
       0.2328724 0.23470888 0.32121179 0.14901881
000020 bd a8 a3 be 2a ce 83 be 07 91 8d 3e b0 72 a2 3e
       -0.31964675 -0.25743228 0.2764971 0.31728125
000030 18 b9 a5 3e 15 4c 24 3e 98 6e 8f 3d 86 ce ed bd
       0.32367778 0.16044648 0.07003516 -0.11611657
000040 33 f0 6d bd df 4c 8f bd ea 92 aa 3d b5 3d 23 3e
       -0.0580904 -0.06997084 0.08328803 0.15941508
000050 f2 64 f5 3d fc 99 18 3e 31 f6 5a 3e 5c 8b 24 3d
       0.119821444 0.1490249 0.21382977 0.040171966
000060 24 e9 80 be bb f7 a0 be ce 88 9a 3e a5 eb e4 3d
       -0.25177872 -0.31439003 0.301825 0.11177758
000070 d8 5b 1e 3e 60 fa a8 3e 31 4b 4a bd 30 4f b9 bd
       0.15464723 0.3300352 -0.049388114 -0.09048307
000080 1d 0f 63 be 40 55 aa 3e e2 9c 76 3e d0 1a 3f 3d
       -0.22173734 0.33268166 0.24083284 0.04665643
000090 88 32 a8 3e 89 ae d9 b8 8f f9 26 3d 4a 71 95 3e
       0.32851052 -0.00010379876 0.04076534 0.29187995
0000a0 7f 16 20 be f8 a8 63 bd 4f a1 10 3e 3c 03 0b 3e
       -0.15633582 -0.055581063 0.14124034 0.13575453
0000b0 50 5c 22 3e 2a bd b8 3e a8 dc 3c be 67 a4 ae bc
       0.15855527 0.3608182 -0.18443549 -0.021318628
0000c0 60 cc a6 3d 91 40 a3 3a fe 99 3e 3e 9a 51 38 bd
       0.0814445 0.0012455155 0.18613431 -0.044999696
0000d0 60 25 78 3d 11 1f a2 3e a9 cc 90 3e ad 6b 2c 3e
       0.06058252 0.31664327 0.28281143 0.1683795
0000e0 ed 37 70 be b2 38 a2 3d 25 55 36 3e 0f 02 83 3e
       -0.23458834 0.0792097 0.17805918 0.25587508
0000f0 54 ec 93 3e cb e2 2f 3e 10 79 69 bd 93 b0 0f be
       0.28891242 0.17176358 -0.05700022 -0.14032201
000100 b1 33 b7 be c6 93 a7 3e d5 6b 15 3d f6 e5 5a 3e
       -0.35781625 0.3272993 0.03647979 0.21376786
000110 46 80 0e 3d 93 40 14 3e 26 6a 13 bd cd 92 0c 3e
       0.0347903 0.14477758 -0.035989903 0.13727875
000120 8f 85 a2 be 1a 11 3c be a1 f7 5e 3d 7b 5d 84 3e
       -0.31742522 -0.18365899 0.054435376 0.2585257
000130 40 8c 3e 3e 72 fc 64 3e f6 9c a6 be 64 13 a3 3e
       0.18608189 0.22361925 -0.32541627 0.3185073
000140 d6 0e d2 bd 4d a9 20 3e fb 11 54 3c f4 fa 22 bd
       -0.10256736 0.15689583 0.01294374 -0.03979011
000150 43 5e e0 3d a4 ec 6e bd d3 81 df 3c 10 bd 8f 3d
       0.10955479 -0.058331147 0.027283585 0.07018483
000160 d2 71 5d be d5 e9 75 3e 12 a2 65 3e 10 9b 4b be
       -0.2162545 0.24014981 0.22425106 -0.1988337
000170 7f 07 9d be 1e 38 13 3e 8f 9a 9f 3e 95 18 b0 be
       -0.30669782 0.14376876 0.31172606 -0.34393755
000180 bd 5d da bc 30 74 ad 3e d2 53 4b 3e 6c a4 00 be
       -0.026656026 0.33877707 0.19856194 -0.12562722
000190 66 5f df bd 94 e3 7b 3e 5d 3d 99 bc c3 50 4d bd
       -0.10906868 0.24598533 -0.018706018 -0.05012585
0001a0 a9 d6 cd 3d ca 3a 3f 3d b9 f7 c1 3d ca 25 a7 3e
       0.10050709 0.046686925 0.094710775 0.32646018
0001b0 6e 22 a2 3e 86 09 6b 3e 9a d3 14 be 2b 8f 5c 3e
       0.31666893 0.22952852 -0.14533845 0.21538989
0001c0 70 99 04 3d 30 0d b1 3d e9 9a 82 3e 38 9b 89 3e
       0.032372892 0.086450934 0.25508812 0.26876235
0001d0 00 0e 79 3e 28 7c aa 3e 56 b7 75 3e 25 b6 5f 3e
       0.24321747 0.3329785 0.23995718 0.21846826
0001e0 f3 38 00 be 9b 4a 3b 3c c5 27 74 3e 3c da b3 3e
       -0.12521724 0.011431362 0.23843296 0.35127437
0001f0 9f 39 12 3e 63 2c 61 3d 3a 13 b4 be e6 fb 11 be
       0.14279793 0.05497397 -0.3517092 -0.14256248
000200 b1 2a 3b be df ad 1b 3e 14 6b 3e 3e 57 e8 8b bd
       -0.18278004 0.15203045 0.18595535 -0.06831425
000210 7f ad 84 3d bd 36 dd bd 6f d8 26 3e ca 28 b1 3e
       0.06478404 -0.10801456 0.162935 0.34601432
000220 23 64 65 be 82 3d 97 be 76 c5 ac 3e fd 6e 72 3d
       -0.2240148 -0.29539114 0.337444 0.059187878
000230 6a 0c a6 3e 89 05 58 bd 9b 8c 3c 3c f3 c2 6e 3e
       0.32431346 -0.052739654 0.011508132 0.23316555
000240 12 85 38 be c0 92 af 3e 1d ff 61 3e dc 81 70 bd
       -0.18019512 0.3429165 0.22069974 -0.058717594
000250 73 6b de 3d ca b2 d8 3c b6 04 06 3d 52 14 1f 3e
       0.10860338 0.02645244 0.032719336 0.15535095
000260 19 0d a5 be 73 79 f0 bd 88 56 66 3d 5a 71 ea bd
       -0.32236555 -0.117419146 0.056234866 -0.11447401
000270 07 c6 05 be e7 d3 5c 3e c3 13 47 bc 56 c6 40 bd
       -0.13063823 0.2156521 -0.012150708 -0.047064148
000280 26 e6 22 3d ea eb c3 bd db c0 fc bd 26 08 af bd
       0.039770268 -0.095664814 -0.12341472 -0.08546476
000290 99 ea 5f be 02 20 91 be 50 89 9d 3d a4 a7 85 3e
       -0.21866836 -0.28344733 0.07692206 0.26104462
0002a0 e8 b6 34 be d6 dd 08 be 54 51 00 bd ba 12 88 3c
       -0.17647898 -0.13365874 -0.03132756 0.016610492
0002b0 f6 6d 5b be e3 14 0c 3e ca ef 84 3e 1c 6e 9d be
       -0.21428666 0.13679843 0.25964195 -0.3074807
0002c0 56 7e e9 bd ab 90 a6 3e e7 df 6f 3e 0d d0 88 bc
       -0.1140105 0.32532248 0.23425256 -0.016700769
0002d0 7c 32 f0 bd 3e 51 a7 3e 39 1b e9 3d 33 d6 b4 3e
       -0.11728379 0.3267917 0.113821454 0.3531967
0002e0 66 ab 8b be 5f f6 3d be 4a 8a 53 3e 16 ac dd bd
       -0.27279204 -0.18551014 0.20658222 -0.108238384
0002f0 17 94 63 3e 44 7d 8d bd 5f 54 21 3b 2d c7 af 3e
       0.2222446 -0.06908658 0.002461694 0.34331647
000300 e9 20 48 be 3a 1b d2 bd 77 ee ea 3d 41 47 94 3e
       -0.19543804 -0.10259099 0.11471265 0.28960612
000310 d8 ca 76 3e 4e be 78 3e 87 4b d3 3d af 4c e1 bd
       0.24100816 0.24291345 0.1031714 -0.11000954
000320 67 53 9b be 27 1c 6c be 6e 9f 53 3d 4f 18 2f bb
       -0.30337068 -0.23057614 0.051665716 -0.002671737
000330 c7 a9 80 3d 45 93 2f 3d 83 ad 16 be 34 88 af 3e
       0.062823825 0.042865057 -0.14714627 0.34283602
000340 2f 59 1f 3e f1 9f ab 3d 07 8c e0 3d d6 d7 4d 3e
       0.15561365 0.08380116 0.10964208 0.20101866
000350 dc 8e 84 be b7 c3 15 3e 2f 73 97 be a8 4b b5 bd
       -0.25890243 0.1462544 -0.29580066 -0.08852321
000360 e7 6d 72 3d e3 30 23 3e 53 04 62 bd 78 6b 1e 3d
       0.059186842 0.15936618 -0.055179905 0.03867671
000370 7d 05 95 3d 3d c3 80 3d d6 38 2e 3e 4d 20 0e be
       0.072764374 0.06287239 0.17013869 -0.1387951
000380 9e d6 e3 3d 2e ce ab 3c 55 df e4 3d 92 d9 1e be
       0.11124919 0.020972338 0.1117541 -0.15512684
000390 e6 15 35 be e9 68 73 3d 4c a1 e8 bd 29 84 1c 3e
       -0.17684135 0.059426222 -0.1135889 0.1528479
0003a0 78 7e 10 be a4 b8 83 be 0f 5a 2d be 02 cf 10 bd
       -0.14110744 -0.25726807 -0.16928886 -0.035353668
0003b0 8b c6 6b be 5e 88 29 3e 10 63 ba 3e 9f 06 2b be
       -0.23024957 0.16555926 0.36403704 -0.16701744
0003c0 5e 2d 84 be 7c 8e 02 3e 15 53 a5 bd 68 6e ac bd
       -0.25815862 0.12749666 -0.08072487 -0.08419496
0003d0 c3 62 6c bd 07 d8 51 3e b5 73 db 3d 2e 7b 99 3e
       -0.057711374 0.20492564 0.10715429 0.2997679
0003e0 72 7f 90 be 4d 42 ad be d2 07 8c 3e a1 bd ab 3e
       -0.28222233 -0.33839646 0.27349716 0.33543113
0003f0 51 5d a8 3d 3b 55 5f 3e 19 b5 1f 3d f8 00 fa 3d
       0.08220924 0.21809857 0.038991068 0.12207216

backbone.1.weight f4 [16, 16]
000000 5d 04 b3 3e d8 be 9e be ea 67 01 3d 4f 66 1d 3e
       0.34964266 -0.31004977 0.03159324 0.15371059
000010 25 40 81 be 2d 6c 7c 3e f2 02 9a be 1f ba cb 3d
       -0.2524425 0.24650641 -0.30080372 0.09947609
000020 63 a9 93 be ff 0e 1b be b6 e6 c8 3c f6 9f 72 be
       -0.2884017 -0.1514244 0.024524074 -0.23693833
000030 d0 d5 c8 3c 9b 5f 85 3e 1c 05 37 3d 82 25 90 be
       0.024516016 0.26049504 0.044682607 -0.28153616
000040 53 12 55 3e a5 12 8d 3d 6f bb 3f 3c ba 17 ac 3d
       0.20807771 0.06888322 0.0117024025 0.08402963
000050 42 d0 42 be 1d 69 4c 3d 75 00 b0 be 9f 94 6d bd
       -0.19024757 0.04990493 -0.3437535 -0.058003064
000060 da da 95 be db b6 3f 3d 42 42 a5 3e c3 c6 94 be
       -0.29268533 0.046805244 0.32277113 -0.29057893
000070 b4 b2 1e 3e a8 ae 59 3e 45 68 a8 3e 07 a7 bf 3d
       0.15497857 0.21258032 0.3289205 0.0935803
000080 3a 07 06 3e 1c 9f 79 be 12 4e 83 3d 6a 4c 9d be
       0.13088694 -0.24377102 0.06411375 -0.30722362
000090 c0 53 8a 3c 13 04 7f 3e a3 05 89 3c 19 b7 e1 bc
       0.016885638 0.24903898 0.01672632 -0.027553128
0000a0 09 1c df bd fb 26 dc 3d 31 7b a8 3e d5 09 d5 3d
       -0.10894019 0.107496224 0.32906488 0.10402266
0000b0 f5 1b 9e be c4 d1 19 3e 84 a8 00 3c cf 5c fc bd
       -0.30880705 0.15021425 0.007852677 -0.12322389
0000c0 72 63 a2 bd 24 4d de bd be e0 5e be 44 49 4f 3d
       -0.07929124 -0.10854557 -0.2176542 0.05060698
0000d0 55 34 1b be 4f be cb bd 53 bd 87 be 6c fc 32 be
       -0.15156682 -0.09948408 -0.2651163 -0.17479104
0000e0 35 d2 86 be 15 d0 11 be 0e 26 71 3e 58 59 c9 bd
       -0.2633225 -0.14239533 0.23549673 -0.09831494
0000f0 d1 ed f5 b8 a7 68 87 3d c9 92 8a be f3 e3 88 be
       -0.00011726807 0.06611758 -0.27065113 -0.2673641
000100 ad 51 b9 3e ea 09 c2 bd 00 15 86 3c aa 94 a9 3e
       0.36195126 -0.09474547 0.016367435 0.33121234
000110 38 80 28 3e a1 7e 42 be 5c 2b d8 3c 58 2e 89 3e
       0.16455162 -0.18993618 0.026387863 0.2679317
000120 73 84 23 bc 39 6c 46 3e c8 d0 24 be 6a 8e 5f 3e
       -0.009980309 0.19377221 -0.16095269 0.2183167
000130 0e 85 63 3e 21 25 23 be 9d 45 22 3e 81 85 8b 3e
       0.22218725 -0.15932132 0.15846868 0.27250293
000140 5f ab b1 3d 25 27 52 3e 0f 44 45 bd 8f 4b 1a 3e
       0.086752646 0.20522745 -0.04816061 0.15067886
000150 b2 9a a4 3e 96 e6 50 be 65 80 cf bb 0c 41 af 3e
       0.32149273 -0.20400462 -0.0063324445 0.34229314
000160 e6 3d 0a 3e 96 17 ca 3b 1b eb d4 3d d7 c4 6a 3e
       0.13500175 0.0061673624 0.10396405 0.22926651
000170 33 3a 67 3e fe e3 e7 3d 8c ba 1d bd ed 5d 82 bd
       0.22580795 0.11322783 -0.038507983 -0.06365571
000180 ad ec a1 3e 2b 4c a0 3e 3f ac 6e 3e 42 48 97 bd
       0.31625882 0.31308112 0.23307894 -0.07386829
000190 52 9a 9d 3e f5 03 47 be 11 d1 89 3e 38 b7 6f 3e
       0.307818 -0.19435103 0.26917318 0.23409736
0001a0 c4 6d 8e 3d fd f7 1f 3e 6a fb 22 be 6d 02 a7 bc
       0.0695453 0.15621944 -0.1591622 -0.020386899
0001b0 49 c6 10 3e 88 35 80 be 5a f9 ff 3d 1f 81 a7 3d
       0.1413814 -0.2504084 0.12498732 0.08178925
0001c0 1e 52 81 3e 22 11 9a 3d 15 6b 10 3e 6a d7 24 3e
       0.25257963 0.07522799 0.14103349 0.16097799
0001d0 69 45 7d 3e a9 26 81 be 66 37 6c 3c 69 b5 a7 bd
       0.24733509 -0.25224808 0.014417505 -0.08188898
0001e0 61 bc 62 3e 39 fc 6e 3d d1 11 9f be 9b 54 0b 3e
       0.22142173 0.058346007 -0.3106828 0.13606493
0001f0 22 06 0d 3e 57 67 19 be e3 53 27 be 1c 83 1d 3e
       0.1377187 -0.14980827 -0.16340594 0.15382046
000200 68 45 6e be 64 7f 4e be 96 ea f8 3d bb 63 64 be
       -0.23268664 -0.20165783 0.12154119 -0.22303669
000210 88 4f be 3d a2 d3 8d bd 2b d1 82 3d 97 1b 29 be
       0.09292513 -0.069251314 0.06387552 -0.16514431
000220 50 2b ea 3c ec 9d 5c 3e 1f 02 11 3e 5c 80 91 bd
       0.028585106 0.21544617 0.14160965 -0.07104561
000230 ae 8f 81 be 1e 34 18 3e 82 75 b6 3e c6 aa fe bd
       -0.2530493 0.14863631 0.35636526 -0.12434916
000240 8d e2 2e bd ce b3 de 3d 7d ee ca 3c b9 cb 81 bd
       -0.042696524 0.10874139 0.024771923 -0.06337685
000250 57 c6 88 bd 7b 00 db 3b 83 38 24 be 21 ec 79 3e
       -0.06678455 0.006683407 -0.16037183 0.24406482
000260 52 cf ce bd 3c 99 ef bc a4 84 04 be fa 42 17 be
       -0.10098137 -0.029247873 -0.12941223 -0.14771643
000270 94 cb 0d be 68 e0 95 3b 6d fb 07 be 1a 4b bc 3c
       -0.1384719 0.0045738705 -0.13279505 0.02298503
000280 92 fc 4d be 26 85 94 be 5e cf 54 3c be b5 82 be
       -0.20115879 -0.29007834 0.012988893 -0.25529283
000290 ff 5f 3e 3e 78 ca 82 3e e6 a1 6d 3d 06 aa b4 be
       0.18591307 0.25545096 0.058015727 -0.35285968
0002a0 82 d3 65 be 1f c9 49 be 4c d8 72 3e 3b f6 ab be
       -0.22443965 -0.19705628 0.23715323 -0.33586296
0002b0 be 20 1d be f2 52 8d bc 04 ec 81 3e c5 49 0f 3e
       -0.15344521 -0.017251465 0.25375378 0.13992985
0002c0 4a 82 c5 3d 71 a8 93 3e 77 c7 2e 3e 7e 1e ca 3d
       0.09643991 0.28839448 0.17068277 0.09869097
0002d0 0f a5 89 3d e2 3e a1 be 53 08 8e bd 1d 02 af 3e
       0.067209356 -0.31493288 -0.069351815 0.341813
0002e0 2a 16 9f 3e ea f9 a5 3e 77 68 ec 3d 51 ba 31 3e
       0.31071597 0.32417232 0.115433626 0.1735623
0002f0 f2 88 81 3d 3e a9 fd bd 18 65 11 3e 2b 7b 9f 3e
       0.06324948 -0.12385796 0.1419872 0.31148657
000300 27 ec 89 3e a1 34 55 3d 56 41 b0 be 87 1a 16 3e
       0.26937982 0.052052144 -0.34424847 0.14658557
000310 58 e8 8e 3d a7 76 7f bd 3d c4 fc 3d d5 3e 86 be
       0.0697791 -0.062369015 0.12342117 -0.26219812
000320 bb 94 30 be de b4 f9 bc 30 e3 62 3d 30 f2 b0 be
       -0.17244236 -0.030481752 0.055392444 -0.34559774
000330 ac d4 13 3e 8d ef e9 3d 19 b6 9b be 1d a6 b4 be
       0.14436597 0.11422644 -0.30412367 -0.35282984
000340 b2 4a 8f 3e 57 b5 a5 bd c1 2d 4f be 10 87 47 3d
       0.27986676 -0.080912285 -0.20232297 0.04871279
000350 bd b6 8f be cc 6e a5 bc 29 b2 63 bd bb ec ce bd
       -0.28069106 -0.020194434 -0.05558983 -0.101037465
000360 24 77 5f be 9d bf 00 be 2e ef c0 bd 62 08 6a be
       -0.21822792 -0.12573095 -0.0942062 -0.2285476
000370 f2 11 3f 3e 53 6c c8 3d d0 e3 82 bc fa 56 b9 bd
       0.1865919 0.09786286 -0.01597777 -0.090497926
000380 93 33 38 3d b7 cd 26 bd 0e 79 b9 be 69 7f 9d 3e
       0.04497106 -0.04072353 -0.3622517 0.3076127
000390 59 4c 62 3d e3 ec 9d 3e 1d 9f fa bd a3 2c 12 bc
       0.055248592 0.30844793 -0.1223738 -0.008921775
0003a0 c0 3c 48 be 38 7c fd 3d 16 1f c5 bd 1a 34 82 bd
       -0.19554424 0.123772085 -0.0962507 -0.06357594
0003b0 6e 54 24 3b c9 7e 2c 3d 35 6a 3f 3e bf 86 5e be
       0.0025074738 0.0421131 0.18692859 -0.21731089
0003c0 86 1e 17 3e a0 de 27 be 43 ae 8f be 5e 20 41 bd
       0.14757738 -0.16393518 -0.2806264 -0.04715001
0003d0 b5 8d 8d be 34 ab 83 3e ae 45 5f be 7e d6 70 3d
       -0.27647176 0.25716555 -0.21803924 0.058798306
0003e0 ed 1e 01 3e a5 32 46 3e 8c 9a 98 3e 1f 61 39 be
       0.12609453 0.19355257 0.2980541 -0.18103455
0003f0 fd 87 7e 3e 13 b7 d2 bd f4 fa 32 3e af 2f fc bb
       0.24856563 -0.10288825 0.17478544 -0.007696114

backbone.2.weight f4 [1, 16]
000000 84 cf 30 be 9c 81 08 be 7c 39 04 be 1d 49 86 3e
       -0.17266661 -0.13330692 -0.12912554 0.26227656
000010 1e 3c f6 3d 76 3f bf 3d da 94 af 3e 4a 38 a4 3e
       0.12023185 0.09338276 0.34293252 0.32074195
000020 25 77 b6 be 60 56 64 3d a5 af 9f be a0 11 93 3e
       -0.35637775 0.055746436 -0.31188694 0.28724384
000030 54 3e 66 be 0d d1 72 be 2d 1a 27 be 9d 2c 69 be
       -0.22484714 -0.23712559 -0.16318579 -0.22770925
