output/22/best.pth (torch, 714225 bytes, 4 tensors)

encoder.embeddings f4 [88656, 2]
000000 e5 60 f3 3d c4 33 e3 3d 65 08 01 3e a1 9d f0 3d
       0.118837155 0.11093858 0.12600859 0.11748815
000010 90 39 01 3e bc a2 f0 3d 04 c8 00 3e 7d 2c f0 3d
       0.12619615 0.11749789 0.125763 0.117272355
000020 a3 c5 fd 3d ad e6 ef 3d d4 08 00 3e 20 81 ef 3d
       0.12391212 0.1171392 0.12503368 0.116945505
000030 f5 91 01 3e 39 bb f0 3d 0c 04 00 3e d5 33 f1 3d
       0.12653334 0.1175446 0.12501544 0.11777464
000040 d5 0d ed 3d 61 57 e3 3d 34 a3 01 3e b3 c2 ef 3d
       0.11574904 0.111006506 0.12659913 0.11707058
000050 a8 27 03 3e a5 56 f4 3d 6e 9b 03 3e df 89 f4 3d
       0.12808096 0.11930589 0.1285226 0.11940359
000060 a6 7b 01 3e 05 53 f4 3d 09 10 00 3e bf 58 f3 3d
       0.12644824 0.11929897 0.12506117 0.11882161
000070 30 73 02 3e 72 3a f4 3d b7 9a 03 3e 07 3c f4 3d
       0.12739253 0.1192521 0.12851988 0.11925512
000080 40 94 03 3e 16 57 f4 3d 0a 4f 01 3e 47 78 ef 3d
       0.12849522 0.11930673 0.12627807 0.11692863
000090 3c c4 00 3e 78 f1 ef 3d 01 f5 03 3e 55 d7 f4 3d
       0.12574857 0.117159784 0.1288643 0.11955134
0000a0 41 99 03 3e 8c f5 f4 3d 55 71 00 3e e4 73 f5 3d
       0.1285143 0.11960897 0.12543233 0.11984995
0000b0 b3 99 00 3e c8 b9 f4 3d a7 cc 01 3e 96 ce f4 3d
       0.12558632 0.119494975 0.12675725 0.11953466
0000c0 49 e1 03 3e 47 5b f4 3d c3 bb 04 3e 44 3e f4 3d
       0.12878908 0.11931472 0.1296225 0.11925939
0000d0 66 48 00 3e d0 12 f1 3d a8 44 fc 3d e2 b5 f1 3d
       0.12527618 0.11771166 0.12317783 0.118022695
0000e0 bc e7 02 3e cf 35 f4 3d 17 32 04 3e dd af f4 3d
       0.12783712 0.11924326 0.12909733 0.11947606
0000f0 56 d2 01 3e 91 91 f5 3d 28 36 02 3e 4b 5e f5 3d
       0.12677893 0.11990655 0.12715971 0.119808756
000100 30 b8 03 3e da 00 f5 3d c9 11 03 3e 31 83 f4 3d
       0.1286323 0.11963053 0.12799753 0.11939085
000110 56 95 03 3e a4 fb f4 3d 3b 01 02 3e c6 91 f0 3d
       0.12849936 0.11962059 0.12695782 0.11746554
000120 d3 e6 f7 3d 46 55 f1 3d c3 b6 01 3e df ae f4 3d
       0.12104573 0.11783843 0.12667374 0.119474165
000130 e8 02 04 3e 5a 48 f4 3d 4f df 02 3e c8 14 f5 3d
       0.12891734 0.119278625 0.12780498 0.11966854
000140 de 2f 03 3e 07 51 f5 3d b3 2b 03 3e 5c 31 f5 3d
       0.12811229 0.11978345 0.12809639 0.11972305
000150 b3 01 00 3e ee 3f f6 3d f7 c3 01 3e 79 2d f5 3d
       0.12500648 0.12023912 0.12672411 0.11971564
000160 03 9f 01 3e 30 0c f0 3d 32 6a fc 3d c6 0a f1 3d
       0.12658314 0.117210746 0.12324943 0.11769633
000170 68 6b 02 3e 9a 6f f4 3d 0d bc 02 3e d5 a1 f4 3d
       0.12736285 0.11935349 0.12767048 0.119449295
000180 0f 35 03 3e bd d9 f4 3d a0 25 04 3e 46 ca f4 3d
       0.12813209 0.11955593 0.12904978 0.11952643
000190 34 e6 03 3e 41 4c f4 3d 6a a1 01 3e c6 aa f4 3d
       0.12880784 0.11928607 0.12659231 0.11946635
0001a0 e3 d2 03 3e 8a 54 f5 3d 74 07 01 3e e1 c2 f1 3d
       0.12873416 0.11979015 0.126005 0.11804748
0001b0 7a 19 fd 3d 5e 7f f1 3d 14 5f 03 3e a7 eb f4 3d
       0.12358375 0.117918715 0.12829238 0.119590096
0001c0 50 9b 04 3e 81 fd f4 3d 73 82 04 3e c1 4c f4 3d
       0.12949872 0.119624145 0.12940387 0.11928702
0001d0 a6 18 04 3e 75 e0 f4 3d a2 76 04 3e 80 a1 f4 3d
       0.12900028 0.11956874 0.1293588 0.11944866
0001e0 14 66 03 3e 56 cc f4 3d f7 88 03 3e 32 91 f4 3d
       0.12831908 0.119530365 0.12845217 0.11941756
0001f0 43 a2 fe 3d 8a 54 f0 3d e9 f2 fa 3d 73 89 f0 3d
       0.12433293 0.117348745 0.12253363 0.11744966
000200 b8 f9 02 3e 92 8f f4 3d 05 72 04 3e 32 7f f4 3d
       0.12790573 0.11941446 0.1293412 0.11938323
000210 42 ea 04 3e 4c 3b f4 3d 84 be 03 3e 18 00 f5 3d
       0.12979987 0.119253725 0.12865645 0.119629085
000220 d7 69 02 3e 3c 4a f5 3d 0e b1 01 3e 8b b8 f5 3d
       0.12735687 0.1197705 0.12665197 0.119980894
000230 10 29 00 3e 22 af f5 3d ed a2 f8 3d 4b 54 f0 3d
       0.12515664 0.119962946 0.121404506 0.117348276
000240 62 8d ec 3d b1 a5 e2 3d b6 b8 ff 3d b3 ce ef 3d
       0.11550404 0.110667594 0.12486403 0.117093466
000250 aa dc 01 3e 29 b8 f0 3d fe cb 02 3e 39 30 f1 3d
       0.12681833 0.11753876 0.1277313 0.11776776
000260 96 bb 01 3e 56 8a f1 3d 8f 1a fd 3d a0 60 f1 3d
       0.12669215 0.117939636 0.12358581 0.11786008
000270 da a4 fe 3d b2 64 f3 3d a5 00 fb 3d df ba f1 3d
       0.12433787 0.118844405 0.12255982 0.11803221
000280 ba f5 e7 3d 1a 88 e2 3d 09 30 01 3e 1b 3d f0 3d
       0.113261655 0.110611156 0.1261598 0.11730405
000290 02 49 03 3e 17 6d f4 3d 2b b3 01 3e fc fd f1 3d
       0.12820819 0.1193487 0.12666003 0.11816022
0002a0 0d 30 ea 3d 0c f0 d7 3d e6 05 d9 3d 81 12 cb 3d
       0.11434946 0.10543832 0.10596828 0.09915639
0002b0 fd a4 eb 3d 8c 2e d8 3d 88 be 02 3e fa 4c f1 3d
       0.115060784 0.10555753 0.12767994 0.1178226
0002c0 f0 a5 02 3e df b4 f4 3d ca e0 ff 3d 44 e7 ef 3d
       0.12758613 0.11948561 0.12494047 0.11714032
0002d0 88 bb 03 3e 1f e1 f3 3d 47 e3 03 3e 16 e4 f5 3d
       0.12864506 0.11908173 0.12879668 0.120063946
0002e0 bd 04 01 3e 20 07 f1 3d 52 8e dd 3d a8 e7 cc 3d
       0.12599464 0.11768937 0.10818161 0.100051224
0002f0 dd 67 ca 3d 71 e0 bb 3d d9 ba de 3d 7b 64 cc 3d
       0.098830916 0.09173668 0.10875482 0.09980103
000300 f6 d4 01 3e 78 eb ef 3d eb 91 04 3e 5f 2a f5 3d
       0.12678894 0.11714834 0.12946288 0.11970972
000310 c1 65 04 3e ab 25 f4 3d b3 86 04 3e d1 2b f4 3d
       0.12929441 0.11921247 0.12942009 0.1192242
000320 34 7e 04 3e c7 53 f5 3d 43 c1 02 3e 88 f9 f1 3d
       0.12938768 0.1197887 0.12769036 0.118151724
000330 e3 61 e2 3d 8e 06 d3 3d c3 6c d1 3d e1 92 c5 3d
       0.11053827 0.103039846 0.10225823 0.096471556
000340 1c 31 e4 3d d3 ee d2 3d 46 18 03 3e 65 d5 f1 3d
       0.11142179 0.10299458 0.12802228 0.1180828
000350 a0 36 04 3e e1 60 f5 3d f6 4a 03 3e 2c 4d f4 3d
       0.12911463 0.11981369 0.12821564 0.11928782
000360 64 bf 01 3e 11 e0 f4 3d 04 8f 04 3e 01 54 f5 3d
       0.12670666 0.119568 0.12945181 0.11978913
000370 d9 af 04 3e 6b d0 f4 3d 6e 3a 00 3e 79 9b f0 3d
       0.12957706 0.11953815 0.12522289 0.11748404
000380 79 24 f6 3d bf 74 e6 3d 53 cf 01 3e ea 39 f0 3d
       0.12018675 0.11252736 0.12676744 0.11729796
000390 40 6c 04 3e 79 15 f5 3d 27 96 04 3e 59 a5 f5 3d
       0.12931919 0.11966986 0.12947904 0.11994428
0003a0 27 8f 03 3e 6d 20 f5 3d c9 dd ff 3d 1f 6d f5 3d
       0.12847577 0.11969075 0.12493474 0.11983704
0003b0 67 39 03 3e bb 8e f5 3d 0f 33 04 3e 11 b8 f5 3d
       0.12814866 0.11990114 0.12910102 0.119979985
0003c0 e3 9c 02 3e 43 a6 f5 3d b3 bf 03 3e 84 17 f4 3d
       0.1275516 0.119946025 0.12866096 0.11918548
0003d0 83 70 04 3e f3 78 f5 3d 03 c4 01 3e ff e5 f6 3d
       0.12933545 0.1198596 0.12672429 0.12055587
0003e0 10 4d 03 3e 6a 34 f6 3d a4 d3 02 3e 48 b8 f4 3d
       0.12822366 0.12021716 0.12776047 0.11949211
0003f0 5c c8 00 3e 0c 2d f5 3d 23 25 04 3e 47 91 f5 3d
       0.12576431 0.11971483 0.12904792 0.119906

backbone.0.weight f4 [16, 16]
000000 1f 35 13 be 6b d1 56 bc 49 a5 01 3d ff be 5f bd
       -0.14375733 -0.013111453 0.03165177 -0.054625507
000010 30 2b 5f 3e 42 52 be 3c 73 84 72 be 09 85 0c be
       0.21793818 0.023232583 -0.23683338 -0.13722624
000020 a6 26 9b bd 13 09 54 3e b1 78 b3 bc 43 d7 12 bd
       -0.07575731 0.20706587 -0.021908136 -0.03584982
000030 2e e0 08 bd 5e 8a b4 3e ee 8c b9 bb dc d8 49 bd
       -0.03341692 0.35261816 -0.005662552 -0.04927908
000040 55 00 48 3e 96 5b 02 be 90 42 b1 3d d6 53 5a 3e
       0.19531377 -0.1273025 0.08655274 0.21321043
000050 56 af 8d 3d 81 59 a2 bb 47 11 48 3e 7a 13 6f be
       0.06918208 -0.0049545174 0.19537841 -0.23347273
000060 e3 60 6f be 7f 73 5e be e1 c1 a2 3e 5d c0 cd bd
       -0.23376803 -0.21723746 0.31788543 -0.10046456
000070 20 b2 e8 3d e3 0b 86 be 92 30 d6 bd 5f fc dd bc
       0.113621 -0.26180944 -0.10458483 -0.027097879
000080 ce 50 92 3d 45 e1 8b 3e f2 c4 83 be a0 90 95 be
       0.071443185 0.27320305 -0.25736195 -0.29211903
000090 4b 57 42 be 3d c8 6e 3e 1c cb 89 be a7 91 08 3e
       -0.18978612 0.23318572 -0.26912773 0.13336812
0000a0 4a f7 8c 3e 05 a1 81 be 88 c5 f6 3d ae 46 72 3e
       0.27532417 -0.2531816 0.12049395 0.23659775
0000b0 dc 84 b6 be cf 3c 3a be 86 4b 74 be 5d ee 13 be
       -0.3564824 -0.18187259 -0.23856935 -0.14446397
0000c0 d1 30 6a bc 45 01 5b 3e 41 e6 8b 3c 06 a7 e9 bc
       -0.014293865 0.21387203 0.017077567 -0.028522026
0000d0 d4 70 60 be ee b8 3f 3e c9 9e 1b be 9b 99 f4 bc
       -0.2191804 0.18722889 -0.1519729 -0.029858401
0000e0 2f 21 23 be 20 b2 99 3e fc 2e 6d be 02 6d 52 be
       -0.15930627 0.3001871 -0.23162454 -0.20549396
0000f0 c2 48 ed bd e0 75 83 3e 07 37 1f 3e ae 2b 49 3e
       -0.11586143 0.2567587 0.15548335 0.19645569
000100 2b a5 b9 bb c3 3c 0c be 0c 91 8a be b3 f6 2e 3d
       -0.0056654415 -0.13695054 -0.27063787 0.04271574
000110 5c ea 43 3e 38 a7 8c be 61 78 61 bd 48 a6 a9 3c
       0.1913237 -0.27471328 -0.055046443 0.020709172
000120 7f 6c 1a be 94 eb 9c 3e d0 04 50 be 51 c2 2a be
       -0.1508045 0.30648482 -0.20314336 -0.16675688
000130 68 95 86 be f4 be 01 3e 2c 24 ff bd 89 c4 d7 3d
       -0.26285863 0.12670499 -0.12458071 0.10535533
000140 b9 ec 81 3e c8 46 2d 3d f8 a4 ed 3d 2e 97 9b bd
       0.25375918 0.04230383 0.11603731 -0.075971946
000150 43 43 57 3e 60 e2 88 be fe 33 b5 bc 4a b6 d2 bb
       0.21021752 -0.2673521 -0.022119518 -0.006430422
000160 b3 cc 57 bd 18 22 02 bd bb 1c 36 be 09 b3 89 be
       -0.05268545 -0.031770796 -0.17784397 -0.26894405
000170 53 31 08 be 09 e2 e6 3d 99 31 5e bd ad f9 11 be
       -0.13300066 0.112735815 -0.05424652 -0.142554
000180 87 cb a7 3e c8 3d 4f 3c d8 80 1e 3e 98 6f 7a be
       0.32772467 0.012649007 0.15478837 -0.24456632
000190 c1 03 86 be 24 0c 25 3e e3 d7 0e 3e 5f 32 4c 3d
       -0.2617474 0.16117913 0.13949542 0.049852725
0001a0 bf 3c b8 3e 32 1c 7e 3c 75 8e b7 3e ed 26 68 bc
       0.35983846 0.015509652 0.35850874 -0.014169437
0001b0 14 e3 c3 3c 90 f4 44 be c0 92 da bd 33 f9 f3 3d
       0.02391199 -0.19233918 -0.106725216 0.11912765
0001c0 ec 59 34 3e 47 de 8d 3e 21 8f a7 be 0d 01 5d be
       0.17612427 0.27708647 -0.32726386 -0.21582432
0001d0 27 33 82 be eb f7 11 3d e2 d2 a2 be 8a a5 2f be
       -0.2542965 0.035636824 -0.31801516 -0.17152992
0001e0 69 a6 2b 3e 2d 86 21 3e 90 2a 98 3e 57 d7 7f 3e
       0.16762699 0.1577384 0.29719973 0.2498449
0001f0 71 3b 14 3c 7a d0 02 3d 7b 29 89 3d 07 37 3d 3d
       0.009047375 0.0319371 0.06697365 0.046195056
000200 b9 52 24 3d d0 d5 b4 3d 91 7f ae bc d1 8f 91 be
       0.040117953 0.08829844 -0.021301063 -0.28430036
000210 54 96 3d bb cb ce d7 bd 7a b4 32 be 7e 69 6d be
       -0.0028928714 -0.105374895 -0.17451659 -0.23184773
000220 e1 4b 06 bd 93 f2 a4 be fc 63 53 3d ef b7 88 3e
       -0.032787208 -0.3221632 0.051609024 0.2670283
000230 7b 39 e8 3d 6f 78 9e be 01 e7 8b be cd 6d 10 3d
       0.113390885 -0.3095126 -0.2732468 0.035260964
000240 9b 00 8c 3e f2 f4 ff b9 79 3f 68 be 2d 5c 99 3e
       0.27344212 -0.0004881989 -0.22680463 0.29953137
000250 d2 15 77 3e 2d 43 35 3d 32 20 18 be 5e 4d 57 be
       0.24129418 0.044253517 -0.14856032 -0.21025607
000260 3a a1 6f be 59 6c 83 3e 83 c6 77 be 51 bb 40 be
       -0.23401347 0.256686 -0.2419682 -0.18821456
000270 5d f9 26 3e cc 46 fd bd 23 0d 70 3d 72 fa b0 3e
       0.16306062 -0.12367019 0.05860628 0.34566075
000280 8c a8 d1 3d 4b e7 e5 3d 6a e9 ed 3b b7 b6 11 bc
       0.10237226 0.11225756 0.007260491 -0.00889366
000290 2b bd 02 3e 02 78 8b 3e 7d 45 ff bd 8f a6 0c be
       0.12767474 0.27239996 -0.12464426 -0.13735412
0002a0 8b 78 18 be fe a4 94 be b8 12 de 3d 79 f8 1b 3d
       -0.14889733 -0.2903213 0.10843414 0.03807876
0002b0 c8 e7 91 be 37 63 a2 be 7d f5 56 be 13 09 1d be
       -0.28497148 -0.3171632 -0.20992084 -0.15335493
0002c0 e9 51 93 3d e7 6d 44 bd 78 6c 71 3d 73 80 2a 3e
       0.071933575 -0.047956374 0.058941334 0.16650562
0002d0 1a a7 c6 bd 67 09 4a be 65 80 89 bd 5a 9a 92 bd
       -0.09699841 -0.19730149 -0.067139424 -0.071583465
0002e0 ff dc 8c 3d fe 26 3e 3e c5 07 6c be 6c 71 76 be
       0.06878089 0.18569562 -0.23049839 -0.24066705
0002f0 9e 23 d7 bc 40 9e 77 3d e1 be 8d 3e 11 50 4c 3d
       -0.0262621 0.060453653 0.27684692 0.049881045
000300 d8 5b 62 3e b6 df 83 3e dd 99 8a be 4d 65 81 be
       0.22105348 0.25756615 -0.27070513 -0.252726
000310 ba 43 2b 3c 88 9c 05 be 4c dc ed 3d 5d 01 e5 3d
       0.010453159 -0.13047993 0.11614284 0.11181901
000320 7a b0 3c bd dd 64 5f be 8b 85 ad 3e d2 9c b8 3e
       -0.04606674 -0.2181582 0.33890948 0.36057144
000330 71 45 5e be 16 17 73 bc 1b 2f bf bd 31 48 a3 be
       -0.21706177 -0.014837047 -0.093351565 -0.31891015
000340 c6 13 18 3e e6 94 63 3e d0 2e 1a be 0a c0 20 be
       0.14851293 0.22224769 -0.1505692 -0.15698257
000350 5f 78 aa be 1a dd b5 3e cd ca 45 be 72 41 7c 3e
       -0.3329496 0.3552025 -0.19315644 0.2463434
000360 ce 74 7e 3d d7 20 70 be 59 d4 be bd ec b2 81 bd
       0.062123112 -0.23450027 -0.09317846 -0.06332955
000370 3d af a7 be b6 d5 a7 be fc 67 dd bd 23 8e 04 be
       -0.32750884 -0.32780236 -0.10810849 -0.12944846
000380 fc 75 50 be 93 83 86 3e 0f ac 44 be a4 2b f8 3d
       -0.20357507 0.26272258 -0.1920626 0.12117699
000390 ca 1e 89 3e 83 71 f7 3d 07 33 1f be b6 f2 2c 3c
       0.26781303 0.120821975 -0.15546809 0.010555914
0003a0 f3 b1 6c bc 13 fa 59 3e 5e f5 98 be a0 e4 2c be
       -0.014446723 0.21286802 -0.298747 -0.16884089
0003b0 55 a2 82 3c ec f4 5a 3e a6 9b 7b 3e 84 dc 28 bd
       0.015946547 0.21382493 0.24571094 -0.041225925
0003c0 de fa 30 bc f2 78 29 3e 6a c5 4e 3d 75 40 b6 3c
       -0.010801999 0.16550043 0.050481237 0.022247532
0003d0 4c ec af be cf 0f ac 3e 66 0f a9 be 21 05 28 3d
       -0.34359968 0.3360581 -0.3301956 0.041020516
0003e0 05 e8 a2 3e d2 37 48 3c 39 90 a7 3e 88 f0 12 3e
       0.31817642 0.01222034 0.3272722 0.14349568
0003f0 0e 91 f9 3c 03 e8 6f be aa 55 56 be 30 a4 03 be
       0.030464675 -0.23428349 -0.20931116 -0.12855601

backbone.1.weight f4 [16, 16]
000000 1c d0 69 be 52 45 36 3e bb 8f a3 3e 7b 12 15 be
       -0.22833294 0.17799881 0.31945595 -0.14557831
000010 8c ae 4e bd 7f 69 30 3e 26 12 67 ba d5 c2 01 3d
       -0.05045943 0.17227744 -0.0008814655 0.031679947
000020 34 5a 9f 3e c7 af 43 3e f9 f0 40 3e 8a 3c 0e bd
       0.31123507 0.19110022 0.18841924 -0.034725703
000030 52 14 cf bd 44 44 b3 3e a1 8a 81 bd d6 d4 4a 3d
       -0.10111298 0.3501302 -0.063252695 0.049519382
000040 76 68 82 3e cc fb 38 3e 3d 2d 84 be db 69 ad bd
       0.25470322 0.18064803 -0.25815764 -0.08467456
000050 81 84 72 3e 05 5b e1 bd cc 76 e0 3b e6 2e f9 3d
       0.23683359 -0.11003689 0.006850099 0.12167148
000060 7f 80 3f be 8f 9e 75 be 19 f0 c1 3d 9e 91 66 3e
       -0.18701361 -0.23986267 0.09469623 0.22516486
000070 a7 0d d4 3d c0 c6 0d be 29 de 42 bd 03 b5 30 3d
       0.103541665 -0.13845348 -0.04757515 0.043141376
000080 33 69 14 3e 68 1e f6 bc a1 32 13 3e 68 bf 9d bd
       0.14493255 -0.030043796 0.14374782 -0.077025235
000090 e8 91 89 3d 5d e5 12 be ac d6 3b bc c7 36 a1 3e
       0.067172825 -0.14345308 -0.011464756 0.31487104
0000a0 e2 57 40 3e 99 06 14 be cd de 4f 3d 7a 5e 6c be
       0.18783525 -0.14455642 0.05074959 -0.23082915
0000b0 a6 33 55 3e 01 0e b6 3e f4 29 24 bc 70 f2 e2 3d
       0.20820484 0.3555756 -0.010019768 0.110813975
0000c0 89 05 82 3d 7f fd 2a bd 48 d7 72 3d ea 5b 27 3d
       0.06348712 -0.04174566 0.05928734 0.04085914
0000d0 0f b5 8b 3d 84 88 25 be 5b ff 9f 3e 6c e4 6d 3e
       0.068216436 -0.16165358 0.31249508 0.23231667
0000e0 df d5 b5 3d a8 e6 86 bd 29 75 5f bd 3d 31 34 be
       0.08878683 -0.06586963 -0.054555092 -0.17596908
0000f0 51 cb d6 3c e3 f5 16 3d ab 1e 85 be a3 fb a9 bd
       0.026219996 0.03685559 -0.2599996 -0.08299949
000100 7b ea ee bd fc 59 70 be 51 57 e6 3d ad 00 8a 3e
       -0.11665817 -0.23471826 0.11247123 0.2695364
000110 2f 3c 34 3d 03 fd 4a bd b0 5a 93 bd 99 25 a5 3d
       0.044002708 -0.049557697 -0.07195032 0.08063812
000120 2b b9 a5 bc de f8 2f 3e f1 a0 52 be 7c 5e ca 3c
       -0.020229897 0.17184779 -0.20569207 0.024703257
000130 7d 88 b1 3d e2 9b 81 be c1 65 76 3e 17 11 5b bd
       0.08668611 -0.25314242 0.24062254 -0.053483095
000140 7d 20 75 be fb 59 1b be e6 e1 aa 3e 3b ec 34 3e
       -0.23938175 -0.15171044 0.33375472 0.1766824
000150 43 d8 19 be 0a d7 69 3d 29 81 89 3e 3c 77 d0 3d
       -0.15023904 0.057089843 0.26856354 0.10178992
000160 e9 98 05 be 32 c2 54 bc 7d eb 0b 3e b2 ea 8f 3a
       -0.13046612 -0.012985753 0.1366405 0.0010979979
000170 c3 84 6e 3e 1c c2 23 3d b1 3b d6 bd 33 bc b5 3d
       0.23292832 0.03998004 -0.10460604 0.08873787
000180 1c 29 b8 bd d3 cb 06 be af 33 46 3e f1 44 91 bd
       -0.08992216 -0.1316369 0.19355653 -0.07093228
000190 fb 8e 3e be 95 95 83 be e0 be 9f 3e 72 9a b0 3e
       -0.1860923 -0.2570006 0.31200314 0.34492832
0001a0 92 0f 81 3c 94 41 9c 3d 99 27 ff bd c5 18 50 bd
       0.015754495 0.076296955 -0.124587245 -0.050804872
0001b0 c1 e3 7f 3e f1 89 52 3e a6 7f 83 be 02 30 a0 3e
       0.24989225 0.20560433 -0.25683326 0.31286627
0001c0 65 3b 16 3d 58 71 d4 3d be 64 70 3e 28 42 59 be
       0.036677737 0.10373181 0.2347593 -0.21216643
0001d0 70 e5 96 bd cd 1b 24 be 75 1d fa bd 2b 70 53 3e
       -0.073679805 -0.1602623 -0.1221265 0.20648257
0001e0 ec f3 9a 3e 00 e3 03 3e 04 7f a4 3e 36 8c 7f be
       0.30264223 0.12879562 0.32128155 -0.2495583
0001f0 f7 a1 92 3d 6a cd e1 bd 23 17 03 3e 9a 71 8a 3e
       0.071597986 -0.11025508 0.12801795 0.27039796
000200 bb a2 b5 bc d9 dd 07 3d 7c 04 81 3e 42 aa e1 bc
       -0.022172322 0.033170555 0.25198734 -0.027547006
000210 2a 8a 85 be 20 e5 a4 3d cb 5b 83 3d b3 00 52 3e
       -0.26081973 0.080515146 0.064139925 0.20508079
000220 8f 41 ae bc 90 8b 56 bd 53 02 70 3e 7e 15 25 3e
       -0.021271495 -0.05237919 0.23438387 0.1612148
000230 74 20 09 3e 76 87 2b bd 81 20 a9 bd 9c a4 e2 3d
       0.13391286 -0.041877232 -0.08258153 0.11066553
000240 39 67 39 3e 20 74 e3 3c 60 6d a4 be ad b7 b0 3d
       0.18105783 0.027765334 -0.32114697 0.086287834
000250 c5 62 f0 bd 7e 11 f0 bd a4 16 b9 3c 88 98 1e be
       -0.11737589 -0.11722086 0.022593804 -0.15487874
000260 b7 83 90 be e0 41 3a 3e c8 96 1b 3e ec a6 29 bd
       -0.2822549 0.18189192 0.15194237 -0.041418955
000270 26 c0 95 3e 18 fb ce bc e9 43 6d 3d 04 c2 a4 bd
       0.2924816 -0.025266215 0.057926092 -0.08044818
000280 d0 b3 a4 bc dc e5 0b 3e f4 8a a1 be de 28 88 be
       -0.020105273 0.13661903 -0.31551325 -0.2659368
000290 10 0f c5 3c db c7 f7 bc 36 96 62 3e af 3d 5b 3d
       0.024055034 -0.030246666 0.22127613 0.053525623
0002a0 d2 2c 7c be 19 5f 67 bd 6f d0 60 3e e9 73 d5 bd
       -0.24626473 -0.056487177 0.21954511 -0.10422499
0002b0 80 28 49 3e fb e3 93 be 96 6e f4 3d f8 f3 39 3b
       0.19644356 -0.28884873 0.11935155 0.0028374176
0002c0 09 28 98 3e 42 3e f8 3c 7d 76 a8 3d ec 00 fc 3d
       0.29718044 0.030303124 0.08225725 0.12304863
0002d0 48 26 b6 3d 9a 53 9f 3e a0 45 60 bd bd 7b 39 bd
       0.0889402 0.3111847 -0.0547539 -0.04528402
0002e0 ee 3e 8d bd 98 92 18 bd 04 51 42 3c 26 5a a6 3e
       -0.068967685 -0.037249178 0.011860136 0.32490653
0002f0 a2 72 7c bd 57 62 83 bd ea 92 86 3e f5 6e 01 3d
       -0.06163276 -0.06415241 0.26283962 0.031599957
000300 94 2f aa 3d a9 57 7e be 85 58 81 be 72 7e af 3e
       0.08309856 -0.24838127 -0.25262848 0.34276158
000310 15 06 93 3e aa 03 57 3c 51 6c 32 be 84 da cb bd
       0.28715578 0.013123432 -0.17424132 -0.09953788
000320 05 ac 87 3d 23 bd f6 3d 00 95 e8 3d bd 65 9d bc
       0.06624607 0.12047794 0.113565445 -0.019213552
000330 d0 65 9b 3e 41 77 94 bd 00 a0 46 3e a1 ae e6 3d
       0.30351114 -0.072493084 0.19396973 0.112637766
000340 f9 97 5f 3e 0a 6a 95 be 6b de 0d bd 5a 3c 56 3e
       0.21835317 -0.29182464 -0.034635942 0.2092146
000350 45 2e 8d 3e 5f 24 a1 3e 82 b7 07 be b5 ed bc 3c
       0.27574363 0.3147306 -0.13253596 0.023062566
000360 0a 76 30 3e bf 8d 19 3d 4f 63 65 3b fc c3 9d 3e
       0.17232528 0.037488695 0.003500182 0.30813587
000370 72 33 51 3e 46 9d 74 be 3d 4f e5 bc ab 5f 60 be
       0.20429781 -0.2388812 -0.027991885 -0.21911494
000380 3b 45 87 3e d9 27 4e be 67 d8 70 3e e7 cc 26 3e
       0.26420006 -0.20132388 0.23520051 0.16289102
000390 bf d2 ff 3c af 55 1b be dc ad 22 3e 2f ec d6 bd
       0.031228421 -0.15169404 0.15886635 -0.10494267
0003a0 b7 41 9d bb 16 08 a4 bd fc 17 8e bd ad 61 7f be
       -0.0047990936 -0.08009355 -0.069381684 -0.24939604
0003b0 d5 7f b6 bc 9d 88 a0 3d 0f 53 02 bd c5 e7 5f bd
       -0.022277752 0.07838557 -0.031817492 -0.054664392
0003c0 6f 6d 25 3d e2 3d 85 bd 6c 19 a5 3e ba 2a e6 3d
       0.040387567 -0.06505944 0.32245958 0.11238618
0003d0 84 9e 1c 3e ba b2 25 be e6 84 78 3e 11 09 48 bd
       0.15294844 -0.1618146 0.24269447 -0.04883677
0003e0 88 06 15 3e d5 f0 83 3d 48 06 ca 3d a0 0a 19 be
       0.14553273 0.064424194 0.09864479 -0.1494546
0003f0 44 be 01 3e 7b 42 a3 3e d2 8f 7c be 08 44 9d 3d
       0.12670237 0.31886658 -0.24664238 0.076789916

backbone.2.weight f4 [1, 16]
000000 65 17 8c 3e 5a 34 ad bd 65 66 76 3e 24 99 ab 3e
       0.273616 -0.08457251 0.24062498 0.33515275
000010 67 19 97 be 1b aa 63 3e c0 0f a6 3e 01 cd 86 3e
       -0.29511568 0.22232859 0.3243389 0.2632828
000020 42 4a f7 3d 89 d8 1f be 3c af 25 be a4 ff a9 bd
       0.120747104 -0.15609945 -0.16180128 -0.08300713
000030 b8 e4 8f be 12 83 81 be c4 10 96 3e cb 44 95 3e
       -0.28104186 -0.2529531 0.29309666 0.29154047
