output/44/best.pth (torch, 714225 bytes, 4 tensors)

encoder.embeddings f4 [88656, 2]
00000000: 5912 e93d 5ecf e73d 0e30 f93d d5fa f43d
00000010: db51 f93d 1dc1 f63d 3fd1 fc3d 4edb f93d
00000020: 3fc7 fd3d 13e4 f73d 1b75 fa3d 6d8a f93d
00000030: 3698 fb3d d5f3 f73d d2e8 f83d 8c32 f53d
00000040: 64b9 e83d bba6 e63d ffd2 f63d 7af9 f43d
00000050: 9fd2 fd3d dd83 f93d 3dbe ff3d 015d fa3d
00000060: 08f2 ff3d 0a55 fc3d 00ac 003e bb60 ff3d
00000070: 3e08 003e 7a48 fe3d 6873 003e 9ad1 fb3d
00000080: ed69 ff3d f515 fa3d a1d2 f83d c4fe f43d
00000090: 91c9 fc3d c36f f63d 701e fe3d 9046 f83d
000000a0: 6597 fc3d c4db f63d d091 fc3d 23a1 f73d
000000b0: f70c fe3d b985 fa3d b3d8 fd3d da6a fa3d
000000c0: 67aa fb3d f592 f73d 99d1 fc3d 8aab f83d
000000d0: 71d6 f73d 6f9e f63d 4ecd f73d aea9 f63d
000000e0: 6a1d fb3d c199 f63d 0640 f73d c448 f03d
000000f0: bd04 f73d 9729 f13d 70e3 f73d 7bc7 f13d
00000100: 164c f73d 5fac f33d cd45 f63d fbab f13d
00000110: cb6c fb3d e300 f63d b3d7 f83d 3d97 f63d
00000120: 85cd fa3d b7e1 f53d 8df3 fc3d 9201 f73d
00000130: a227 f93d 25f1 f33d 17bc fa3d 71ef f43d
00000140: f8fc fc3d 48c9 f63d 7ed9 fa3d 2d76 f83d
00000150: b161 f93d 882d f63d 97ea fc3d 0eb9 f73d
00000160: 16b5 fb3d 9fd6 f73d 79e8 fb3d caf1 f53d
00000170: c3d0 fa3d cde6 f53d 01a0 f23d 1e1f f13d
00000180: 890f f53d 721d f23d 8ac2 f73d c770 f23d
00000190: ce71 f83d 282d f33d 260b f73d b88d f23d
000001a0: 3b20 fd3d 0cde f53d 4b23 fc3d 6be3 f53d
000001b0: 8cf2 f83d 93ad f63d cf4c fa3d 2f0e f93d
000001c0: 7cb7 f93d d714 f73d 0d05 fb3d e8f8 f73d
000001d0: f91f fd3d 411d f83d 9568 f83d f1b8 f93d
000001e0: 04b7 fb3d 02a1 f93d 9f08 ff3d 94c9 f83d
000001f0: 90ed fc3d 2a22 f73d bcd9 f53d 9598 f53d
00000200: 233d fa3d 9e81 fa3d e0f8 fd3d 277c fa3d
00000210: 8f67 ff3d 4552 fa3d fd79 fd3d 861d fb3d
00000220: 4e42 fd3d 7dd3 fb3d 36f2 fd3d 4dc4 fb3d
00000230: 7df8 fd3d 40f4 f93d a505 fa3d 3514 f53d
00000240: e0fc e93d 927d e83d ed74 f83d 5db3 f53d
00000250: 2277 fc3d 877d f63d 1ce7 fc3d 9cd7 f63d
00000260: 2d83 fc3d f7ba f63d fc12 fa3d 253f f63d
00000270: b02c fa3d 31e9 f73d 60db f73d a9f1 f43d
00000280: 6d86 e93d 5fce e73d f225 f73d 128e f53d
00000290: c1fa fc3d 3964 fa3d c8a8 ff3d 4f53 fb3d
000002a0: d679 fe3d 4519 fd3d 81a8 013e 8c26 fe3d
000002b0: e49e fe3d 5141 fe3d ca47 fe3d aed2 fc3d
000002c0: f399 fe3d d9a8 fa3d ee02 f93d 9717 f63d
000002d0: 37de fc3d d4cd f93d 18c7 fd3d 3b1c fa3d
000002e0: ea1d fd3d 0eef f83d 97e1 fc3d 584f fa3d
000002f0: b50b ff3d f35d fc3d 9b92 fd3d 8b1d fc3d
00000300: 41cc fc3d 154e fa3d 76c4 fe3d 6bac fa3d
00000310: c230 fd3d 4c85 fa3d a729 f83d fe22 f43d
00000320: 6c75 d33d 876f d03d bfb9 b03d 0ade af3d
00000330: 113f b13d b005 b13d e947 b23d a0d7 b23d
00000340: c069 b23d 2e23 b23d a74d b13d 2783 b03d
00000350: ed53 d43d 6b39 d13d 1384 f63d 0929 f33d
00000360: f831 ee3d 4232 ec3d 242c ab3d 1f77 aa3d
00000370: b4df 743d 19aa 773d 6bd9 793d fd30 7c3d
00000380: d7f2 7b3d d3ce 7f3d 5545 7c3d 6fc7 803d
00000390: 6297 773d 3eab 7b3d c8b9 a93d f9c9 a83d
000003a0: 2934 ed3d f05f ea3d 4671 f03d 2256 ee3d
000003b0: 1d7a b73d ec2c b63d 0fd6 863d 17f6 873d
000003c0: 6212 903d d253 903d b1c9 a23d 6139 a33d
000003d0: cb93 9e3d 5baf a03d e13f 8c3d 0976 8e3d
000003e0: 8ff0 b53d a230 b63d 8f44 ef3d 8630 ed3d
000003f0: 104e ee3d d9f3 ea3d 925a a83d 400f a83d
0.11380453 0.11318849 0.12167369 0.11961905 0.12173816 0.12048552 0.12344598 0.12200032
0.12391519 0.121040486 0.12229367 0.12184606 0.12284891 0.12107054 0.12153782 0.11972532
0.113634855 0.1126227 0.12051963 0.119616464 0.123936884 0.12183354 0.12487457 0.1222477
0.12497336 0.123209074 0.12565613 0.12469622 0.12503144 0.124161676 0.12544024 0.12295838
0.124713756 0.12211219 0.12149549 0.11962655 0.12343133 0.120330356 0.12408149 0.12122834
0.12333564 0.12053636 0.12332499 0.12091281 0.124048166 0.12232537 0.12394848 0.122274116
0.12288361 0.12088577 0.12344665 0.121420935 0.12101448 0.120419376 0.12099706 0.120440826
0.1226147 0.12041045 0.120727584 0.11732629 0.12061451 0.11775511 0.12103927 0.11805626
0.12075059 0.118981116 0.12025032 0.11800381 0.1227661 0.12011888 0.12150516 0.12040565
0.12246231 0.12005942 0.12351141 0.120608464 0.121657625 0.11911229 0.122429065 0.11959732
0.123529375 0.1205011 0.122485146 0.12131915 0.12176836 0.12020403 0.12349432 0.12095843
0.12290399 0.121014826 0.123002 0.12009008 0.122468494 0.120069124 0.118469246 0.11773513
0.11965854 0.118220225 0.12097652 0.11837917 0.121310815 0.11873847 0.12062673 0.11843437
0.12359663 0.12005243 0.12311419 0.12006267 0.12155637 0.120448254 0.12221681 0.121609084
0.121932 0.12064522 0.12256823 0.12108022 0.12359614 0.12114955 0.121293224 0.12193478
0.12290767 0.12188913 0.12452816 0.12147823 0.12349999 0.12067063 0.1200442 0.11991993
0.12218692 0.12231754 0.12400985 0.122307114 0.12470924 0.12222723 0.12376783 0.122614905
0.12366162 0.122961976 0.12399714 0.12293301 0.12400911 0.1220479 0.12208108 0.11966745
0.11425185 0.11352076 0.12131677 0.119971015 0.1232741 0.12035661 0.12348768 0.12052843
0.12329707 0.120473795 0.12210652 0.120237626 0.12215555 0.121050246 0.12102389 0.119601555
0.11402593 0.11318659 0.12067784 0.119899884 0.12352515 0.12226147 0.12483364 0.12271749
0.12425582 0.123583354 0.12661935 0.12409696 0.1243265 0.12414802 0.124160364 0.123448715
0.12431707 0.122392364 0.12158762 0.12016218 0.123470716 0.12197462 0.1239149 0.12212416
0.12359221 0.12154971 0.12347715 0.12222165 0.12453405 0.12322607 0.123814784 0.123103224
0.12343646 0.12221924 0.12439816 0.12239917 0.123628154 0.122324556 0.121173196 0.11920737
0.10325131 0.10177522 0.08629178 0.085872725 0.08654607 0.08643663 0.08705122 0.087325335
0.087115765 0.08698116 0.08657389 0.08618765 0.1036757 0.1021603 0.1203691 0.11873061
0.116306245 0.115330234 0.083580285 0.08323502 0.059783652 0.060464952 0.06099836 0.061570156
0.061510887 0.062453102 0.061589558 0.06288039 0.060447104 0.061442606 0.08287388 0.08241648
0.115822144 0.1144408 0.11740355 0.11637522 0.08958838 0.08895287 0.06583797 0.06638735
0.07034756 0.070472375 0.07948626 0.079699285 0.07743033 0.078459464 0.068481214 0.06956107
0.088837735 0.08895995 0.116829984 0.11581521 0.11635983 0.114722915 0.082204 0.08206034

backbone.0.weight f4 [16, 16]
00000000: edfd 7fbe 9252 dcbd 93d4 25be d134 ae3d
00000010: 2ee6 b9bd 4f8c 173e d02c c3bd 1437 65bc
00000020: 9049 92be 1349 9f3c 3f91 613e a143 e63c
00000030: ee93 32be c7f2 f8bd 666c 583e fa2c 943e
00000040: b392 9b3e 21d2 a03e f249 ff3b abbc 8d3e
00000050: a9e8 823e 0e54 913d 3c59 9f3e 8425 fdbc
00000060: e5dd 4b3c 2575 083e 8235 793c 6782 ae3d
00000070: 2e44 d3bd def0 903e 24e4 97bd 5985 513d
00000080: cc09 b9bd 5770 8f3e bb66 dcbd cba4 bb3d
00000090: be7c c4bd a8d8 8d3e f9a2 cabd 7556 393e
000000a0: d46e 153e a9ea 6c3c 324f 8abe 16cb debd
000000b0: bc65 253e f278 873e 6ee5 acbe 7ce0 903d
000000c0: 8268 0d3e ca6b 883d 1135 e73c c945 713e
000000d0: caf0 22be eca1 963d ae7a 77be 7fb0 823d
000000e0: e1fb 15bd c345 b53c aceb 2b3e 4017 2bbe
000000f0: 076f 8abd ea24 acbe 2cf5 363e 4cd8 26be
00000100: 9c9a cb3c 3d22 f03d 44cd 443e 5472 51bd
00000110: 4d6c 153e cd15 1c3c ce11 523d 7820 54be
00000120: 36b6 6abe efc8 833e e26d 82bd aef7 343e
00000130: 2db6 4fbe 4dae 613e 9921 55be 3615 9cbd
00000140: b690 91bd a6c1 0dbe a44a e4bd a4f7 cd3d
00000150: e309 0c3c e1ba d0bd 9755 11be c08b 4f3c
00000160: 52b2 1b3e bba3 4c3e c962 debc 9c15 783e
00000170: e746 93bd 9ffe 7f3e f3ab 47be 107b 703d
00000180: c1ca a63d eaf1 413e 415a 123e f181 3ebe
00000190: d4e7 8ebd 9a68 033e 2c08 813d f86f debd
000001a0: 096a a2be 7378 83be cf1a e6bd 6513 0ebe
000001b0: 2f6d 97be 26e3 babd 0f39 6abd 4bac 58bc
000001c0: 063a 6dbe 6147 703e f2f2 82be 6d41 f03d
000001d0: 8184 b2bc 92e0 093d 8168 25bd 3a37 9cbe
000001e0: 4190 2abe 7a66 a1bd 8afe bf3d 31e4 d4bd
000001f0: f944 a9be f744 90bc 0f65 113e f435 94be
00000200: 662a 213d 8a28 533e 7ece a0bd 6361 8a3e
00000210: 7338 563e 3dce a23e c459 b43d 4c1f 813e
00000220: d539 af3e cc04 983e 7735 83be 0597 713e
00000230: 86f2 a0be 9109 b7bd 2858 a3bd e1e3 a63e
00000240: b38d 3e3e cc3d cc3d 06be 0f3e 31c9 323e
00000250: fead 4f3e b24d 333d 131c 173e 8761 11be
00000260: 71a1 ebbd 1214 473e 4964 3ebe b4a9 68be
00000270: aded 8bbe 4436 143e 3384 77be 74fb 0cbe
00000280: aeeb 3a3e 4e65 f03d f241 d2bd 645c 8e3d
00000290: 7034 15be 5512 503e 4c18 203e 2e52 833e
000002a0: 8e22 22be f5d0 83be a8a7 74be 53ac 913e
000002b0: c329 953e 5f4e d73d 0cec 56be 997a 213e
000002c0: e46a aa3e f25f 8b3e bf2c 00be 76f7 873d
000002d0: cf4a a53e 96ce fd3c d243 e4bc c51d f0bd
000002e0: fe2b 303e fdcc 923e c6cf 483d 8e62 633d
000002f0: fc3b 6a39 beb9 00be 711b acbe 2ce9 7d3d
00000300: 2fb5 e6bd 6765 12be 55e0 403e 50c8 41be
00000310: 5ecc 35be bb31 b6bd 028f 20bd bb23 0bbe
00000320: 6349 acbe 3c98 363e 3f8c a23e 872c d13d
00000330: 6860 33be 2a53 a1bd a6a4 e63d b64f 283e
00000340: 2fa4 1a3d 1380 b93d 26b6 bb3d b865 f13c
00000350: 98fb 7c3e 73e7 e43b cf3c 2ebe c6c9 463d
00000360: 7af8 03be 2054 26be 0391 31be 921c ae3d
00000370: 3ad0 1b3e 17d4 333d 4d4c d4bc ace5 82be
00000380: 3437 c23d a92b 393c 22c2 0fbe 41e1 73bd
00000390: e075 88bc e1e4 25bd 526c b5bd 0275 66bc
000003a0: 7fa0 a3be 4829 403e 7211 403d d4cd 1dbe
000003b0: f40f 80be b0fc 933d cf41 383e 80b3 8d3d
000003c0: b10f ec3d d7f3 a43d 6b8c 8abe fc4f 73bd
000003d0: f28c b43d e0f7 2d3d 8e18 4ebe 4d5c 823e
000003e0: 9383 953e cd1b 36bd 9338 83be 2fc2 a83e
000003f0: 498f a63d 7221 ab3e 82ce 74be f5ae dd3d
-0.24999209 -0.107579365 -0.16194372 0.08506168 -0.090771064 0.14799617 -0.09530032 -0.013990182
-0.2857175 0.019444024 0.22028063 0.02810842 -0.17439243 -0.12155681 0.211351 0.28940564
0.3038536 0.31410316 0.0077907974 0.27683005 0.2556813 0.0709611 0.31122768 -0.030901678
0.0124430405 0.13325937 0.015210511 0.08520966 -0.103157386 0.28308767 -0.07416561 0.05115256
-0.09035072 0.28015396 -0.10761782 0.09162291 -0.09594105 0.27704358 -0.09894366 0.18099387
0.14593059 0.014460244 -0.27013546 -0.10878579 0.1615209 0.2645946 -0.3376879 0.07074067
0.13809398 0.06661184 0.028223546 0.23561777 -0.15912166 0.07355103 -0.24167892 0.0638132
-0.036617164 0.022127992 0.1678912 -0.16708088 -0.06759458 -0.33621913 0.17866963 -0.16293448
0.024853997 0.117252804 0.19218928 -0.051134422 0.14592095 0.009526682 0.05128651 -0.20715511
-0.2292107 0.25739238 -0.06368615 0.17672607 -0.20284338 0.22039147 -0.20813598 -0.07621233
-0.071076795 -0.13843402 -0.11147049 0.10056999 0.008547279 -0.10191894 -0.14192806 0.012667596
0.15204743 0.19984333 -0.027146714 0.24226993 -0.07191258 0.24999474 -0.19499187 0.05871111
0.08144141 0.18939939 0.14292242 -0.18604256 -0.069778115 0.12832871 0.06300387 -0.108612
-0.31721523 -0.25677833 -0.11235582 -0.13874586 -0.29575488 -0.091253564 -0.05718332 -0.013224672
-0.23166665 0.23464729 -0.25575978 0.11731229 -0.021791698 0.033661433 -0.040382866 -0.30510885
-0.16656591 -0.07880874 0.09374721 -0.103950866 -0.33060434 -0.01761101 0.14198707 -0.28947413
0.039347075 0.20620933 -0.07851885 0.27027425 0.20919971 0.31797972 0.08806184 0.2521919
0.3422381 0.2969116 -0.25626728 0.23592766 -0.3143503 -0.089373715 -0.07975799 0.32595733
0.18608741 0.09972724 0.14037332 0.17459561 0.20281217 0.043775268 0.14756803 -0.1419736
-0.11505402 0.1944125 -0.18592943 -0.22720987 -0.2732977 0.14473826 -0.24171524 -0.13767797
0.18253967 0.11738072 -0.10266484 0.06951216 -0.14570785 0.20319493 0.15634269 0.25648636
-0.15833494 -0.2574536 -0.23892081 0.28451785 0.29133424 0.10512995 -0.20988482 0.15769424
0.33284676 0.27221638 -0.1251707 0.06638996 0.32283637 0.030982297 -0.02786437 -0.11724428
0.17204282 0.2867202 0.049026273 0.05551391 0.00022338325 -0.12570855 -0.33614686 0.06198995
-0.11265027 -0.14296494 0.18835576 -0.1892407 -0.17753741 -0.08896204 -0.039198883 -0.13587849
-0.3364974 0.1783151 0.31747624 0.10213571 -0.17517245 -0.078771904 0.11261873 0.16436657
0.037754234 0.09057631 0.091656014 0.029467449 0.2470535 0.0069855987 -0.17015384 0.04853227
-0.12887755 -0.16243029 -0.17340474 0.08501543 0.15216151 0.043903437 -0.02591529 -0.2556585
0.094831854 0.011301913 -0.140389 -0.05954099 -0.01665777 -0.04050148 -0.08858551 -0.014065983
-0.31958386 0.18765748 0.046891637 -0.15410548 -0.2501217 0.07225931 0.17993854 0.069190025
0.115264304 0.08054321 -0.27060255 -0.05940245 0.08815946 0.04247272 -0.20126554 0.25461045
0.29201946 -0.044460107 -0.256291 0.3296065 0.08132798 0.33423954 -0.23906901 0.10824386

backbone.1.weight f4 [16, 16]
00000000: 02c6 80be 224f a13e c7c7 b1bd 28e7 2d3e
00000010: 93c6 d33b f022 583e d24e 36be b679 88bd
00000020: de0f 9e3e 158b 693e e168 a23e a4b6 ad3e
00000030: b247 2ebd 604c d2bc 5dd3 0ebe c785 913e
00000040: 4849 873e 84d9 03be 4830 57be de9e 723e
00000050: 8ef2 513e 8a2a 953d abf7 6a3d 1f70 c93d
00000060: 9fed 8a3c 6f92 0abe 67e0 2fbd 992d 9cbd
00000070: 7bd3 183e c97d ecbd 11ea bebd 1f4e 043d
00000080: 03e2 f83d 7f23 493e 0cb6 80be d87c 0ebe
00000090: 0326 40bd 7f88 0dbe a054 4b3e 681d 3d3d
000000a0: f191 afbc 4344 8dbe ad2f 46be addc 5d3e
000000b0: bb79 c9bd 4e70 093e fc74 0abe f35f 80bd
000000c0: 85fd daba a964 b03e ba1d cabc 5df4 89be
000000d0: c26b 863c 632c ed3d b06c 4ebe 6a2a fd3c
000000e0: eff1 873e e849 363b 0247 6fbc 136c d53b
000000f0: a04b 8a3d f815 6bbd dac9 f83d 7d25 0b3e
00000100: 0996 a73c afdb f4bd 2c7a fcbd b3a7 3e3e
00000110: 9b2b a3bd bb2a b2bd 054d 2b3e 0724 993d
00000120: 0f23 dbbb e70e 073c 970b e4bd 7dea 3a3e
00000130: bcb3 d6bd db49 dabd 411f 7e3e e62a b4bb
00000140: e0e0 8dbd 089d 423e f0ac 573e 1884 21bd
00000150: 1aee 793d d5a8 f2bd 1514 083e 2630 013c
00000160: e93b b23e 9a8b aeb8 656e 0abe 9b21 0cbe
00000170: b33f 46be 085f ecbc 8406 843d 1502 eb3d
00000180: f19f a03e 821b 91be aa81 31bd 4550 4d3e
00000190: 160f 993d 0fb5 44bc e223 cd3d 16da f8bd
000001a0: bc15 8e3d cfb3 7a3e b68c 81be 1310 52bd
000001b0: b151 c13d a7e6 963d 1ad4 1c3d d0bf de3b
000001c0: b7c3 b3b7 5566 913e 0ca2 083d 21a5 37be
000001d0: c73b c6bd a2ac 4d3e 0bac 53be 4286 063d
000001e0: 2de3 783e ca8e db3c 2fb1 a23c 0664 3a3e
000001f0: 321a af3d 0bea 2c3e 16b4 82be b233 463e
00000200: 1d7d 91be 9caf 39bd 6423 1b3e 974a 923d
00000210: 7d23 cebc caa8 d3bc 3ec9 60be 99b9 58be
00000220: e861 a4bc 3bfc f9bd 6303 9ebc f861 b73d
00000230: 1bf2 8cbe 7c4e 123e ea0f c3bb 444c 68be
00000240: 6458 d43c ca84 55be 34f5 1d3e 6b7d 4a3d
00000250: d156 0a3e b5ea 18be c8a9 8ebd 11cb 9b3e
00000260: 2aad ff3d bad9 973d a739 63be 6414 53be
00000270: 06f0 1a3e a057 0c3e 8112 5d3b 14b8 18bd
00000280: 1b8d 563e 6d50 9fbd bbd8 1bbd e458 d13d
00000290: bb87 3fbd 5900 e63d 9b9c a03e e736 203e
000002a0: a666 28be aa64 ab3e 5b59 ccbd 6821 263e
000002b0: 2153 0f3e 8ee8 79be a9ba 2b3e 73b1 86bd
000002c0: 5705 08be 95f4 41be cda3 9abd c215 0c3e
000002d0: c25b 8d3d 1a6c ad3c 8fc8 d4bd 460b 3b3e
000002e0: 6221 d7bd be8a cbbc fc74 bd3d fc76 ea3d
000002f0: 7009 493e 3494 aebc be96 0d3e 6464 06be
00000300: 5890 283e d473 8c3e 2758 583c 4c2d 4ebe
00000310: a008 9c3e 6894 fc3b 8fd0 8bbe 8ac9 803d
00000320: f8b2 2d3e 5d8b 0f3c 307f 083e 3d55 523e
00000330: 94b6 0fbc f1e0 df3d a748 bebd c51d eebd
00000340: c3d4 1bbe 448f 223e 59f3 973e dc64 2b3d
00000350: 156f f03d 9df1 c3bb 79c2 f3bc 43bc a7b9
00000360: 4a09 cb3d 3e54 953d 07db ba3d 1aae 473e
00000370: c227 83bd cdd0 f63d 08a7 f93c 73cf ac3d
00000380: 7f23 ecbd 0f40 803e e1cd b23d 77a3 6b3e
00000390: e3f7 703e 265c 0abd 09c2 29be 4370 c1bd
000003a0: 6755 36bd 12c4 6b3e c404 523e ffe3 5bbc
000003b0: 2972 7bbe 3776 c13d fff1 00be 42a9 323e
000003c0: 8fbc a8bd 1398 21bd 598f 813e f335 ad3d
000003d0: edf0 bcbc 2509 893e 874c 233e 3fbd d2bd
000003e0: 813d 7c3e 67b2 453e a0cf 03bd aa7e a33e
000003f0: 6595 8cbe dffe 0abd 6a7c 1b3b 4f93 ee3d
-0.25151068 0.31505686 -0.08680683 0.1698271 0.006462881 0.21107078 -0.17803505 -0.066638395
0.3087148 0.22806962 0.3172064 0.33928406 -0.042548843 -0.025671184 -0.13947816 0.28422377
0.26423097 -0.12875944 -0.21014512 0.23693416 0.20502684 0.07283504 0.0573651 0.098358385
0.01695901 -0.13532422 -0.042938616 -0.076258846 0.14924423 -0.11547429 -0.093219884 0.032301065
0.12152483 0.19642447 -0.2513889 -0.13914812 -0.04691125 -0.138216 0.198565 0.046170622
-0.021431895 -0.27591142 -0.19354124 0.21666212 -0.09837671 0.13421747 -0.13521188 -0.06268301
-0.0016707635 0.34451798 -0.024672378 -0.26944247 0.016408805 0.11580732 -0.20158648 0.030904014
0.26551768 0.0027815048 -0.014604332 0.0065131276 0.067527056 -0.057393998 0.12147875 0.1358852
0.020457285 -0.11955964 -0.1232799 0.1861866 -0.079673015 -0.086995564 0.167286 0.07477575
-0.006687529 0.008243299 -0.11135023 0.18253513 -0.104835 -0.10658618 0.2481661 -0.005498278
-0.06927657 0.19005215 0.21062064 -0.039432615 0.061018087 -0.118486084 0.1328891 0.007885015
0.34811333 -8.3229694e-05 -0.13518675 -0.13684694 -0.19360237 -0.028853908 0.06446555 0.114750065
0.31372026 -0.283413 -0.043336548 0.20050152 0.074735805 -0.012006058 0.1001661 -0.121509716
0.06937739 0.24482654 -0.25302666 -0.05128486 0.094394095 0.07368212 0.038288213 0.006797768
-2.14296e-05 0.28398386 0.033357665 -0.17934085 -0.096793704 0.20085385 -0.20671098 0.032842882
0.2430541 0.026801486 0.019859878 0.18202218 0.08549918 0.16886155 -0.2552802 0.19355658
-0.28415766 -0.04533349 0.15150219 0.07143133 -0.025163407 -0.02583732 -0.21951768 -0.2116455
-0.020066217 -0.12206312 -0.019288724 0.08954233 -0.27528462 0.14287752 -0.005952825 -0.22685343
0.025921054 -0.20851436 0.15425569 0.049436014 0.1350968 -0.14933284 -0.06965977 0.30428365
0.124842 0.07414575 -0.22189961 -0.20613247 0.15130624 0.13705301 0.0033732953 -0.037284926
0.20952265 -0.07779012 -0.038048487 0.10222033 -0.046760302 0.11230535 0.3136948 0.15645944
-0.16445407 0.33475238 -0.09977981 0.16223681 0.13996555 -0.24405119 0.16770424 -0.065768145
-0.13283287 -0.18940957 -0.07550774 0.13680175 0.06902267 0.02116971 -0.10389816 0.18266019
-0.10504414 -0.02484643 0.092508286 0.11448476 0.19632506 -0.021310903 0.13827035 -0.13124233
0.16461313 0.2743212 0.013204611 -0.20134467 0.3047533 0.007708121 -0.27307555 0.062884405
0.16962802 0.008761254 0.13329768 0.20540328 -0.008771557 0.10931576 -0.09291201 -0.11626772
-0.15217881 0.15874964 0.29677847 0.041844234 0.11739937 -0.0059797303 -0.029755818 -0.00031992988
0.09913881 0.072914585 0.091238074 0.19500008 -0.064040676 0.12051544 0.030475155 0.08438005
-0.11530208 0.25048873 0.087306745 0.23011576 0.23532061 -0.033779286 -0.16577925 -0.0944524
-0.04451504 0.23024014 0.2050963 -0.013421058 -0.24555267 0.09446376 -0.12592314 0.17447379
-0.0823909 -0.03945167 0.25304678 0.084575556 -0.023064101 0.2676479 0.15947162 -0.10290002
0.24632837 0.19306336 -0.03218043 0.31932575 -0.2745773 -0.03393447 0.002372528 0.11649191

backbone.2.weight f4 [1, 16]
00000000: abaa 943e a12a 37be c8cb 98be f208 793e
00000010: 49d1 5ebe 3f30 703e ff47 96be c47b 793e
00000020: 0d50 2dbe 35c3 8abe df89 a5be 71a9 afbe
00000030: 1d1d 013e 4d72 873e ba77 9c3e e8a1 813e
0.2903646 -0.17887355 -0.29842973 0.24319819 -0.21759523 0.23455904 -0.29351804 0.24363619
-0.16925068 -0.27102056 -0.3233175 -0.3430896 0.12608762 0.26454392 0.30560094 0.25318837
