output/39/best.pth (torch, 714225 bytes, 4 tensors)

encoder.embeddings f4 [88656, 2]
000000 57 47 e7 3d 55 ec ea bd 69 7d f3 3d dd 34 f8 bd
       0.11292904 -0.11470858 0.118891545 -0.12119458
000010 89 03 f4 3d 1c e6 fa bd e3 51 f5 3d 01 ef f9 bd
       0.11914737 -0.12250921 0.11978509 -0.122037895
000020 1b a0 f5 3d 8f 4a fa bd 96 e3 f5 3d b1 32 fa bd
       0.11993428 -0.12221252 0.12006299 -0.122167
000030 9f 84 f5 3d be bb f9 bd 83 56 f3 3d 8c 26 f8 bd
       0.11988186 -0.12194012 0.11881735 -0.12116727
000040 1d f0 e7 3d a5 9e ec bd 29 a7 f4 3d 52 f0 f8 bd
       0.11325095 -0.115536965 0.11945946 -0.121552125
000050 23 c9 f9 3d db 21 fe bd 21 f3 f8 3d f9 04 ff bd
       0.12196567 -0.12408801 0.12155748 -0.1245212
000060 03 e6 f9 3d b3 0e ff bd 62 a6 f9 3d ec 95 fe bd
       0.122020744 -0.124539755 0.12189938 -0.12430939
000070 54 c6 f9 3d 09 05 ff bd 9b c8 f9 3d 4b 81 fd bd
       0.12196031 -0.12452132 0.121964656 -0.12378176
000080 25 2c f9 3d 39 3f fd bd 49 60 f5 3d 9b 93 f8 bd
       0.12166623 -0.123655744 0.119812556 -0.121375285
000090 43 d9 f5 3d 1e 3e fa bd 1e 33 fa 3d da 88 fe bd
       0.1200433 -0.12218879 0.12216781 -0.12428446
0000a0 88 6f fa 3d ee fd fe bd 81 25 f8 3d fe 5d fd bd
       0.12228304 -0.12450777 0.12116528 -0.12371443
0000b0 be 2f f3 3d 55 80 f8 bd de ef f7 3d 0f 50 fd bd
       0.118743405 -0.121338524 0.12106298 -0.123687856
0000c0 ec 4d fa 3d 4a c2 fd bd 73 17 fa 3d b5 02 fe bd
       0.12221894 -0.12390573 0.12211504 -0.1240286
0000d0 a7 53 f6 3d f8 57 fa bd 7c 58 f6 3d dc 2d fb bd
       0.12027674 -0.1222381 0.12028596 -0.12264606
0000e0 d4 c1 f9 3d 76 a3 fe bd ae 22 f9 3d a2 01 fe bd
       0.12195173 -0.124335214 0.12164818 -0.12402655
0000f0 f9 0f d1 3d e5 d5 d6 bd 38 ac ac 3d 3c a5 b1 bd
       0.10208125 -0.10490016 0.084312856 -0.08674094
000100 5e 79 d0 3d e3 59 d5 bd ed ac f8 3d 4a 49 fe bd
       0.10179399 -0.10417535 0.12142358 -0.124163225
000110 1e 5c f9 3d ed e3 fe bd 02 9b f6 3d d5 7f fb bd
       0.12175773 -0.12445817 0.12041284 -0.122802414
000120 c5 8b f5 3d 83 a0 fa bd 0d d1 f9 3d 0e 4a ff bd
       0.119895495 -0.122376464 0.121980764 -0.12465297
000130 17 fa f7 3d 84 be fd bd 9d 6d c2 3d 2c 3a c8 bd
       0.12108248 -0.123898536 0.09493563 -0.097767204
000140 d0 1e 98 3d ce 6b 9b bd f7 06 c2 3d 98 af c6 bd
       0.07427752 -0.075889215 0.09473985 -0.097014606
000150 21 cd f8 3d 62 7b fd bd 6c 3d f9 3d 5f 5a ff bd
       0.121485 -0.12377049 0.121699184 -0.12468409
000160 4e bd f5 3d 35 96 fb bd 23 1d f7 3d 84 7b fa bd
       0.11998998 -0.12284509 0.12066104 -0.1223059
000170 35 c7 fa 3d c2 b9 fe bd 38 36 fa 3d 42 ee ff bd
       0.12245027 -0.12437774 0.12217373 -0.12496616
000180 1a 70 ef 3d f7 60 f4 bd 10 68 d5 3d 3d 54 d8 bd
       0.116913036 -0.11932557 0.10420239 -0.10562942
000190 4d 78 ee 3d ac f8 f3 bd 38 1f fa 3d f7 99 fe bd
       0.11644039 -0.11912665 0.12212986 -0.1243171
0001a0 01 73 fa 3d 49 07 ff bd 15 fc f4 3d 93 d5 fa bd
       0.122289665 -0.124525614 0.11962143 -0.12247767
0001b0 ce de f6 3d ef f6 f9 bd a7 0f fa 3d 53 34 ff bd
       0.12054215 -0.12205302 0.12210017 -0.12461152
0001c0 8d 18 fa 3d 6c 64 ff bd 5c cd f9 3d 50 64 ff bd
       0.12211714 -0.12470326 0.12197372 -0.12470305
0001d0 e0 f9 f9 3d a7 36 ff bd 47 6c fa 3d 38 de ff bd
       0.12205863 -0.12461596 0.122276835 -0.12493557
0001e0 f1 00 fa 3d ce 1a ff bd 40 f9 f9 3d 06 34 ff bd
       0.12207211 -0.124562845 0.12205744 -0.124610946
0001f0 a5 5f f5 3d 29 93 fa bd fd f2 f5 3d f6 1c fa bd
       0.11981133 -0.122351 0.12009237 -0.12212555
000200 47 54 fa 3d e4 6a fe bd 50 b9 f9 3d 63 9a fe bd
       0.12223106 -0.124227315 0.12193549 -0.12431791
000210 e0 be f9 3d c0 01 fe bd 8e 0a fa 3d 84 b7 fe bd
       0.1219461 -0.124026775 0.122090444 -0.124373466
000220 2e c6 f9 3d 78 fc fe bd 8c 4a f9 3d 1e 2e fe bd
       0.12196003 -0.12450498 0.12172422 -0.1241114
000230 0c f2 f8 3d 7d 4f fe bd ba 53 f5 3d ec ea f8 bd
       0.12155542 -0.12417505 0.1197886 -0.12154183
000240 e2 98 e8 3d 61 4d ec bd a9 4b f5 3d a2 1e fa bd
       0.11357285 -0.11538196 0.11977322 -0.12212874
000250 72 a1 f5 3d 7d 9a fa bd b9 ba f5 3d ee c0 f9 bd
       0.11993684 -0.122364976 0.11998505 -0.121950015
000260 c6 fd f5 3d 84 c4 fa bd a3 56 f5 3d 8d 4a fa bd
       0.12011294 -0.12244514 0.11979415 -0.12221251
000270 83 71 f5 3d cc 58 fa bd 6a 42 f4 3d 4f 68 f8 bd
       0.11984541 -0.12223968 0.1192673 -0.1212927
000280 26 c8 e6 3d 91 39 e9 bd 17 88 f4 3d 7f 5a f9 bd
       0.11268644 -0.11387933 0.119400196 -0.12175464
000290 bb 03 f9 3d 7e bc fe bd c5 f9 f8 3d af 5b ff bd
       0.12158915 -0.12438296 0.12157015 -0.12468659
0002a0 19 ee f9 3d 98 e1 fe bd 8a f7 f9 3d 02 eb fe bd
       0.12203617 -0.12445372 0.122054175 -0.12447168
0002b0 ea 99 f9 3d 9f c9 fe bd a3 62 f9 3d 8c cb fe bd
       0.1218756 -0.124408 0.121770166 -0.12441167
0002c0 65 3f f9 3d 3b f1 fd bd 32 ef f4 3d 9b 21 f9 bd
       0.12170295 -0.12399527 0.119596854 -0.12164613
0002d0 db 25 f9 3d 75 1f fe bd 7e f6 fa 3d 3a 14 00 be
       0.121654235 -0.12408344 0.12254046 -0.12507716
0002e0 f5 a2 fa 3d f6 12 00 be cb e5 fa 3d 89 35 00 be
       0.12238113 -0.12507233 0.12250861 -0.12520422
0002f0 81 a2 fa 3d 66 47 00 be 61 09 fb 3d 54 fd ff bd
       0.122380264 -0.12527236 0.12257648 -0.124994904
000300 38 08 fb 3d 4b 08 00 be 77 d1 fa 3d ef 6e ff bd
       0.12257427 -0.12503164 0.122469835 -0.12472331
000310 d2 ed f8 3d 68 a6 fd bd 3a d9 f9 3d 4c d8 fe bd
       0.121547356 -0.12385255 0.12199636 -0.12443599
000320 b9 cf fa 3d 04 28 00 be 9d 70 fa 3d 60 d1 ff bd
       0.12246651 -0.12515265 0.122285105 -0.12491107
000330 2e 5d f1 3d 50 ae f6 bd 12 19 d8 3d af 93 dd bd
       0.11785351 -0.12044966 0.10551657 -0.10819184
000340 c8 26 f1 3d 71 13 f7 bd 3b 33 fb 3d e1 13 ff bd
       0.11774975 -0.12064255 0.12265631 -0.124549635
000350 46 a3 fb 3d d5 f3 ff bd 0c 12 fa 3d 63 69 fe bd
       0.12287001 -0.12497679 0.122104734 -0.12422445
000360 11 c4 f9 3d f6 de fe bd 49 15 fb 3d 5e 1b 00 be
       0.121956 -0.1244487 0.12259919 -0.1251044
000370 04 2c f6 3d 2e a8 fb bd f6 e1 9d 3d e1 7e a1 bd
       0.12020114 -0.12287937 0.07709114 -0.07885528
000380 e9 a5 76 3c 04 dd 3d bc 33 ab 9c 3d ce 2d a2 bd
       0.0150542045 -0.011588339 0.07649841 -0.07918893
000390 11 28 f6 3d 37 20 fc bd 9d 31 fb 3d 77 59 00 be
       0.12019361 -0.12310832 0.12265322 -0.12534128
0003a0 de b6 fa 3d 85 07 ff bd 03 0d fa 3d 85 21 ff bd
       0.122419104 -0.12452606 0.12209513 -0.12457565
0003b0 99 b1 fa 3d b9 30 00 be 98 76 f2 3d 00 82 f8 bd
       0.12240905 -0.12518586 0.11839026 -0.121341705
0003c0 e1 f9 7b 3d 83 d6 77 bd fd 09 02 3c 45 9e df bb
       0.0615176 -0.06050731 0.007936952 -0.006824287
0003d0 fb 81 77 3d ba d5 77 bd 2d cc f2 3d ea 2d f8 bd
       0.060426693 -0.06050656 0.1185535 -0.121181324
0003e0 2a b3 fa 3d 18 60 00 be 3e 07 f9 3d ad 3f ff bd
       0.12241204 -0.12536657 0.121595845 -0.12463317
0003f0 b6 ad fa 3d ca ee fe bd 2f 45 fb 3d 82 fe ff bd
       0.12240164 -0.12447889 0.12269055 -0.124997154

backbone.0.weight f4 [16, 16]
000000 88 e3 8f 3e 89 29 3f be 82 bf bd 3d 65 c9 96 3e
       0.2810328 -0.18668188 0.09265043 0.29450527
000010 a8 56 6f bc 40 bd 7c 3c ce 57 9a 3e 37 db 2b 3e
       -0.014608063 0.01542598 0.30145115 0.16782843
000020 e2 ce 74 3e 56 04 a0 be 25 b6 f4 bc ce d5 1e 3e
       0.23907045 -0.31253308 -0.02987201 0.15511248
000030 69 2d 81 3e 7e c3 35 be 4d 4a 86 3e 80 76 9a 3e
       0.25229958 -0.17750356 0.26228562 0.30168533
000040 e9 e3 ba 3c f7 67 57 3e 01 37 f5 bd b5 0e 5d be
       0.022813754 0.21035753 -0.11973382 -0.21587642
000050 6d 06 95 be ad dd 97 be 4f fa 9f be 2d 8d 45 3d
       -0.29106465 -0.29661313 -0.31245658 0.04823034
000060 bc 06 25 3e 35 bb c4 bd 47 5e 3f bd cc ca 02 3e
       0.1611585 -0.096060194 -0.04672077 0.12772673
000070 a8 a7 82 be fb 7f 22 3e f4 e2 a7 be 87 4f 80 3d
       -0.25518537 0.15869133 -0.3279034 0.06265169
000080 9b 14 6a 3e aa 51 86 be 02 ec 5b be 2e bf 39 bd
       0.22859423 -0.2623418 -0.21476749 -0.04534834
000090 59 cf 0c 3e c3 21 dd 3d ee f2 82 bd 65 81 89 bc
       0.13750972 0.10797455 -0.063939914 -0.016785333
0000a0 f0 0d 81 3e ac f0 69 be 37 41 25 3d 9e b0 1e 3e
       0.25205946 -0.22845715 0.040345397 0.15497062
0000b0 07 10 86 3e be f1 a0 be fe 50 d2 3d 97 f4 ed bc
       0.26184103 -0.31434435 0.10269354 -0.029047294
0000c0 db cb 24 3e c9 12 fe bd 56 f1 5d 3e b3 56 fb bc
       0.1609339 -0.12405927 0.21674094 -0.03068099
0000d0 f9 9a 68 be e3 35 8f bb 84 06 6e be 87 25 93 bc
       -0.22715367 -0.0043704375 -0.23244673 -0.01796223
0000e0 29 77 03 be bb e9 96 bc 94 be 8a 3c a3 4b 50 3e
       -0.12838425 -0.018421998 0.016936578 0.20341353
0000f0 fc 50 5a bc 84 0f 30 3c 2f 27 12 bd dd 6e 84 ba
       -0.013324972 0.010745887 -0.0356819 -0.0010103841
000100 aa 1f 87 bd 53 05 83 3c fe 74 7d bd cc af a5 3d
       -0.06597836 0.01599375 -0.06187915 0.08090171
000110 e9 4e f1 bd 8e fa 19 be 0e 35 43 3a 0a c2 31 3e
       -0.11782629 -0.15036985 0.00074465654 0.17359176
000120 c2 19 dd 3d 81 91 f1 3d ee 1f 68 be 24 92 15 be
       0.107959285 0.11795331 -0.2266843 -0.1460653
000130 9b e0 2a be 69 98 cd 3d 73 24 26 be 9b ab db 3c
       -0.16687243 0.100388356 -0.16224842 0.026815226
000140 80 1b 16 be 7b 57 65 3e e0 a4 84 be 60 ca 49 3e
       -0.14658928 0.22396652 -0.2590704 0.19706106
000150 ae 17 54 be 5d ba 8c 3d 15 cd 8c 3d c9 0b 23 3e
       -0.20712158 0.068714835 0.06875054 0.15922464
000160 06 d8 3b 3e be 00 2c bd af b2 00 3d 10 f8 38 3e
       0.18344125 -0.041992895 0.031420406 0.18063378
000170 f3 46 8c be 99 ec 81 3e a4 1a 9e be 0e 15 23 3e
       -0.2739788 0.25375822 -0.308797 0.15926
000180 24 0e cf bd 79 d1 54 be 9f 10 ed bd 35 67 06 bd
       -0.10110119 -0.20783032 -0.11575436 -0.03281327
000190 7e 33 e0 bd 74 e9 e0 3d 23 1b 5a 3e 8a 89 92 3e
       -0.10947321 0.10982028 0.21299414 0.2862056
0001a0 a8 5f 25 bb f1 1b 27 bd 79 c9 56 3e 87 cb 8b bc
       -0.0025234018 -0.04079813 0.20975293 -0.017064823
0001b0 37 00 61 3d 6e fc 8c be f7 38 ec bd 52 64 61 3e
       0.054931846 -0.2753634 -0.11534303 0.22010925
0001c0 04 dc e5 bd fc 69 1f be 82 c8 2b 3e cf 19 9f bb
       -0.11223605 -0.15567774 0.16775706 -0.0048553715
0001d0 ee 57 cb 3d 79 34 5f bb 36 66 67 be be 16 24 bd
       0.09928881 -0.0034058376 -0.22597584 -0.04006075
0001e0 22 6e ac 3c e4 e6 bb 3d 34 25 7d be 0e d7 d4 3d
       0.02104861 0.09174898 -0.24721223 0.10392581
0001f0 11 8c 54 bd 90 38 56 3e 0f 91 5e be 28 30 6f 3e
       -0.05189139 0.20920014 -0.21735023 0.23358214
000200 69 04 13 be c6 87 99 bd 5d 6c 83 be 9a 0f 99 3e
       -0.14357151 -0.074966 -0.25668612 0.29894716
000210 d7 02 46 3e 55 12 49 be 1c 55 1b 3e 3d 0a 5f 3e
       0.19337021 -0.196359 0.15169185 0.2178125
000220 c5 87 ce 3d f8 c3 5a be 78 53 97 3e 0a 84 08 3e
       0.1008449 -0.21363819 0.2955587 0.13331619
000230 9e 45 a7 3e 3f 79 4c bd ef 8a 65 3e 0a 16 52 3e
       0.326703 -0.049920317 0.2241628 0.2051622
000240 8f d9 08 be 9d ba bc 3d fd 75 96 be 9f 33 f3 3d
       -0.13364242 0.09215281 -0.29386893 0.1187508
000250 45 06 2b 3e 3b fe 99 b9 16 04 1e 3e 5a 6f 7a 3e
       0.1670161 -0.0002937185 0.15431246 0.2445654
000260 b1 a3 60 3e 49 81 8f bd e5 0c bd 3d aa f4 3c be
       0.21937443 -0.07007081 0.09230975 -0.18452707
000270 2d 83 7a 3e ef 37 5e be 73 ed 8d 3e eb 5b 40 3d
       0.24464102 -0.21701024 0.27720222 0.04696266
000280 09 73 18 3e 4d 54 9c be 97 ed d6 3d b7 5e a5 3e
       0.14887632 -0.30533066 0.104945354 0.32298824
000290 3d cf 98 3d 4b ba 9b be 87 82 a1 3e b5 70 09 3d
       0.074614026 -0.30415568 0.31544897 0.03355475
0002a0 0e 0c 23 3e 18 d0 e9 bc 0a 46 48 3e 18 25 f1 3d
       0.15922567 -0.02854161 0.19557968 0.11774653
0002b0 1e 40 98 3d 4a 02 4d be 38 38 ad 3d a5 9b 00 bd
       0.074341044 -0.20020404 0.084579885 -0.031398434
0002c0 71 4a a9 3e 90 ed 9f be 64 8f c8 bd 2e 73 07 3e
       0.33064607 -0.31235933 -0.097929746 0.13227531
0002d0 fa 86 4e 3e 0c 01 d3 bd 75 77 95 3c e2 0a 2d 3e
       0.20168677 -0.10302934 0.018245438 0.16898683
0002e0 08 7e 23 3e 45 db 03 be 9f de 59 3e a6 88 13 3d
       0.15966046 -0.12876613 0.2127633 0.03601899
0002f0 c8 70 05 be ea df 75 be 0d 2e b3 3c 9f dd e2 bc
       -0.13031304 -0.24011198 0.021872545 -0.027693568
000300 b2 0b d6 3d bd a5 1c 3d df 0d 86 be f2 44 a2 3e
       0.104514495 0.038243998 -0.26182458 0.31693226
000310 37 96 99 3e 3e 78 8b be ba a1 ff bd b3 c2 9c 3d
       0.29997417 -0.27240175 -0.12482019 0.076543234
000320 27 68 8c 3e 1e d7 b3 be 3c 26 b2 3e 53 c0 00 be
       0.27423212 -0.3512506 0.34794796 -0.12573366
000330 51 dd 06 be 34 5d 05 be 5c 3f 93 3e 9f 3d 17 3e
       -0.13170363 -0.13023835 0.28759277 0.147696
000340 02 e3 cc 3b e7 85 d9 3d b5 96 7f be cb dc 72 3e
       0.0062526474 0.10621243 -0.24959834 0.23717038
000350 e5 32 cd 3d b6 90 2d be 91 0a 92 3e 61 03 68 bd
       0.10019473 -0.16949734 0.28523687 -0.056643847
000360 e6 d1 b4 3e ba 18 70 be a1 bd 40 3e 80 c9 a1 3e
       0.3531639 -0.23446932 0.18822338 0.31599045
000370 5d 4a 14 3e 11 da 1a be 92 d9 65 bd ad c1 ae 3e
       0.14481492 -0.15122248 -0.056115694 0.34132138
000380 02 a5 7c 3e 34 5d b3 be 38 ee 22 be 80 c7 3b 3e
       0.2467232 -0.35032046 -0.15911186 0.18337822
000390 04 a3 de 3d 26 51 e8 bc 65 30 19 bc d4 f7 02 be
       0.108709365 -0.028359007 -0.009349917 -0.12789851
0003a0 e4 9c ac 3e 65 4b a6 be 5c e8 14 3e 93 1f 8a 3e
       0.33713448 -0.32479396 0.14541763 0.26977214
0003b0 59 98 20 3e ce 75 9a be 27 36 8f 3e 30 d0 a2 3e
       0.15683116 -0.30168003 0.27971002 0.3179946
0003c0 05 82 56 be 0b c1 94 be 82 e1 91 be 3f 66 4c be
       -0.20948036 -0.2905353 -0.2849236 -0.19960879
0003d0 0d 09 24 be 2e 13 11 be 7e 47 cf bd 60 64 a6 bc
       -0.16019078 -0.14167473 -0.10121058 -0.020311534
0003e0 70 da 64 3e aa fc 5b 3e 36 da 86 3e 57 a2 63 3e
       0.22348952 0.21483102 0.26338357 0.22229896
0003f0 d0 9f 6f 3e 3d c1 dd 3d 5f 49 dc 3d d1 8e 07 be
       0.23400807 0.10827873 0.10756182 -0.13238074

backbone.1.weight f4 [16, 16]
000000 62 e2 05 bd 20 dd 13 be 6c 0d 6c 3e 92 e0 17 be
       -0.0326866 -0.14439821 0.23051995 -0.1483176
000010 14 06 02 3e 47 6d 0a bd 41 d0 1c 3e f8 de 15 3d
       0.12697631 -0.03379562 0.15313818 0.036589593
000020 91 9c 70 3d ec 3a 69 3e 6a 21 8a 3e 3c b8 14 3e
       0.058743063 0.22776383 0.26978618 0.14523405
000030 36 04 b7 3e 77 4c dd 3d e6 80 94 3e 9b 5e 19 3e
       0.357454 0.108056 0.29004592 0.14977495
000040 90 38 c9 bd 2a 33 59 3e 48 8c d0 bd 5e 5d 60 3e
       -0.098252416 0.21210924 -0.101830065 0.21910617
000050 aa 85 8c bb c6 53 ed bc df 83 ff bd cd 71 b0 3d
       -0.004288395 -0.02897061 -0.12476324 0.08615456
000060 ed 85 7b 3c a7 4d 9d 39 c1 33 0f be 12 a3 93 bb
       0.015351755 0.0003000323 -0.13984586 -0.0045055235
000070 92 c6 2e 3d 89 69 c9 3d ac a5 10 bd 58 e5 f2 bd
       0.04266984 0.09834582 -0.035314247 -0.1186015
000080 6f 61 28 3c c3 90 9c 3e 36 c6 94 bd e6 e5 db 3d
       0.010277136 0.30579194 -0.07264368 0.10737209
000090 9d 5b d9 bd b7 74 f4 bc 56 14 59 3e 65 17 85 bd
       -0.10613177 -0.02984081 0.21199164 -0.06498603
0000a0 24 c3 78 be d5 fb 47 be 90 c4 59 be df aa 86 bd
       -0.2429319 -0.1952966 -0.21266389 -0.0657556
0000b0 77 5a 5b be 42 60 80 3e 9f cc f9 3d b9 be 0c 3e
       -0.21421228 0.2507344 0.121972315 0.1374463
0000c0 14 23 a9 be 7b 8e 07 3e 2d e0 b1 3d 34 d3 7e 3e
       -0.33034575 0.13237946 0.08685336 0.24885255
0000d0 4c cb 9c 3e f7 38 51 bc b7 ae 2a be 65 d2 5c 3e
       0.30623853 -0.012769929 -0.16668211 0.21564634
0000e0 d3 e9 0e 3c 2b 51 aa 3e 78 fc 48 be d2 21 45 3d
       0.00872274 0.3326505 -0.19627559 0.048127957
0000f0 c7 ac aa 3d bb af 30 be 3f 6d 55 bd f3 54 93 3d
       0.08333736 -0.17254536 -0.05210614 0.07193937
000100 bf 90 a8 3e ab a9 c3 3d 74 ac 20 3e 95 5a 23 bd
       0.32922933 0.09553846 0.15690786 -0.039881308
000110 ef 51 4f be dd bb 75 be 47 1a 93 3e 3e 97 20 be
       -0.20246099 -0.23997445 0.28730986 -0.15682694
000120 1b 6f 53 3e 38 af ca bc ee 1e df 3c b2 6b 51 3e
       0.20647852 -0.024741754 0.027236428 0.20451239
000130 ad 4b 22 3e f7 d2 35 3e 3a 8c ae 3e c0 ca 36 be
       0.1584918 0.17756258 0.3409136 -0.1785078
000140 8e 30 b7 3e 31 cc 6c bd c0 94 8c 3e fc 44 83 be
       0.35779232 -0.05781192 0.27457237 -0.25638568
000150 e9 0b 19 be 29 a3 9e 3d 02 4e 4b bc 34 36 8c bd
       -0.1494595 0.07745964 -0.012408735 -0.06846276
000160 ad 7b 58 3e d9 df f0 bd 82 e4 a2 3e 47 f1 fa 3d
       0.21140929 -0.117614456 0.31814963 0.12253051
000170 96 a8 8e 3d 6f c5 8a 3e 1b 49 48 bc 8f 10 bb bd
       0.06965749 0.27103755 -0.012224461 -0.09134018
000180 c9 fa 34 bd fc d6 07 be 30 81 79 3e 7c bd 9a bd
       -0.04418448 -0.13265604 0.24365687 -0.075556725
000190 70 a3 80 3e 8c d3 fd 3d 80 6d 5f bc 56 a2 36 3e
       0.25124693 0.12393865 -0.013636947 0.17835364
0001a0 c0 37 70 3e f1 83 45 bd 34 c3 2a be e0 9c d2 3c
       0.23458767 -0.048221532 -0.16676027 0.02570957
0001b0 09 7a fa 3d 3b 3d 2f be ed 97 ad be 68 ec b4 3d
       0.122303076 -0.17113201 -0.33904973 0.088341534
0001c0 8b 99 1e 3d 4c dc 98 3e c7 27 4a be 7b a0 9a 3d
       0.03872065 0.29855573 -0.19741736 0.075501405
0001d0 9a 1d 49 bd 30 86 8f 3e 21 fc 0e be b1 b2 fa bd
       -0.049100496 0.28032064 -0.13963367 -0.12241114
0001e0 42 19 4f be 13 bf 11 bd 24 c3 89 be 6c 6f d7 3d
       -0.20224479 -0.035582613 -0.26906693 0.10519299
0001f0 bf bd 6a bd 88 f3 70 3e f4 54 4c 3d 56 71 8b 3e
       -0.057309862 0.235304 0.049885705 0.27234906
000200 14 af 9a be ef 10 0a be ca 35 19 3e 74 ab d2 bc
       -0.302117 -0.13483022 0.14961925 -0.02571652
000210 32 cb 23 3e a0 09 9b 3e 8b 72 45 3e ed 9a a9 3e
       0.15995482 0.3028078 0.19281976 0.33126011
000220 6c 53 10 be 09 23 19 3e e7 e8 2e be f5 80 31 be
       -0.14094323 0.14954771 -0.17081033 -0.1733435
000230 e2 f1 02 3e 86 ca 2e be 5a 26 b4 3d 1a f6 ea bd
       0.12787583 -0.17069444 0.087963775 -0.114727214
000240 0e 3d 1c 3e 8d fd 79 be 67 20 8f 3e 39 82 b1 bd
       0.15257666 -0.24413128 0.2795441 -0.08667416
000250 62 11 ba bd 33 35 8b be 10 a6 76 3d 43 e7 d0 3d
       -0.09085347 -0.27189025 0.060216963 0.1020036
000260 07 91 58 3e f8 79 57 3e 59 58 a7 3e ce 1a 34 3e
       0.21149074 0.21042621 0.3268459 0.1758835
000270 8c 5b b0 3e f9 54 88 bd e9 f6 ff 3d a4 27 07 bd
       0.34444845 -0.06656832 0.12498266 -0.03299679
000280 a1 43 b2 3e 49 8a 04 be 37 11 b8 3e 2a 11 a6 3d
       0.34817222 -0.12943377 0.35950634 0.081087425
000290 fb 15 08 bd 5f 68 2c be c4 da 24 be aa 9d 71 3d
       -0.033224087 -0.1683669 -0.16099077 0.05898825
0002a0 b1 3d e4 bd 5c 63 32 3e 9b 9a 46 3e 77 74 bd 3e
       -0.11144579 0.17420715 0.19394915 0.37002918
0002b0 7c 75 8d 3e be d8 54 3e 76 a6 4e bd d0 fb 93 3e
       0.27628696 0.20785806 -0.05045172 0.28903055
0002c0 a0 08 76 be 71 2a cf bd 69 09 7e 3e 43 46 6a 3e
       -0.24026728 -0.10115517 0.24808277 0.22878365
0002d0 de a5 ba 3d 5a 76 fa bd 36 10 7c 3e ea 27 44 3d
       0.09113668 -0.12229605 0.24615559 0.047889628
0002e0 d2 df 1d be de c6 c5 3c 5e 27 4f be e9 06 28 be
       -0.15417412 0.024142679 -0.20229861 -0.16408886
0002f0 0e 5a 71 3d 9d 3c 5f 3e 36 a4 6d be ea 0c 3e be
       0.058923773 0.21800466 -0.23207173 -0.18559614
000300 a5 c7 86 3b 57 16 39 3e 2e 64 ab 3d 7a 55 a0 bd
       0.004113155 0.18074928 0.08368717 -0.07828803
000310 3c a8 c8 3c 99 91 86 3c 8a 62 9c 3e f9 d7 a9 3e
       0.024494283 0.016426848 0.3054393 0.33172587
000320 f2 96 8f be 50 f1 80 3c 8a 5a af 3d 3a 0c ca bd
       -0.2804485 0.015740067 0.08562191 -0.09865613
000330 98 ea 73 bd 95 4b 39 3d 4a 47 85 3d 5c 1e 0d be
       -0.059549898 0.045238096 0.06507738 -0.13781112
000340 b3 6f 8d 3e 99 48 01 be 47 ce 88 bc ad b2 56 bd
       0.27624282 -0.1262535 -0.016699923 -0.052416492
000350 4f b2 6d be 61 15 c9 3d e4 77 35 3e bb a5 25 bd
       -0.2321255 0.09818531 0.17721516 -0.040441256
000360 4d c6 c8 ba c3 16 4b 3d 2f 66 aa bd 12 22 30 3c
       -0.0015317887 0.049582254 -0.08320271 0.0107503105
000370 d6 44 37 bd 7a e5 d4 3d f3 8d 61 3d 44 ca 2c 3e
       -0.04474338 0.10395332 0.055067014 0.16874033
000380 a2 f3 55 be 9e e2 f0 3d cd 7d 71 3e 77 c5 c5 3d
       -0.2089372 0.11761974 0.23583145 0.09656804
000390 67 89 8d 3d 82 6e 88 3d ab bc 56 3e b8 21 9e bd
       0.06910973 0.06661703 0.20970409 -0.07721275
0003a0 3a 79 1f 3e 1d f0 b4 3b 64 50 12 be a4 08 d5 3c
       0.15573588 0.005521788 -0.14288479 0.026005097
0003b0 53 b9 00 be 9e bf 00 be 81 4e 7b be 74 c0 bc 3c
       -0.12570696 -0.12573096 -0.24541666 0.023040988
0003c0 48 f6 1d bd f7 02 ab bc 22 ce ca 3d eb 19 3a be
       -0.03856495 -0.020875437 0.09902598 -0.1817395
0003d0 49 7b 3e bd 24 86 68 be 8b 06 44 3d 70 0d 42 3d
       -0.046504293 -0.2270742 0.047857802 0.047376096
0003e0 fb a8 4e 3e f2 26 5d 3d 5a 38 96 3e 8b a4 5f 3e
       0.20181648 0.05399222 0.29339868 0.21840112
0003f0 66 03 02 3e 9d ad 67 bc c1 53 86 3e 68 ba 97 3e
       0.12696609 -0.014140514 0.26235774 0.29634404

backbone.2.weight f4 [1, 16]
000000 d1 c2 1b 3e f4 47 d2 bd 26 ce 9e be 49 90 64 be
       0.15211035 -0.1026763 -0.31016654 -0.22320665
000010 1e e8 67 3e 67 4c 59 3e 69 a3 6f be 1e 0d 6c be
       0.2264714 0.21220551 -0.2340218 -0.23051879
000020 65 f5 2f be 64 fe 84 3e 34 97 21 3e 2f ec 2f be
       -0.17183454 0.25975335 0.15780336 -0.1717994
000030 e2 f1 8d be f8 ae b4 3e 84 94 a7 be ac 7a 0c 3e
       -0.27723604 0.3528974 -0.32730496 0.1371867
