output/17/best.pth (torch, 714225 bytes, 4 tensors)

encoder.embeddings f4 [88656, 2]
00000000: 1252 e63d 50f9 e13d a948 e83d 0bba e13d
00000010: 51eb cc3d 10d9 c53d 1e4d be3d f440 c23d
00000020: 1935 dc3d 8991 d43d f5da ce3d d2c4 c33d
00000030: 2594 ce3d cd21 c53d 89d3 e53d cab8 e13d
00000040: d5cf e43d 9414 e23d 3b27 f43d 15d9 eb3d
00000050: a1f3 de3d a5b6 d63d a0ce b93d c9f7 b13d
00000060: 252d b03d 035c ae3d e813 cf3d cd40 c53d
00000070: 14d5 b93d 1b08 af3d 113b bb3d d09c b13d
00000080: 39ec de3d f9dc d63d 2a1a f23d 802d eb3d
00000090: c8ff f23d aa75 ea3d e330 db3d 1e42 d23d
000000a0: d294 b53d 1e8c ac3d be46 b13d 154f a73d
000000b0: 73dd c43d b3c7 be3d 0cd9 b13d 8655 a83d
000000c0: 371b b53d 2862 ab3d c06d db3d 59a0 d23d
000000d0: bc70 f23d 5bf7 ea3d f0af f33d 45e7 eb3d
000000e0: a388 dc3d 565d d43d 1f2f b73d 9873 ad3d
000000f0: b1e0 ae3d 2279 a63d c14a b63d b7e7 ae3d
00000100: 0912 b03d dedb a63d de5f b13d 3b0b ad3d
00000110: 60df df3d fd00 d53d c452 f43d 9355 ec3d
00000120: 4ecd f43d a44f ed3d c435 df3d c7a7 d63d
00000130: c585 b73d f312 ae3d 6689 ae3d e68a a63d
00000140: c921 bc3d 14da b23d b2fc b03d 6f45 a63d
00000150: ab00 b23d 01b4 ad3d 3af2 d63d 1e43 d73d
00000160: 6719 ec3d f056 ed3d 614b f63d 904e ee3d
00000170: 1938 e23d 1d51 da3d aa30 bb3d 7cc4 b03d
00000180: b69f b13d 16f5 a83d d1d3 c63d a419 be3d
00000190: 4bb8 b43d f96e aa3d 219b b53d 0e8d b13d
000001a0: 8548 d53d da57 da3d 6f54 e53d c39a ed3d
000001b0: b2ea f93d d988 f03d 70c0 f43d fed4 ec3d
000001c0: 9230 d73d cab3 ce3d 53e7 d03d af22 c73d
000001d0: b675 e33d 342b d93d 912a d33d 9155 c73d
000001e0: 05cd d33d 9079 ce3d 7c35 ea3d 8c52 ed3d
000001f0: 6ee4 e93d 37f0 f13d b758 f83d f5e6 f03d
00000200: b4a6 fc3d 9ec3 f53d ad08 fb3d 0498 f23d
00000210: fd66 fa3d 5e4f f03d c59c fe3d b954 f33d
00000220: 6d4d f93d 6f94 f03d 6e44 f93d 988a f23d
00000230: 146e f23d 7aee f53d 6125 ed3d aa4c f23d
00000240: 8840 e43d cf23 e43d abda f63d 1b6b f23d
00000250: 8c08 fb3d 2233 f43d bfa5 fa3d a1dc f23d
00000260: 85b9 fc3d 9607 f23d d083 fb3d 15a0 f23d
00000270: 5ee4 f53d 78c3 f13d 5825 f13d 6625 f13d
00000280: 8b2a e03d 6c16 e53d 26cd e83d 129f e23d
00000290: 54eb cb3d afd8 c23d f4dd 993d ea1f 923d
000002a0: 5da8 8d3d 3afc 8e3d e7bd ad3d a65a ad3d
000002b0: 13b6 993d 929e 8f3d db09 9c3d 40bd 923d
000002c0: a2fe c93d a04a c43d 6481 e83d e415 e13d
000002d0: 5c69 e13d 1b60 d93d da54 b33d 3838 aa3d
000002e0: e193 6d3d e0a2 643d d441 633d 1db4 5a3d
000002f0: 2cba 983d bffc 923d e505 683d 5a8b 5d3d
00000300: 7bb2 733d 9b92 633d d846 b33d af1e ab3d
00000310: 86f0 de3d 0cc8 d53d 3c76 de3d e879 d53d
00000320: 11d4 ad3d a93e a53d aab4 5d3d f8d8 543d
00000330: acbd 503d 810d 483d 6655 8d3d 4b59 883d
00000340: 6ef3 523d a737 493d cbde 5d3d a940 523d
00000350: bb42 af3d 009d a53d 9509 dc3d 1b8b d23d
00000360: 792c e03d 3873 d83d 6f3c b03d 332f a83d
00000370: 575a 643d ca81 5b3d 3715 423d fea4 413d
00000380: 0620 513d 1413 4e3d e569 463d 9a32 403d
00000390: f4c6 633d 41a6 5c3d f22c b43d d2f9 a83d
000003a0: 9cb3 df3d d85e d53d 6c8d e43d f034 db3d
000003b0: 51b6 b43d 6ed6 ab3d f79b 653d a09c 5d3d
000003c0: 7854 443d af28 443d b3e2 623d f275 623d
000003d0: 07a9 443d 57a2 403d 7c83 663d 5321 5c3d
000003e0: 728c af3d 15cf ab3d db72 de3d 9d95 d83d
000003f0: c094 e83d 24b2 de3d ee08 ba3d 3e0c b03d
0.112461224 0.11033881 0.11341984 0.11021813 0.100058205 0.09660542 0.09292053 0.09485045
0.10752315 0.10379321 0.101003565 0.09559025 0.1008685 0.096255876 0.11221988 0.11021574
0.11172453 0.11039081 0.11921545 0.115160145 0.10886312 0.104840554 0.09072614 0.086898394
0.08602361 0.085136436 0.10111219 0.096315004 0.090738446 0.08546468 0.091421254 0.08672488
0.108849 0.10491366 0.11821397 0.11483288 0.11865193 0.11448224 0.10702684 0.10266517
0.08866276 0.08425163 0.08656071 0.081693806 0.096125506 0.09315433 0.086839765 0.08219437
0.088430814 0.08368331 0.107142925 0.1028449 0.118379086 0.114729606 0.11898792 0.115187205
0.10768249 0.10369365 0.089445345 0.084693134 0.0853895 0.08128573 0.08900977 0.0854029
0.0859719 0.08147405 0.08660863 0.08449408 0.10931277 0.10400579 0.11929849 0.115397595
0.11953221 0.11587456 0.10898927 0.1048122 0.089610614 0.08499708 0.085223004 0.081319615
0.091861315 0.08733001 0.08641948 0.08118712 0.08691534 0.08481599 0.1049542 0.105108485
0.115282826 0.11588848 0.12026096 0.11636078 0.11045856 0.106600024 0.09140141 0.086312264
0.086730406 0.082498714 0.097083695 0.09282234 0.088242136 0.083219476 0.08867479 0.08669482
0.10414223 0.106612876 0.11197745 0.11601784 0.12202968 0.117448516 0.11950767 0.115640625
0.10507311 0.10092886 0.102003716 0.09723412 0.11106436 0.106039435 0.10310853 0.09733117
0.10341839 0.1008178 0.114359826 0.1158801 0.11420523 0.118133955 0.12126296 0.117628016
0.123364836 0.12000202 0.12257514 0.11845401 0.12226675 0.11733888 0.12432245 0.11881394
0.12172971 0.117470615 0.12171255 0.11842841 0.11837402 0.120083764 0.11579395 0.11831029
0.11145121 0.111396424 0.12053426 0.11836835 0.122574896 0.11923815 0.12238645 0.11858488
0.123400725 0.11817853 0.122810006 0.118469395 0.12006448 0.11804861 0.11774701 0.11774711
0.109456144 0.11185917 0.11367254 0.110654965 0.09956995 0.09513985 0.07513037 0.071349934
0.06916878 0.06981702 0.084834866 0.084645554 0.07505431 0.07012667 0.07619067 0.07165003
0.098630205 0.09584546 0.11352804 0.109905034 0.11006424 0.10614034 0.087564185 0.08311504
0.058002356 0.055819392 0.0554827 0.053394426 0.074573845 0.07177114 0.056646246 0.054087974
0.059496384 0.055559736 0.08753747 0.08355462 0.1088572 0.104385465 0.10862395 0.104236424
0.08487714 0.08068592 0.054127373 0.05196473 0.050962135 0.048841003 0.06901054 0.06657656
0.051501684 0.04912534 0.05416755 0.051331196 0.0855765 0.08086586 0.10744015 0.102804385
0.109459825 0.10568851 0.08605277 0.082121275 0.055750217 0.053590573 0.047383513 0.04727649
0.05105593 0.050311163 0.048440833 0.046923257 0.05560966 0.05386949 0.08797635 0.082507744
0.1092293 0.10418481 0.111597866 0.107034564 0.088238366 0.083905086 0.056056943 0.054104447
0.04793212 0.04789036 0.05539198 0.055288263 0.04801276 0.04702982 0.056277737 0.053742718
0.0857171 0.08389107 0.10861751 0.105754115 0.11356497 0.108738214 0.090837345 0.08596085

backbone.0.weight f4 [16, 16]
00000000: ebba 3cbd e31c 2d3e b981 5ebe 4c85 5abe
00000010: 6e49 c5bc b64c 63be aaaa 8f3e 3293 023e
00000020: 2f2b 2abe 2d9f c1bd 1560 87be 4643 45be
00000030: 3185 9cbe 0a12 083e 43c2 93be 0a71 7e3d
00000040: 4513 4e3e 8095 b23d 64f3 0d3e ad85 f3bd
00000050: a39d a23e 516e 2f3d 0973 a83d dd60 d33d
00000060: 05bc 3f3d 2dd0 793d 8dae 783c 539e 98be
00000070: 5658 98be 7d8b 503e 4ced a4be 6690 54be
00000080: 6f77 5a3e 7deb a83e 49df 01be 9b1b adbc
00000090: cf4a 8fbd 5424 34be 55fd af3d aaf4 953e
000000a0: e2b3 64be 0159 a3be ccfa 2cbe 0f11 be3d
000000b0: 4c12 d2bd d420 f23d 93fe 6fbe 04ca 94be
000000c0: 7f9c f6bd d476 353e 46b9 72be 2225 9b3d
000000d0: bc1b 89bd 1822 ddbd 6f2f 9cbd 53c6 093c
000000e0: 983a 383d 0b38 02be 5e46 f3bd 17fe 88bd
000000f0: 0124 783d c28c 5f3e ffad c4bb f5b3 81be
00000100: d32f 9e3e 710a 6a3e 83b1 8fbd 3703 17be
00000110: 66a5 9c3d 28b5 223e 27ec 0c3e 49b4 a53e
00000120: 92be 093e 488d b53d 5a48 32be b1c1 e93d
00000130: a886 8abe 1d66 1e3e 8412 dfbd 2df4 62be
00000140: 5c22 373e 5ff6 e13d bd74 753d adf9 7a3d
00000150: c76c 2abe 414d e8bd 70c4 62be 1a57 56be
00000160: 5f01 d23d 2483 773e caec 413e fb9b f23c
00000170: 39d1 9d3d 3cad 9cbe 16a1 bdbd 4cc6 863d
00000180: 0e4b 1d3e 201c 953e 5bee 2cbe c46e ab3d
00000190: 0d03 a53d d18d 85be cc6d 873d 4402 453e
000001a0: 48c4 0a3e 4d8a 27be ee19 5ebd a5e8 7ebe
000001b0: 9fd3 b83c b1dd 463e 4e03 c7bd ee66 80be
000001c0: 73f9 ca3d 5dd3 c33d 91cf 4bbe d0c2 37be
000001d0: cf91 8d3e 1b15 953c f0fe d0bd 2927 a53e
000001e0: e7ac c93d 9d51 8d3d ef42 0a3e 6a02 b0be
000001f0: 7c69 823d e94a 26bc ff4a adbd bacf 3dbc
00000200: c7b3 1fbd 8631 09bd 9277 84be 34f2 033e
00000210: e143 f53d 97f5 8ebe 2a73 ac3d 673d 123e
00000220: f734 85bd 19d0 f4bc c83e 5fbe 3ee0 99bd
00000230: b5b8 4abe c07c 6c3e 28a2 87be 7a5c 23be
00000240: f7fc 24be 73dd 113e 4a78 97ba b8c2 9cbe
00000250: 9934 8e3e a772 16be a6ad 82bd 9fc0 713e
00000260: 040f 12be 49f7 28bd 23ec 1b3c 345b 3e3d
00000270: 7253 84be d873 f9bc cfb4 1e3e 97cf a2be
00000280: e288 ec3d 4868 593e acaf 163d 5ba9 6b3e
00000290: deef 813d 3b71 95bd b35f b63d 0853 82be
000002a0: d669 2d3e 194e 0a3e 313d c8bd 565b 54bd
000002b0: e29e aabc 72f7 aebd 2033 323e 43a0 a6bd
000002c0: ca24 ae3d 31dd 81bd 5e54 3abe 00a9 05be
000002d0: e3fe a3be 6558 8f3e b67e a63d f7e1 25bd
000002e0: 682a b43d f30f 07bc 3f7f 823e 9fdb eebc
000002f0: 7251 1cbc 2aa3 61be 2d9b e33d 3812 a13c
00000300: 1acb 973e 6db7 513e b3a7 4bbe 6f07 96be
00000310: 016a 613e 90fc a93d c8e1 2c3e e96b 253e
00000320: 1390 95be e4a1 83be ec94 ddbd d0cd 853c
00000330: 859a 68be 7b9d fd3d e4e0 5bbe f5bf 44be
00000340: 6914 febd 84a1 bd3b 4f4b 10be 4331 4c3e
00000350: b014 183e de4b 06be 7e0c f73d 5f04 09bc
00000360: 2fdd 05bc aa5b 43bd 6795 7bbe d910 e0bc
00000370: 6bc5 9dbc ce1d a93d e153 063e 8cbf 8abe
00000380: 8d0b 03be 5164 223e 0724 243e dfc6 9cbe
00000390: 0561 d93c 57ae f43c 6359 9c3e 4bff bd3c
000003a0: e319 a43d 0567 47bc 61c0 58be 22da 4abe
000003b0: 69c1 56bd bc62 153e 958d c13d e6d2 023e
000003c0: 02b8 fc3c bb43 293d e160 42be 4ba8 66be
000003d0: 802b 973e a40d 68be d50b 783e 642b c23d
000003e0: a18f 83be b687 a9bd 7017 9abe fd1f 40be
000003f0: 886d 00be 1251 8f3e b1ec 45be d60b 9a3d
-0.046076696 0.1690555 -0.21729173 -0.21339911 -0.024082866 -0.22197232 0.28059894 0.12751463
-0.16618036 -0.094541885 -0.26440492 -0.19263944 -0.30570367 0.13288131 -0.28859147 0.06211952
0.20124538 0.08719921 0.13862377 -0.11890731 0.31760892 0.042829815 0.08225066 0.103212096
0.04681017 0.060989548 0.015178335 -0.29808292 -0.29754895 0.2036571 -0.32212293 -0.20758209
0.21334623 0.32992163 -0.12682833 -0.021131327 -0.069966905 -0.17591983 0.08593241 0.29288226
-0.22334245 -0.31903842 -0.16892546 0.092805974 -0.10257396 0.11822668 -0.23436956 -0.29060376
-0.12041568 0.1772111 -0.23703489 0.07575442 -0.06694743 -0.107975185 -0.07626235 0.008409101
0.044977754 -0.12716691 -0.11878656 -0.06689089 0.06058121 0.21831039 -0.0060021873 -0.2533261
0.30895862 0.22855546 -0.070162795 -0.1474732 0.07648735 0.15889418 0.1376196 0.3236411
0.13451603 0.08864838 -0.17410412 0.11413897 -0.2705586 0.1546864 -0.108922035 -0.22163458
0.17884201 0.1103332 0.059925783 0.061273266 -0.16643058 -0.1134286 -0.22145247 -0.20931664
0.10254168 0.2417112 0.18937984 0.029615393 0.07705922 -0.30600917 -0.0925924 0.06580791
0.15360662 0.2912302 -0.168878 0.08370736 0.080572225 -0.2608476 0.06612739 0.19239146
0.13551438 -0.16361351 -0.054223947 -0.24893434 0.022561846 0.19420506 -0.09717427 -0.2507853
0.0991086 0.09561799 -0.19903399 -0.17945409 0.27650306 0.01819854 -0.102048755 0.3225644
0.09847432 0.06900332 0.13502096 -0.34376842 0.06367776 -0.010149696 -0.0846157 -0.01158517
-0.03898981 -0.033494495 -0.25872475 0.12885362 0.119758375 -0.27921745 0.08420403 0.14281236
-0.06504243 -0.029884385 -0.21801293 -0.07513474 -0.19797023 0.23094463 -0.26490903 -0.15953246
-0.16112123 0.14244632 -0.0011556235 -0.3061731 0.27774504 -0.14692174 -0.06380777 0.23608635
-0.1426354 -0.041251455 0.009516749 0.046473697 -0.25844914 -0.030450746 0.1549866 -0.31799003
0.11549546 0.21231186 0.036788628 0.23013823 0.06344579 -0.072969876 0.08904972 -0.25453973
0.16934904 0.13506354 -0.09777296 -0.051844917 -0.020827714 -0.0854329 0.17402315 -0.08136036
0.08503111 -0.06341017 -0.18196246 -0.1305275 -0.320304 0.27997127 0.08129637 -0.0404987
0.08797151 -0.008243549 0.25487706 -0.029157458 -0.009540902 -0.22034898 0.11113582 0.019662008
0.29647142 0.20480128 -0.19888191 -0.29302546 0.22013094 0.083001256 0.16883004 0.16154446
-0.29211482 -0.2570945 -0.1081942 0.01633349 -0.22715195 0.12383553 -0.21472508 -0.19213851
-0.12406237 0.0057870764 -0.14091228 0.19940667 0.14851642 -0.13114879 0.120629296 -0.008362859
-0.00817041 -0.04769484 -0.24568711 -0.027351784 -0.019259175 0.08257638 0.13117935 -0.27099264
-0.12797375 0.1585858 0.16029368 -0.30620477 0.02653552 0.029868288 0.30536947 0.023193022
0.0801275 -0.012170558 -0.21167137 -0.19809774 -0.052430544 0.14588445 0.09450833 0.12775764
0.03084946 0.04132436 -0.18982269 -0.22525136 0.29525375 -0.22661453 0.24223264 0.09480932
-0.25695518 -0.08277838 -0.30096006 -0.18762203 -0.12541783 0.2799154 -0.19328572 0.07521789

backbone.1.weight f4 [16, 16]
00000000: 4b54 5c3e ecbd 143e a3d3 9d3e 0f4b 1d3e
00000010: 4d9e 29be e089 a7be ab1f 8cbd f66a bc3b
00000020: f2e3 a03e 594f b7bd 57ce 9dbe 45f4 773d
00000030: 8005 913e fb96 bcbd a8df 183e 5562 023e
00000040: ab31 8a3e 25ee 1e3e c05e d03d be7d f0bd
00000050: fcdc 613e 5c06 2dbe 890e a13e 230e e13d
00000060: 6324 723e 27d6 7a3e 57db b5bd 2bff 89be
00000070: c915 5a3e 8ce4 f0bd be1c 923d 410e 253d
00000080: 7f5b 9d3e 25c6 b43d 1ff3 6d3e 0923 dd3d
00000090: 1e96 1c3e 8e00 7fbd cc32 1d3d 76c1 023d
000000a0: 2944 a23e 7442 463e 1fa3 3d3e be27 a3be
000000b0: 3075 8f3e e7a0 2a3e 4345 3a3e b220 d9bd
000000c0: 8546 e9bd e46f 16be 3fc3 fbbd e21e b4bd
000000d0: c97d aa3a 816d b43a 73a1 a5bd 4bc0 823d
000000e0: 027d 99bb 8866 9f3c 1979 f53d 7381 06be
000000f0: f2ea 18bd 477c 883c c97f 9f3d eb5a abbc
00000100: 6d76 68be fba6 a4be 42e8 c43d e06b 34bd
00000110: af5d e4bc f9cc a53d 2b06 06be f43f ebbc
00000120: 7793 d63d b560 773e a0d9 463e 1c3a 5dbd
00000130: 7dca 163e 82fb b8bd 4c72 2f3d 18dc 1bbe
00000140: f958 883d b229 2b3e 5257 063e deac 1ebe
00000150: e5cb 1a3e 4f7d 66be 874c 093e 7aee 6f3d
00000160: 0939 723c c303 033e b158 ee3c 13ad fb3d
00000170: ebb4 253e e83b 653d 2102 2d3d b7bf d43c
00000180: 7cbf 963e 679c 5a3e 3c56 ccbb b752 f33d
00000190: 8358 923e 75d3 40be 5c9a 733e 95a4 1d3e
000001a0: 01b3 143e af7c 2c3e c1b1 1dbe 4dfa a1be
000001b0: 3fc0 af3d a1c5 3d3e 430c 3cbc 144e 493e
000001c0: cf55 393e 6073 823e ef60 dabd c0ad 9e3d
000001d0: 6376 233e 06cf 623d fa36 223e a6df e93b
000001e0: 6ebb 11be 36e4 643e d303 013e 8c8c 193e
000001f0: 4662 583e 4bde 723e 82fa 0a3e a726 8c3c
00000200: fe0e 103e 3d07 e13d eaba 673e 74f1 853e
00000210: 77a4 ab3e d6f2 22be cb06 113e 2b9b 933e
00000220: 128b 6bbd e690 9f3e 3f5a 3b3e 8764 b2be
00000230: 503d 4e3c 4603 debc aba6 193e 452a cebc
00000240: eba0 073c d3a9 5fbb 2a56 02bd 10aa 7139
00000250: f8cf e83d 1c87 a43d 9a6f 8f3d 1e7d 6d3e
00000260: 097d 8e3e 5f0d 773e c729 0bbe 14a7 9abe
00000270: 4400 6c3d e829 893d 23d8 54bd f196 063e
00000280: 8955 c43d 5819 8c3e ca82 a43e 6848 f1bd
00000290: 7fb7 9abd 3d3b 253e da25 5c3e 1a18 383e
000002a0: 1535 6fbd 1371 4a3d 41da 00be 2a1c 2c3e
000002b0: 6479 2c3c 82e2 e53d 443c 353e 3dc8 c3bd
000002c0: e7ae 85be 124b 8cbe 3d53 51ba e22b 29bb
000002d0: 68a6 963e 2745 393d 1ca6 50be 9a5a 313e
000002e0: e6b7 91be fb27 b53d a777 29be 204e 703e
000002f0: 64ed 973d 9436 4cbe f6c8 753d a8cd 683e
00000300: 8a49 0a3e a37a 043d 07cd fa3d 50ce b23c
00000310: 715c 0b3c f8f7 42bd 9b0e 0e3e d3db ccbd
00000320: 9ac4 8c3e 663a 783d 7288 40bd 31f5 44be
00000330: c2aa 363d 3da1 0fbe 3702 16be 71d7 543e
00000340: da57 5abd d9ab 25be c2e6 6fbd 4964 c63d
00000350: c07a 52bd 20ab b93d 1bb5 103d afea 493e
00000360: 8b8d 5d3d e43b 343e 442a 6d3d be29 fc3d
00000370: 937c b1bd 970d 95bd 074b ad3e 115c 86bc
00000380: a61f 7c3e 9a8a a73e cbbf 283e c3fe 5ebd
00000390: 31b3 05bd f880 0abe 581a 833d ffdf a73e
000003a0: 0b52 25be ac33 4a3e 4eb9 ddbd 4680 84be
000003b0: b84e 823e e993 6f3e 8dd3 b83d ef85 0a3e
000003c0: 4129 a53e 6935 c7bd 854e 4fbd 52d0 193e
000003d0: 393c ac3d f4af 3ebe 4259 9f3e 9eef a03e
000003e0: 3414 bc3d 7866 10be 0ee9 103e 73a2 89be
000003f0: fdc0 1bbe c99f 05be 9cf4 a63e 0dbd 653e
0.2151653 0.14525574 0.30825529 0.15360664 -0.16564293 -0.32722378 -0.06841978 0.0057500554
0.31423908 -0.08950681 -0.30821487 0.060535688 0.2832451 -0.09208485 0.14929068 0.12732823
0.2699102 0.15520532 0.10174322 -0.117427334 0.22056955 -0.16896957 0.31456402 0.109890245
0.23646693 0.24495755 -0.088797264 -0.2695249 0.21297373 -0.11762342 0.071343884 0.040296797
0.30733868 0.088268556 0.23237275 0.10797698 0.1529164 -0.06225639 0.03837852 0.03192278
0.31692627 0.19361287 0.18519257 -0.31866258 0.28019094 0.16662942 0.18190484 -0.10601939
-0.11390404 -0.1469112 -0.122930996 -0.08794953 0.0013007458 0.0013765545 -0.080874346 0.06384333
-0.0046840915 0.01945807 0.11985988 -0.13135318 -0.037333436 0.016660823 0.07788045 -0.020917377
-0.22701426 -0.32158646 0.09614612 -0.04404819 -0.027876703 0.08095736 -0.1308829 -0.028717019
0.104773454 0.24157985 0.19418955 -0.054010496 0.1472568 -0.09032346 0.04283361 -0.15220678
0.06657595 0.16715124 0.13119248 -0.15495631 0.15116842 -0.22508739 0.13408099 0.05857704
0.014784106 0.12794404 0.029095026 0.12288871 0.16182296 0.055965334 0.04223836 0.025970323
0.29442966 0.21348725 -0.006235866 0.11881011 0.28583154 -0.18830664 0.23789352 0.15394814
0.1452141 0.16844438 -0.15399839 -0.31636277 0.0858159 0.1853242 -0.011477533 0.1965869
0.1809914 0.2547865 -0.1066302 0.07747984 0.1596313 0.055373214 0.15841284 0.0071372567
-0.14231655 0.2235268 0.12599115 0.1499502 0.21131238 0.2371761 0.13572124 0.017108275
0.14068219 0.10987709 0.22629896 0.26160777 0.33523914 -0.15912947 0.14162748 0.2882932
-0.057505675 0.31165236 0.18296145 -0.3484232 0.01258786 -0.02710117 0.15004985 -0.02516664
0.008278112 -0.0034128323 -0.031820454 0.00023046904 0.11367792 0.080335826 0.07003708 0.2319226
0.2782977 0.24126194 -0.13590156 -0.30205595 0.05761744 0.06697446 -0.051963937 0.13143517
0.09586627 0.27363086 0.32131034 -0.117813885 -0.0755453 0.16135879 0.21498814 0.17977944
-0.058400232 0.049424242 -0.12583257 0.16807619 0.010526989 0.112248436 0.17698771 -0.09559677
-0.26110002 -0.27401024 -0.0007985121 -0.002581351 0.29423833 0.045231964 -0.20375866 0.17319718
-0.28460616 0.08845516 -0.1654955 0.23467302 0.074183255 -0.19942695 0.060006104 0.22734702
0.13504615 0.032343518 0.12246137 0.021826893 0.0085059265 -0.047599763 0.13872759 -0.10002866
0.27493745 0.060602568 -0.047005124 -0.19234158 0.04459644 -0.14026351 -0.14649282 0.2078531
-0.053306438 -0.16178836 -0.058569677 0.096870966 -0.051386595 0.09065843 0.035328966 0.19718431
0.054090064 0.17600971 0.057901636 0.12312649 -0.08666339 -0.07277983 0.33846304 -0.016401323
0.24621448 0.32722932 0.16479413 -0.05444218 -0.032641593 -0.1352576 0.06401509 0.32788083
-0.16144578 0.19746274 -0.1082636 -0.25879115 0.25450683 0.23396267 0.09024725 0.13527654
0.32258037 -0.09726984 -0.05061199 0.15020874 0.08409924 -0.18621808 0.31122786 0.31432813
0.09183541 -0.14101589 0.14151403 -0.2688175 -0.15210338 -0.13049234 0.32608497 0.22435398

backbone.2.weight f4 [1, 16]
00000000: f15d 713e 0a1a 9f3e 8914 8b3e d44e 403d
00000010: 88bb 29be 391e 1a3e 760e 8f3e 7a8a 1d3e
00000020: 609b 233e 9db2 6b3e 27c8 f13d e32f 41be
00000030: 8a4a 1d3e e3d4 7cbd c5a4 903e c363 2a3e
0.23570992 0.31074554 0.27164105 0.046950176 -0.16575444 0.15050592 0.2794072 0.15384856
0.1597724 0.23017354 0.11805754 -0.18865924 0.15360466 -0.061726462 0.2825071 0.16639619
