output/45/best.pth (torch, 714225 bytes, 4 tensors)

encoder.embeddings f4 [88656, 2]
00000000: 507f e43d 80a2 e8bd d4c2 f73d b4cb f8bd
00000010: 4e28 f63d 8971 f9bd 2a14 f93d 6fdc f9bd
00000020: 55b7 f93d 4294 fbbd c045 f53d da82 fcbd
00000030: 52eb f53d d485 fabd 0235 f63d a742 f8bd
00000040: 0455 e63d a354 e9bd 8d05 f63d 762b fabd
00000050: a8e3 fc3d f60f ffbd 97e1 fc3d c81f ffbd
00000060: 38cb fe3d 2dd2 ffbd 1048 003e fe47 01be
00000070: 6246 fc3d 1e68 01be e26b fd3d 80ed febd
00000080: 98ea fb3d 9b15 fdbd 8e86 f73d 59c3 f9bd
00000090: c94d fa3d a917 fcbd eeb3 003e 3767 00be
000000a0: 3635 003e 9fbb 00be 73f7 fd3d 99b1 f9bd
000000b0: 627b ea3d b900 eabd 8cf2 fc3d 478a fbbd
000000c0: 657f 003e c7d1 ffbd f8b7 fc3d 4cdd fdbd
000000d0: 2df0 f63d 7c1f f9bd dd2f f83d fc5e fcbd
000000e0: 6893 fe3d e4bd ffbd 9645 fd3d f5d9 fdbd
000000f0: 06b6 b53d 2d4c b8bd 44c8 823d 4fd7 86bd
00000100: 83b4 b33d 6ead b6bd 9137 003e 8d73 fdbd
00000110: acdb fd3d bc7c ffbd 272e fa3d a8e6 fabd
00000120: c053 f73d 649a fabd c7e1 fc3d dd1c ffbd
00000130: 517b fb3d 63c5 f9bd 22f2 973d 21db 9bbd
00000140: a2c3 573d fa71 5ebd 8d0c 963d 52f5 9abd
00000150: 948b fc3d 9401 fbbd 85ff 003e dc6b 00be
00000160: bae8 fa3d 00c2 fabd 8779 f73d 8b3e fabd
00000170: 92b6 fe3d a972 ffbd ddd3 fb3d 91de ffbd
00000180: 22c5 db3d 6abb dcbd c8cb b43d 7572 b6bd
00000190: 0b3c dd3d a995 ddbd 0709 ff3d cc86 febd
000001a0: ad5f ff3d 1d80 ffbd 8b35 f73d 11f9 f9bd
000001b0: 9676 f83d a6f1 fbbd fbba fc3d 713e 00be
000001c0: 4ced 003e 728d 00be eb91 003e 75ec 00be
000001d0: a52d 013e e552 00be 2ad2 ff3d f9b5 00be
000001e0: 8bc4 003e 5064 00be 7a2b fe3d 3731 00be
000001f0: 4632 f73d 9b02 fabd 033e f83d 6295 f8bd
00000200: c72d 003e 3f5e 00be 91ac 013e 4750 ffbd
00000210: 7936 013e 4915 01be 862d 013e 5e8d ffbd
00000220: bced ff3d d896 00be 0721 013e 6b29 01be
00000230: 16af fe3d f31d 00be d0cd f33d 55a7 f8bd
00000240: 90f1 e83d eed9 e8bd f857 f83d ddbb f8bd
00000250: 85f0 fb3d 3db7 fbbd 66f8 f93d b15e fcbd
00000260: 19e9 f73d 6f24 f9bd 08dd f73d dd7f fabd
00000270: f759 f93d 1667 fcbd f1c2 f83d aff5 fabd
00000280: 683f e23d 138e e9bd 4460 f63d ce82 f9bd
00000290: be31 fd3d 72b3 febd cf26 fd3d 3ee0 febd
000002a0: db47 003e aea9 ffbd c667 fd3d fe83 00be
000002b0: 03b9 fb3d 3a60 00be 31db fc3d db3a 00be
000002c0: 9eb8 fe3d f20a 00be 277d f73d 2678 fabd
000002d0: ffb9 fb3d d4ed febd 712b 003e 2927 00be
000002e0: 5dbe ff3d a75f 00be ea62 003e 7868 00be
000002f0: dd62 ff3d 1419 01be f783 fd3d 8657 01be
00000300: 3871 ff3d 741d 01be b987 ff3d 9b7d 00be
00000310: c87e fc3d 3b32 febd b575 fe3d d0cd 00be
00000320: 46f9 003e ec6f 01be 8007 013e f787 00be
00000330: d7c7 f63d 1cf1 f3bd ec1b db3d ff3f dabd
00000340: db11 f43d 203b f6bd 1b7a 003e ae09 01be
00000350: 831a fe3d f235 00be 2c24 fc3d 5fbc febd
00000360: 0290 fc3d c380 ffbd 2635 003e ef8f 00be
00000370: 45b3 f93d af1b f8bd 2e69 7f3d 1e9b 94bd
00000380: abda 52bb 045b caba fae7 883d 8883 93bd
00000390: 6059 fb3d acf0 f9bd e922 003e 2174 00be
000003a0: aca1 fd3d 408c febd 761e fc3d 85cc febd
000003b0: dee0 ff3d f451 00be a465 ed3d 17b0 ecbd
000003c0: 6ed7 f33c eb10 7ebd fc99 da3b 5a2d 443b
000003d0: d570 153d dc1d 6abd c439 ed3d 5436 edbd
000003e0: d5ad 003e e7cd 00be 7688 fc3d 6836 febd
000003f0: 16d3 fc3d 1818 febd d27b 003e 4584 00be
0.111570954 -0.113591194 0.120977074 -0.12148228 0.12019406 -0.12179858 0.12162049 -0.122002475
0.12193171 -0.12284137 0.119761944 -0.123296455 0.120077744 -0.12232557 0.12021829 -0.12122088
0.11246684 -0.11393096 0.120127775 -0.12215321 0.123481095 -0.12454216 0.12347715 -0.12457234
0.12441105 -0.1249126 0.1252749 -0.12625119 0.12318112 -0.12637374 0.12374093 -0.12447643
0.123006046 -0.123576365 0.12086211 -0.12195463 0.122218676 -0.123092 0.12568638 -0.12539373
0.12520298 -0.12571572 0.12400713 -0.12192077 0.11449315 -0.11425919 0.1235095 -0.12282234
0.12548597 -0.12491184 0.12339777 -0.12395725 0.12057529 -0.12164208 0.12118504 -0.12322804
0.12430459 -0.12487391 0.12366788 -0.12395088 0.08872609 -0.089989044 0.06385854 -0.065840356
0.08774664 -0.08919798 0.12521197 -0.12375555 0.12395415 -0.12474963 0.12215834 -0.122510254
0.12076521 -0.12236479 0.12347751 -0.12456677 0.1227938 -0.12195852 0.0741923 -0.07610155
0.052676804 -0.054307915 0.073266126 -0.075663224 0.1233131 -0.122561604 0.12597473 -0.12541145
0.1225142 -0.12244034 0.120837264 -0.122189604 0.12437166 -0.124730416 0.12296269 -0.12493623
0.107309595 -0.10777934 0.08827931 -0.0890855 0.10802468 -0.10819561 0.12452894 -0.12428054
0.124694206 -0.124756075 0.120707594 -0.12205709 0.121319935 -0.1230195 0.12340351 -0.1252382
0.12590522 -0.12553957 0.12555663 -0.12590201 0.12615068 -0.12531622 0.124912575 -0.12569417
0.12574975 -0.12538266 0.12410636 -0.12518774 0.12070136 -0.12207528 0.12121203 -0.121378675
0.12517463 -0.12535952 0.12663485 -0.124664836 0.12618436 -0.12605776 0.12615022 -0.124781355
0.12496516 -0.12557542 0.12610255 -0.12613456 0.12435739 -0.12511425 0.1190449 -0.12141291
0.113741994 -0.11369692 0.12126154 -0.12145207 0.12301735 -0.12290809 0.12205581 -0.123227485
0.12105007 -0.12165152 0.12102705 -0.12231419 0.121753626 -0.123243496 0.12146557 -0.12253892
0.1104725 -0.11404052 0.1203008 -0.12183152 0.12363003 -0.1243657 0.12360918 -0.124451146
0.1252741 -0.12483536 0.12373309 -0.12550351 0.122911476 -0.12536708 0.12346495 -0.12522452
0.12437557 -0.12504175 0.12084418 -0.12229948 0.12291335 -0.12447706 0.12516572 -0.12514938
0.12487481 -0.12536488 0.12537733 -0.12539852 0.124700285 -0.12607223 0.12378686 -0.12631044
0.12472767 -0.12608892 0.12477059 -0.12547915 0.12328869 -0.124119245 0.124247946 -0.12578511
0.1259509 -0.12640351 0.12600517 -0.12551866 0.12049835 -0.11911222 0.10698685 -0.106567375
0.11917468 -0.12022996 0.1254658 -0.12601349 0.124074005 -0.12520579 0.12311587 -0.12438273
0.12332155 -0.12475731 0.12520275 -0.12554906 0.12192396 -0.12114655 0.062356167 -0.07256149
-0.0032173793 -0.0015438502 0.06684871 -0.07202822 0.12272906 -0.12204108 0.12513317 -0.125443
0.12384352 -0.12429094 0.123104975 -0.12441353 0.12494062 -0.12531263 0.11591652 -0.11557024
0.02976581 -0.062027853 0.0066711884 0.0029934258 0.036484558 -0.057157382 0.115832835 -0.11582628
0.12566312 -0.12578546 0.12330715 -0.12412721 0.12344949 -0.12406939 0.12547234 -0.12550457

backbone.0.weight f4 [16, 16]
00000000: 597a 93bb c052 c43c 976c c33d 51ba b43d
00000010: a895 013e f9b7 75be 0612 8c3e 1322 653e
00000020: 27f5 25be 4fd3 54be 62aa 9fbd 5997 aebe
00000030: 9434 f4bd c8d6 78be efe3 7ebe 2323 85be
00000040: eee8 8d3d 2a9c 24bd 62b8 a8bc ff26 a53d
00000050: e453 e33d aa72 ca3d 13af 54be 5e5b 8ebd
00000060: 2eb8 aebd dd8a 063d 00bf a3be ab52 ac3e
00000070: 41b0 4bbe 23d9 59bd 7a4f 723d 82ac 843e
00000080: 2abc 783e 24e7 1cbe a068 743e c75f b1be
00000090: e76a 2fbe 31ff 45be c303 ffbd d428 ab3e
000000a0: 1603 29be f17e 95be 635b b33e 1931 13be
000000b0: f0cb 723e f29f 9f3e 8ed9 583e 143b c53d
000000c0: 311a 5cbe 659c 0d3e 9ea7 603e f6af d4bd
000000d0: 7faf 623d e073 e73d 832e 47be 30e1 01be
000000e0: a9d4 723e 9165 283e 9aed 8fbe e1d2 edbd
000000f0: b0f9 8ebe e56d 4a3e c1e0 bfbd 5c3b 943e
00000100: de2f 94bd a6e4 b53d e38e 2fbe 45b4 633e
00000110: 84ec 1ebe a533 ed3d d713 0fbe a3cc 8b3e
00000120: 976c 763e 18c0 2cbe 256b c13d 853d 793e
00000130: 0a93 c7bd cd3d 2e3d 3f0a febd 8c73 593e
00000140: 2293 413e 2419 88be 397f 80bd 9c5c 85be
00000150: 935c 60bd 3d6a a13c 1ca9 82be bbdc 203e
00000160: 8336 85bd 75eb 87be d6be 0fbe fcbb b53e
00000170: 3f2d 3f3e e93e 9d3e abd7 3d3d 9615 a13e
00000180: 6f04 c6bb 60b4 f83d b30f 04be 6b07 003e
00000190: b055 603e b748 9a3d fc89 213e 1410 00be
000001a0: 0c0f f7bd 085c 29be c44f 093d 1f7c 9abe
000001b0: b213 87bd d1d0 58be 413c a7bd c5ff 59bd
000001c0: 3b60 343e aba0 9dbd fe08 ab3e 14e0 a6be
000001d0: 291a cebc 5fab 8dbe 25e3 96be ae7f 833e
000001e0: f3eb c139 1c0a 99be 5a1d c6bd 1350 21be
000001f0: e2ed 493e 9e73 9c3e 62c5 8e3e a27e e9bd
00000200: c713 ff3d 3d50 98be f18a 9a3e a47d b0be
00000210: 3679 39bd e3da 063c b631 8ebe 8acd e23d
00000220: 54f7 95bc 3664 25be 9d57 e53d 1ebd 863e
00000230: d387 fcbc ee53 9a3e 73cf 3ebe f4f9 953e
00000240: ad53 b1bd ba20 62be 8441 84bd bd46 68be
00000250: ff2b 5fbe c312 18be 37ac 98be 2091 453e
00000260: 9570 80be 741f 85be be31 223e 56d7 34be
00000270: 4796 193e ded5 70bd a773 a2bd 671d 9f3b
00000280: 0094 35bd d867 57be a65b a73e 4a71 bdbe
00000290: aefd 523d 81b3 8abe 415b b13d db47 963e
000002a0: 7ec0 02be 052a aeba 2881 be3e f6f8 8bbe
000002b0: 63d8 0e3e 48fd ca3d 95d3 6f3e c995 f03c
000002c0: 6dfc 20bd 1f5b 593e 2585 0abe f672 e73d
000002d0: 19ee 9bbd d3f0 47be 4644 41be 903e 053e
000002e0: 3719 0a3d 92cb 34be c859 a2be 33fa 90bd
000002f0: 0f01 d03d 4887 08be f1ef 183e 81be 693d
00000300: 7106 35be 7726 bebd fc7c 1ebe 942c 29be
00000310: 82e8 3e3e 3e20 adbd 98fc dfbd 26c3 943e
00000320: 1216 3ebe 3eeb 01bd 2bf2 fc3d a599 b23c
00000330: a3e9 d03d 8a6d 2d3e 7d31 943d cc8f 123e
00000340: e013 2b3e 65fc 29bd 36b5 2bbe 15d7 03be
00000350: a019 813e 9e6a 3d3d e83f 71be b811 d3bd
00000360: 821b e8bd c30f b4bb 9245 fdbd 2dac 9a3e
00000370: 295a 5bbe 917e b33c 59a2 66be 7ec6 913e
00000380: dcbe 543d 74c8 6fbe 6cc2 18be 8ad1 6cbe
00000390: 3622 9bbe 486e 2ebd 51f1 acbe d2dd a03e
000003a0: dbe2 a4be ee43 41be a439 9abd 2ba0 34be
000003b0: 9a53 bb3d c46a a33e 911b 6c3c cc13 163e
000003c0: 82c0 1d3e 0acf 7f3e deda a83d f3a0 84be
000003d0: 028e 29be e6f0 413e b3ce 833e 0ff8 24bd
000003e0: b126 223e 3acd 253e 3a37 9b3d 02e8 af3c
000003f0: 4ba3 d2bd d7d8 483e 9837 ad3d 7a50 79be
-0.004500669 0.02396524 0.09542196 0.088245995 0.12654746 -0.23995961 0.273575 0.2237628
-0.162068 -0.20783733 -0.0779617 -0.34099844 -0.11924091 -0.24300683 -0.24891637 -0.2600337
0.069291934 -0.040187992 -0.020595733 0.080640785 0.11099985 0.09885152 -0.2076991 -0.06951021
-0.08531223 0.032847274 -0.3198166 0.3365682 -0.19891454 -0.053185593 0.059157826 0.25912863
0.24290529 -0.15322548 0.23868036 -0.34643385 -0.17130624 -0.19335629 -0.12451889 0.33429587
-0.16505083 -0.2919841 0.3503066 -0.14374198 0.23710608 0.31176716 0.2117674 0.09630409
-0.21494366 0.13829191 0.21938941 -0.103851244 0.055343147 0.11301398 -0.19451337 -0.12683558
0.23713936 0.16444995 -0.28110963 -0.116124876 -0.2792487 0.19768484 -0.0936904 0.28951538
-0.072356924 0.08881502 -0.1714435 0.22236736 -0.15519911 0.11582116 -0.13972412 0.27304563
0.24064861 -0.16870153 0.09444264 0.24339874 -0.09744842 0.042539407 -0.12404298 0.21235484
0.18903783 -0.2658168 -0.06274266 -0.26047218 -0.054775786 0.019703979 -0.25519645 0.15709202
-0.06504538 -0.26546827 -0.14037642 0.35494983 0.18669604 0.3071206 0.046348255 0.3146178
-0.006043009 0.12143779 -0.12896614 0.1250283 0.21907687 0.075334005 0.15775293 -0.12506133
-0.12063417 -0.16539013 0.033523336 -0.30172822 -0.065955535 -0.21173407 -0.081657894 -0.053222436
0.17614834 -0.076966606 0.33405298 -0.32592833 -0.025158959 -0.27669808 -0.29470173 0.2568335
0.00036987624 -0.29890525 -0.09673567 -0.15753202 0.19719651 0.3055696 0.27884966 -0.114011064
0.12454944 -0.29748717 0.3018413 -0.34470856 -0.04528161 0.008230898 -0.277723 0.1107436
-0.018306412 -0.16151509 0.111983515 0.2631616 -0.030826485 0.30142158 -0.18633823 0.29292262
-0.08658538 -0.22082797 -0.064578086 -0.22683235 -0.21794127 -0.14850907 -0.2981889 0.19293642
-0.25085893 -0.2600056 0.15839288 -0.17660269 0.14998733 -0.05879771 -0.07932215 0.0048558
-0.044330597 -0.21035707 0.3268711 -0.37000495 0.05151146 -0.27090076 0.086599834 0.29351696
-0.12768742 -0.0013287669 0.37207913 -0.2733838 0.13949732 0.09911591 0.23420556 0.029368298
-0.039303232 0.21226166 -0.13527353 0.11301224 -0.07613773 -0.19525461 -0.188737 0.13012147
0.033715453 -0.17655781 -0.31709123 -0.07078972 0.10156452 -0.13332856 0.1493528 0.057066444
-0.17678238 -0.0928468 -0.15477365 -0.16520911 0.18643382 -0.08453415 -0.1093685 0.29055136
-0.18563107 -0.031718485 0.123508774 0.021801779 0.10200813 0.16936317 0.07236002 0.14312667
0.167068 -0.041500468 -0.16768345 -0.12875016 0.25214863 0.046244256 -0.23559535 -0.10306114
-0.11333372 -0.005495043 -0.12366785 0.30209485 -0.21421112 0.021910938 -0.22522868 0.2847175
0.05193983 -0.2341631 -0.14917916 -0.23126808 -0.30299538 -0.04258564 -0.3377786 0.31419235
-0.32204327 -0.1887357 -0.07530525 -0.17639224 0.09146805 0.31917393 0.014410869 0.1465599
0.15405467 0.24981323 0.082448706 -0.25904045 -0.16558078 0.18939552 0.25743636 -0.04027563
0.15835072 0.16191569 0.07578893 0.021472935 -0.10285052 0.19613968 0.08457869 -0.24347106

backbone.1.weight f4 [16, 16]
00000000: 2f0f 103e e05c 7c3e 7083 9d3e fd88 16be
00000010: e227 53bc 7088 a03e e577 ca3d fe4a e4bd
00000020: bdf8 ad3e d47a eabd 2f32 563e 44b1 acbd
00000030: 765d 52bc 2520 fcbc 23b0 2e3e 2f48 a6bd
00000040: 3f52 acbd 43de 00be 3b3f 63bd a550 103e
00000050: 56ad 7f3e 8015 97be 9409 243e ffe1 96bd
00000060: ec40 ccbc 8ac3 82bd bd83 e73d 8d4a f63d
00000070: 8882 5fbd 770d d2bd 0c96 9d3d 286a a33e
00000080: f5ef 1a3d bd57 f7bd a560 353d 58a6 a43c
00000090: 46a4 333e 41e4 a43e 564b 22be 4b03 b83e
000000a0: 33f3 913e 36be b5bd 9bf8 8e3e b8ce 493d
000000b0: 60a1 f5bc edaf 3b3d 94a5 bd3d 0c11 e0bd
000000c0: 6b2f 87be 3d60 713e db4a 9c3e 490f 8f3e
000000d0: d386 b6bd a9d7 f33d beed fdbd 72d0 a83d
000000e0: 5a73 aa3e a9c2 8fbd c94d a63e 5e52 90bd
000000f0: 617b 923e 215b 9f3e 1ddf 7d3d 9a4f 5fbe
00000100: 74b9 adbc 8595 2dbd 2929 223d bdc5 26be
00000110: a76f 7fbe 819b 733d 5b41 3c3e 059f d53d
00000120: 7214 163e 90de 82be 589d 233e 3697 6abe
00000130: 33ca 483e a4ba 9dbd 284e 5fbd e148 0d3e
00000140: b0b1 903e d176 88be 22a6 33be 9765 d63d
00000150: f32b 2abe a096 41be 0aa7 2f3e a9aa ddbd
00000160: 02ed 41be b309 4d3e f1f5 5c3e 46ab 573e
00000170: 0587 d8bd 418e b63d 23b4 1dbe 614b 983e
00000180: af7d a23e e77e 9dbe d35f 82bd 3a9a 3b3e
00000190: 2684 55be 1dc5 17be 400b e8bd 77a3 673d
000001a0: d104 19be 0809 043e f8bd 3d3e ba44 453d
000001b0: 2e56 0a3e 4483 af3d eb7f cebd 83d4 f7bd
000001c0: 0863 993d 35f6 8e3d 05be c93a 79f3 893e
000001d0: 5b3e 0c3d 6e7a 023e 22bb 5bbe 2ec5 ad3e
000001e0: 7e30 183e f542 78bc 80e4 bfbc 384b ef3d
000001f0: 6739 043d 7bef 863e b8c8 27be 7496 73be
00000200: 3725 213e 2a07 13be f5e8 fc3d 6392 bebd
00000210: 5303 513e 6f81 1fbe cb8f d03d afb9 ed3d
00000220: 4d02 17be b81d 30be f41f 4fbc 7c39 17bd
00000230: 45b9 04be ad3e 163e ec98 a2be e35f a53d
00000240: bdb5 80be 5208 a53c 8045 aa3e b2da 883e
00000250: 5a7f 1d3e 3400 babd 4530 f1bd 379e 443e
00000260: 3efc 623e e1bd a43e 3bc2 563e 61af f43d
00000270: d54a 3e3e d20d 173e f2d9 a73e 46c2 d9bd
00000280: a9dd 0dbe db18 813e 07c8 7c3e fcf7 323e
00000290: 9506 953e 1728 c23c bfb2 28bd 2fcd 033e
000002a0: b0a3 293e 2f06 03be 6294 5f3d e5ec cebc
000002b0: f8f6 fc3c 63cd 7e3d f6f5 a53e 97f9 bd3c
000002c0: b0cf 96bc 78c2 373e 7e9d de3d 9eb6 023e
000002d0: 481e 913e abd2 4c3d 1eaf bdbd 1531 77bd
000002e0: dc0b 21bc f8af 51bd 36ee 533e 535e 8c3c
000002f0: 56fb c5bd 4c8a 573d 9910 983e 1194 7e3d
00000300: ddce edbd defa a13e a3b2 a4bd 356a f13d
00000310: 641f 92bd 25b4 a23e e5f9 13be af85 5e3e
00000320: f57a b73d 6ab4 133e f1a7 653e 4f75 a83e
00000330: eb31 74bd 7df4 4a3e c021 04be db73 603c
00000340: 19b4 0a3e 0a38 90be dfbe 8cbe 9fc4 34be
00000350: 342c 20be a9de b3be a5e0 f43d 6ba7 aa3c
00000360: 3199 6dbe 1548 8e3e 74d7 043e cef5 1dbe
00000370: 3931 943e 0c3d 143d 83b6 223e 4018 2c3b
00000380: 222d 473c 4d1a c5bd f8c4 973e 4077 78bd
00000390: 04d5 62be e8c7 0c3e 780e e6bc 5e55 763e
000003a0: 8386 42bb 3eaf ab3e 222b 973e 1d94 1cbe
000003b0: 4abe 57bc 48aa 94be 1976 143e 80dd b63c
000003c0: e832 393e ce30 6dbc 4448 b3bc 6b56 9d3d
000003d0: 7e3c 95be b407 14bd 4aee 893d 2d4f 14be
000003e0: a948 8c3d 1c03 313e 346e 133e 9caa 65be
000003f0: e6af 52bd 1c72 3b3e fe85 04be a8a8 603e
0.14068292 0.24644804 0.3076434 -0.14700694 -0.012887927 0.31354094 0.09886149 -0.11147116
0.33978835 -0.11449209 0.20917581 -0.08432248 -0.012839666 -0.030777046 0.17059378 -0.08119237
-0.08414125 -0.12584786 -0.055480223 0.14093263 0.24968466 -0.2950859 0.16019279 -0.07367324
-0.0249333 -0.06384952 0.11304424 0.12025938 -0.054567844 -0.102564745 0.07694635 0.31916928
0.037826497 -0.120772816 0.04428162 0.02009885 0.17543134 0.32205394 -0.15849051 0.35940012
0.2850586 -0.088741705 0.27924046 0.049269408 -0.029984176 0.045822073 0.09260097 -0.109407514
-0.26403365 0.23571868 0.3052586 0.2794135 -0.089124344 0.11906368 -0.12398861 0.08242883
0.3329113 -0.0701955 0.3248122 -0.0704696 0.28609756 0.31124213 0.061980356 -0.2180771
-0.021206595 -0.04237892 0.039590035 -0.16286369 -0.24944936 0.059474472 0.18384306 0.10430721
0.14656237 -0.25560427 0.1597799 -0.22909245 0.19608383 -0.077016145 -0.054517895 0.13797332
0.28260565 -0.2665315 -0.17543843 0.104685955 -0.16618328 -0.18905115 0.17153564 -0.108235665
-0.18938068 0.20023231 0.21578194 0.2106143 -0.10572628 0.089138515 -0.15400748 0.2974501
0.31736514 -0.3076088 -0.06365933 0.18320552 -0.20851192 -0.14821286 -0.11330271 0.056552377
-0.14943244 0.1289407 0.18529499 0.048161246 0.13509437 0.08569959 -0.10082992 -0.1210108
0.07489592 0.06980554 0.0015391713 0.26943567 0.034239154 0.12742016 -0.21458104 0.339395
0.14862248 -0.015152683 -0.023424387 0.11684269 0.032281306 0.26354584 -0.16385162 -0.23787862
0.15736853 -0.14358202 0.123491205 -0.09305265 0.20411424 -0.15576719 0.10183676 0.11607682
-0.14746971 -0.17198837 -0.012641896 -0.036920056 -0.129613 0.14672346 -0.31757295 0.080749296
-0.25138655 0.020145569 0.3325615 0.2672935 0.15380612 -0.0908207 -0.11776785 0.19200979
0.22166535 0.32176116 0.2097253 0.11947513 0.18583234 0.14751366 0.32783467 -0.10632758
-0.13854088 0.25214276 0.2468568 0.17477411 0.29106584 0.023700757 -0.04118609 0.1287124
0.16566348 -0.12795328 0.05458487 -0.025259444 0.030879483 0.06220759 0.32414216 0.023190303
-0.01840958 0.17945278 0.10869883 0.12764975 0.28343415 0.050005596 -0.092619166 -0.060349543
-0.009829488 -0.051193208 0.20696339 0.017134821 -0.09667079 0.052622125 0.29700163 0.062152926
-0.11611722 0.3163671 -0.08041885 0.117878355 -0.071348935 0.31778064 -0.14450796 0.21730684
0.08958999 0.14424291 0.22427346 0.32902 -0.059617918 0.19819827 -0.129035 0.013699497
0.13545264 -0.28167754 -0.27489373 -0.1765313 -0.15641862 -0.35130814 0.1195691 0.020831784
-0.23202969 0.2778937 0.12972814 -0.15425798 0.28943804 0.03619103 0.15889935 0.0026259571
0.012156757 -0.09624157 0.29642463 -0.0606606 -0.22151572 0.13748133 -0.028083071 0.24056002
-0.0029682226 0.33532137 0.29525095 -0.15290876 -0.013167927 -0.29036164 0.14498176 0.022322416
0.18085825 -0.014476968 -0.021885045 0.076824985 -0.29147714 -0.03614016 0.06734903 -0.14483328
0.06849796 0.17286342 0.14397508 -0.22428364 -0.05143728 0.18305248 -0.12941739 0.21939337

backbone.2.weight f4 [1, 16]
00000000: 12e7 0f3e 287c 9cbe ed2d 3c3e 8105 843e
00000010: f8d8 913c 2534 37be 66db ccbd c066 5f3e
00000020: b4de 39be 9fde 6f3e 2844 243e 848e 6e3e
00000030: 066a 383e 4ec7 a4be f498 903e 7177 6ebe
0.1405299 -0.30563474 0.18376894 0.2578545 0.017803654 -0.17890985 -0.100027844 0.2181654
-0.18151361 0.23424767 0.16041625 0.23296553 0.18009195 -0.32183307 0.28241694 -0.23287751
