output/16/best.pth (torch, 714225 bytes, 4 tensors)

encoder.embeddings f4 [88656, 2]
0	0xbde7c0f4	-0.113161
1	0xbde4c538	-0.11170429
2	0xbdf5f09d	-0.12008784
3	0xbdf2cc8a	-0.11855419
4	0xbdf73afe	-0.12071799
5	0xbdf4b5fe	-0.11948775
6	0xbdf70437	-0.12061351
7	0xbdf4124a	-0.11917551
8	0xbdf73771	-0.120711215
9	0xbdf486bd	-0.11939762
10	0xbdf715f2	-0.120647326
11	0xbdf493d3	-0.11942258
12	0xbdf70a07	-0.120624594
13	0xbdf48641	-0.119396694
14	0xbdf54a68	-0.119770825
15	0xbdf3a51e	-0.11896728
16	0xbde75329	-0.112951584
17	0xbde4ac4d	-0.11165676
18	0xbdf6d44a	-0.1205221
19	0xbdf37123	-0.118868135
20	0xbdfb6590	-0.12275231
21	0xbdf848a8	-0.12123233
22	0xbdf67313	-0.120336674
23	0xbdf41d77	-0.119196825
24	0xbde81e39	-0.113338895
25	0xbde54920	-0.11195588
26	0xbde274da	-0.11057444
27	0xbddfe1e5	-0.10931758
28	0xbde9d93e	-0.11418389
29	0xbde757a0	-0.1129601
30	0xbdf65bbc	-0.12029216
31	0xbdf40d59	-0.11916608
32	0xbdfa5475	-0.1222314
33	0xbdf861b0	-0.121280074
34	0xbdf619fd	-0.120166756
35	0xbdf34beb	-0.118797146
36	0xbdf782a2	-0.12085463
37	0xbdf4a1ee	-0.11944948
38	0xbdf427c3	-0.119216464
39	0xbdf0e58e	-0.11762534
40	0xbdba3e35	-0.09093896
41	0xbdb78a2b	-0.089619
42	0xbd8b0e35	-0.06789819
43	0xbd89793a	-0.06712575
44	0xbd7e1f6c	-0.062041685
45	0xbd7a4c6e	-0.061108045
46	0xbd8c23ee	-0.068427905
47	0xbd8a1709	-0.06742675
48	0xbdba4f9b	-0.09097215
49	0xbdb76cb5	-0.08956281
50	0xbdf3bad5	-0.1190087
51	0xbdf09f28	-0.11749107
52	0xbdf76435	-0.1207966
53	0xbdf526a4	-0.11970261
54	0xbdf63a06	-0.12022786
55	0xbdf48f7d	-0.11941431
56	0xbdd32d7f	-0.10311412
57	0xbdd17622	-0.1022761
58	0xbd8151ff	-0.06314468
59	0xbd7ebd03	-0.062191974
60	0xbd221644	-0.039572015
61	0xbd221a9b	-0.039576154
62	0xbce30b9e	-0.0277155
63	0xbce626e7	-0.028094722
64	0xbd1c880c	-0.038215682
65	0xbd1d566a	-0.03841249
66	0xbd7f850a	-0.062382735
67	0xbd7a58a9	-0.06111971
68	0xbdd51e7d	-0.10406206
69	0xbdd21b89	-0.10259158
70	0xbdf63374	-0.12021533
71	0xbdf3b529	-0.11899788
72	0xbdf6258b	-0.120188795
73	0xbdf3e4f4	-0.11908904
74	0xbdd2aef0	-0.10287273
75	0xbdd099eb	-0.101856075
76	0xbd7d07d0	-0.06177503
77	0xbd77f4e1	-0.06053627
78	0xbd187011	-0.03721625
79	0xbd197c40	-0.03747201
80	0xbcde2f61	-0.027122201
81	0xbce662e0	-0.02812332
82	0xbd0ecc91	-0.03486306
83	0xbd11540b	-0.03548054
84	0xbd7bdfbe	-0.061492674
85	0xbd778dcc	-0.060437962
86	0xbdd43a45	-0.103626765
87	0xbdd0f1bc	-0.10202357
88	0xbdf69fac	-0.12042174
89	0xbdf40fd3	-0.11917081
90	0xbdf76f05	-0.12081722
91	0xbdf41e9e	-0.11919902
92	0xbdead6db	-0.11466762
93	0xbde7b4b8	-0.11313766
94	0xbda37ec3	-0.07983162
95	0xbda13de1	-0.078731306
96	0xbd61fbc8	-0.055171758
97	0xbd6132fc	-0.054980263
98	0xbd3bf7c1	-0.045890573
99	0xbd3bbd63	-0.04583491
100	0xbd62a2bb	-0.055330973
101	0xbd605028	-0.054763943
102	0xbda6072c	-0.08106837
103	0xbda2cde9	-0.079494305
104	0xbdedd3a0	-0.1161263
105	0xbdeac144	-0.11462644
106	0xbdf7742d	-0.12082706
107	0xbdf40e77	-0.119168214
108	0xbdf697ca	-0.1204067
109	0xbdf54225	-0.11975507
110	0xbdf9714a	-0.12179811
111	0xbdf84cae	-0.121240005
112	0xbdebd465	-0.115151204
113	0xbde916fc	-0.11381337
114	0xbdc7e94c	-0.09761295
115	0xbdc4ba94	-0.096058995
116	0xbdb91170	-0.09036529
117	0xbdb662a7	-0.08905535
118	0xbdc8c5e5	-0.098033704
119	0xbdc620c8	-0.09674221
120	0xbdecdcab	-0.115655266
121	0xbde9878c	-0.11402807
122	0xbdfa7b1c	-0.122305125
123	0xbdf73385	-0.120703734
124	0xbdf88599	-0.12134857
125	0xbdf4655b	-0.119333945
126	0xbdf4bb17	-0.11949747
127	0xbdf3aa02	-0.11897661
128	0xbdf9c139	-0.121950574
129	0xbdf89ea4	-0.12139633
130	0xbdfaa572	-0.122385874
131	0xbdf85a16	-0.121265575
132	0xbdfa4db5	-0.12221853
133	0xbdf79edf	-0.12090849
134	0xbdf9de86	-0.12200646
135	0xbdf6bea6	-0.12048082
136	0xbdfa2cce	-0.12215577
137	0xbdf7b35b	-0.12094756
138	0xbdfb76e4	-0.12278536
139	0xbdf8be6d	-0.12145696
140	0xbdfb2b5b	-0.12264129
141	0xbdf86f65	-0.12130622
142	0xbdf6b23a	-0.12045713
143	0xbdf2bfc6	-0.11852984
144	0xbde729af	-0.112872474
145	0xbde4df3a	-0.111753896
146	0xbdf5a187	-0.119936995
147	0xbdf3bcff	-0.119012825
148	0xbdf6c358	-0.120489776
149	0xbdf434ca	-0.11924131
150	0xbdf7cfce	-0.121001825
151	0xbdf549fd	-0.11977003
152	0xbdf7d6c1	-0.12101508
153	0xbdf4c3d4	-0.11951414
154	0xbdf73d84	-0.1207228
155	0xbdf5996f	-0.11992156
156	0xbdf7d6b5	-0.12101499
157	0xbdf55680	-0.11979389
158	0xbdf6bb7c	-0.120474786
159	0xbdf3dee8	-0.1190775
160	0xbde84976	-0.113421366
161	0xbde48b19	-0.11159343
162	0xbdf6b78b	-0.12046727
163	0xbdf34284	-0.11877921
164	0xbdfb303b	-0.122650586
165	0xbdf7e791	-0.12104715
166	0xbdfb2ae4	-0.1226404
167	0xbdf833d5	-0.12119261
168	0xbdfaeabb	-0.122518025
169	0xbdf80311	-0.1210996
170	0xbdfaa0e4	-0.12237719
171	0xbdf86cfc	-0.12130162
172	0xbdfaf6ad	-0.12254081
173	0xbdf85d55	-0.12127177
174	0xbdfaa48f	-0.12238418
175	0xbdf90b29	-0.12160332
176	0xbdf99866	-0.12187271
177	0xbdf86f3e	-0.12130593
178	0xbdf554d1	-0.11979068
179	0xbdf2fc6f	-0.11864554
180	0xbdfb9007	-0.122833304
181	0xbdf881ba	-0.121341184
182	0xbdfc1053	-0.12307801
183	0xbdf8ac2e	-0.12142216
184	0xbdede939	-0.11616749
185	0xbdeaedfc	-0.11471173
186	0xbdd6922d	-0.104770996
187	0xbdd413c2	-0.10355331
188	0xbdd494e5	-0.10379962
189	0xbdd214be	-0.102578625
190	0xbdd7b681	-0.10532857
191	0xbdd4ec64	-0.103966504
192	0xbdee054d	-0.11622105
193	0xbdebf685	-0.11521629
194	0xbdfab2db	-0.12241145
195	0xbdf9159f	-0.12162327
196	0xbdfb165f	-0.12260126
197	0xbdf83c6d	-0.121209
198	0xbdfa6e15	-0.12228028
199	0xbdf7c618	-0.1209833
200	0xbde1b8bd	-0.11021564
201	0xbddec9cf	-0.10878336
202	0xbd975db2	-0.07390918
203	0xbd94d167	-0.07266503
204	0xbd5f1998	-0.054467767
205	0xbd5b1722	-0.053488858
206	0xbd4efc65	-0.05053367
207	0xbd4c1295	-0.04982241
208	0xbd601926	-0.054711483
209	0xbd5c91ce	-0.053849988
210	0xbd97754b	-0.07395419
211	0xbd94a6da	-0.07258387
212	0xbde11372	-0.10990037
213	0xbdde0e03	-0.10842516
214	0xbdfab801	-0.12242127
215	0xbdf7e8d5	-0.12104956
216	0xbdf384d2	-0.11890568
217	0xbdf1c5e9	-0.118053265
218	0xbdb82a27	-0.08992415
219	0xbdb635e7	-0.08897
220	0xbd360b71	-0.044444505
221	0xbd30d7d6	-0.043174587
222	0xbb826693	-0.003979513
223	0x39c5aa31	0.0003770157
224	0xbb2218a5	-0.0024733928
225	0x3ba63c4d	0.0050731064
226	0xb91f1fa8	-0.00015175215
227	0xbb0bdd73	-0.002134171
228	0xbd355264	-0.044268027
229	0xbd2fc73b	-0.04291461
230	0xbdb9a8a2	-0.09065367
231	0xbdb78dc8	-0.089625895
232	0xbdf4fa15	-0.11961762
233	0xbdf292e1	-0.11844421
234	0xbdf2e3eb	-0.11859878
235	0xbdf0a9f8	-0.11751169
236	0xbdb599c6	-0.088672206
237	0xbdb38af0	-0.087667346
238	0xbd23b41d	-0.03996669
239	0xbd1bd4ea	-0.038044848
240	0xbba5c125	-0.005058425
241	0xb7d3a4d1	-2.5229909e-05
242	0xbb3c37f3	-0.0028719872
243	0xbb2736d4	-0.0025514858
244	0xbc08fa52	-0.008360462
245	0xbc2e177d	-0.010625717
246	0xbd27a5e6	-0.040929697
247	0xbd1c8efd	-0.0382223
248	0xbdb77090	-0.089570165
249	0xbdb4361f	-0.08799385
250	0xbdf38c84	-0.118920356
251	0xbdf070de	-0.11740278
252	0xbdf97334	-0.121801764
253	0xbdf67e10	-0.12035763
254	0xbdd393c0	-0.103309155
255	0xbdd103e1	-0.10205818

backbone.0.weight f4 [16, 16]
0	0xbe95d5a2	-0.2926455
1	0xbea3c832	-0.31988674
2	0x3dc22be4	0.09481028
3	0xbd32adba	-0.04362271
4	0xbe8f1582	-0.27946097
5	0x3d44a772	0.04801125
6	0xbd88bcdd	-0.06676648
7	0x3e9515a9	0.29118088
8	0xbe1a43b7	-0.15064894
9	0x3d63cede	0.055617206
10	0xbdcc14e0	-0.09964919
11	0x3e780aa1	0.24222805
12	0x3e2de9e1	0.16983749
13	0xbe03da72	-0.12876299
14	0xbe7bd666	-0.24593505
15	0x3e1c2570	0.15248656
16	0xbe73e070	-0.23816085
17	0xbeb1a119	-0.3469322
18	0x3e03053a	0.12794963
19	0x3e246e6a	0.16057745
20	0xbe0cd25b	-0.13752119
21	0x3dc46b2a	0.095907524
22	0x3db4b342	0.08823253
23	0x3e3b3701	0.18282701
24	0xbe3c0dd5	-0.18364652
25	0x3df710bb	0.12063738
26	0x3dace21a	0.08441563
27	0xbd8f55bb	-0.06998774
28	0x3e827de2	0.25486666
29	0xbeb10873	-0.3457676
30	0x3da0291d	0.07820342
31	0xbddb5a12	-0.10710539
32	0x3e16c837	0.14724813
33	0x3cb736ae	0.02236494
34	0xbe97c0cc	-0.2963928
35	0xbdcb8f7a	-0.09939475
36	0xbdcc45cd	-0.09974251
37	0xbe2c691c	-0.16836971
38	0x3e3bac0e	0.18327352
39	0xbdcb377c	-0.09922692
40	0x3d0006bf	0.031256434
41	0x3d9ebd1d	0.07750914
42	0x3e66329d	0.22480245
43	0xbe3fc79d	-0.1872849
44	0x3c1831f8	0.009289257
45	0x3e349778	0.17635906
46	0x3e8ef6c4	0.27922642
47	0xbc16706b	-0.009182076
48	0x3e310bab	0.17289607
49	0xbc1745b9	-0.009232932
50	0x3e526fa9	0.20550407
51	0xbdd8e99b	-0.10591432
52	0x3e1e54cc	0.15462035
53	0x3dcddcd1	0.10051883
54	0xbd491c00	-0.04909897
55	0xbdfadf93	-0.12249675
56	0xbd83658e	-0.064158544
57	0xbe3c3ae8	-0.18381846
58	0xbe215203	-0.15753941
59	0xbe03b7ea	-0.12863126
60	0x3e2565ed	0.16152163
61	0xbde004a2	-0.10938384
62	0x3d3e3ed8	0.04644665
63	0xbe67fa03	-0.22653966
64	0xbbfd128b	-0.0077231578
65	0xbe320512	-0.17384747
66	0x3d28d84e	0.04122191
67	0xbdb36d26	-0.08761053
68	0xbdccee91	-0.100064404
69	0xbe3a7a19	-0.18210639
70	0xb9756d2d	-0.00023405692
71	0xbe00aad1	-0.12565161
72	0xbe4a2d5f	-0.1974387
73	0xbdafa1f0	-0.08575809
74	0xbdd70654	-0.10499254
75	0x3e8d8478	0.27640128
76	0x3da36e3c	0.0798001
77	0xbe4f9de1	-0.2027507
78	0xbe4fd57a	-0.20296279
79	0x3d70373d	0.05864643
80	0xbe6ad735	-0.22933657
81	0xbe885311	-0.26625875
82	0xbc8b67c4	-0.017017253
83	0x3ea7b505	0.32755294
84	0xbc05917b	-0.008152361
85	0xbe6a8df2	-0.2290571
86	0x3e975311	0.29555562
87	0xbd7ae9af	-0.061258014
88	0xbea7861c	-0.32719505
89	0x3dedd3d3	0.11612668
90	0xbea9e67d	-0.3318366
91	0x3e7c6578	0.24648082
92	0x3e835857	0.25653335
93	0xbe2acf43	-0.16680627
94	0xbe38ac8f	-0.18034576
95	0x3e6358be	0.22201821
96	0xbdbd37f9	-0.092391916
97	0x3e4ee8c7	0.20205985
98	0x3d542b16	0.051798902
99	0x3e669fc4	0.22521883
100	0xbd9308c9	-0.0717941
101	0x3d168d13	0.036755633
102	0xbdecbef7	-0.11559861
103	0xbe1bcb66	-0.15214309
104	0xbcb746f4	-0.0223727
105	0xbe8e240f	-0.27761886
106	0xbe6c2151	-0.23059584
107	0xbe330ac8	-0.17484581
108	0xbe875786	-0.26433963
109	0x3d88636f	0.066595905
110	0x3da3f5e0	0.08005881
111	0x3cfcf22b	0.030877193
112	0xbccaa388	-0.02473618
113	0x3db94644	0.09046605
114	0xbe0ce248	-0.13758194
115	0x3ad385c6	0.001613789
116	0x3e09421d	0.13404126
117	0x3e58d562	0.21175149
118	0xbdb9db63	-0.09075048
119	0xbe864b9e	-0.26229566
120	0xbe35de7a	-0.1776065
121	0xbd9b7bbe	-0.07591961
122	0x3e634460	0.22194052
123	0x3e3d08b5	0.18460353
124	0x3d56cd55	0.052441914
125	0x3db2cb2b	0.087301575
126	0xbd0819ee	-0.033227853
127	0xbd706f56	-0.05869993
128	0xbea70e04	-0.3262788
129	0xbe94a2d6	-0.29030484
130	0x3e2b1712	0.1670802
131	0x3d73c54c	0.05951433
132	0xbde99734	-0.11405793
133	0xbe44ac71	-0.19206406
134	0x3e19d426	0.15022334
135	0x3e01c538	0.12672889
136	0xbe207c01	-0.15672304
137	0x3e56066f	0.20900892
138	0x3c38dec9	0.011283585
139	0x3e65a4c9	0.22426142
140	0x3ea64de7	0.3248131
141	0xbe9b30ab	-0.30310568
142	0x3da7bd52	0.08190407
143	0x3ea63d9b	0.32468876
144	0xbe9a1258	-0.3009212
145	0x3db48a6b	0.08815464
146	0x3e8024ab	0.25027975
147	0x3e65b4e5	0.22432287
148	0xbdaa9cea	-0.0833071
149	0x3c447f24	0.011993203
150	0x3e31d78b	0.1736738
151	0x3dd5bf63	0.10436895
152	0xbdf1306b	-0.11776813
153	0x3d98bf5b	0.07458373
154	0xbda2d922	-0.07951571
155	0x3ea0d1f8	0.31410193
156	0xbcec1e98	-0.028823182
157	0xbe5c5145	-0.21515377
158	0xbea23775	-0.31682935
159	0xbd421ba3	-0.047389638
160	0x3c277fcd	0.010223341
161	0xbe4415d6	-0.19148955
162	0xbdceb96a	-0.10093959
163	0x3c82555a	0.01590984
164	0xbe82c282	-0.25539023
165	0xbea9dbbf	-0.33175465
166	0x3d76ae04	0.060224548
167	0x3e8c5c3f	0.27414128
168	0xbd97367d	-0.0738344
169	0x3e9b0b8c	0.30282247
170	0xbe52b49e	-0.20576712
171	0x3e553107	0.20819484
172	0xbc3e57f4	-0.011617649
173	0xbe87f258	-0.2655208
174	0xbd51013c	-0.051026568
175	0x3df2a752	0.1184832
176	0xbe276467	-0.16346894
177	0xbe9f2980	-0.3108635
178	0x3e6b776f	0.22994779
179	0x3dc5544b	0.09635218
180	0xbea39cb3	-0.3195549
181	0xbdb79363	-0.08963659
182	0x3e9ef1db	0.31043896
183	0xbd874315	-0.06604592
184	0xbe73990a	-0.23788849
185	0x3d95c331	0.073126204
186	0x3da836f7	0.08213609
187	0x3e9fe2d6	0.3122775
188	0x3ce5f132	0.028069112
189	0x3df0699b	0.11738893
190	0xbe32c0f0	-0.17456412
191	0x3e9a2b53	0.3011118
192	0x3c80744e	0.015680458
193	0x3e3e1a65	0.18564756
194	0xbe58514d	-0.21124764
195	0x3dfb7bb4	0.12279454
196	0x3e50a818	0.20376623
197	0x3dafee91	0.08590425
198	0xbc920d2c	-0.017828546
199	0x3e00c5a1	0.1257539
200	0x3d593e4f	0.053037938
201	0x3d66fed5	0.05639537
202	0x3ca398f7	0.0199704
203	0xbe7f7116	-0.24945483
204	0xbe8f9881	-0.2804604
205	0xbde3c998	-0.11122435
206	0x3e4027a8	0.18765128
207	0xbe5cc39c	-0.21558994
208	0xbe911b67	-0.2834122
209	0xbddc6cb9	-0.10762925
210	0x3da77c44	0.08177999
211	0x3e9d113a	0.30677205
212	0x3d4adb0f	0.049525317
213	0xbe9ef313	-0.31044826
214	0x3e98fa51	0.29878476
215	0x3daadb09	0.08342559
216	0x3bb04d1a	0.005380285
217	0x3d379d96	0.04482802
218	0xbeb35a1e	-0.3502969
219	0xbd81ff77	-0.06347554
220	0x3e5195d4	0.20467311
221	0x3e0538ce	0.1300995
222	0xbe45fd66	-0.19334945
223	0x3e04bbda	0.12962285
224	0xbe460132	-0.19336393
225	0xbcc28f17	-0.023749871
226	0x3bbf612d	0.0058404417
227	0x3e8699d2	0.2628923
228	0xbe49f90a	-0.19723907
229	0xbbf96d15	-0.0076118805
230	0x3e528146	0.20557126
231	0xbca30057	-0.019897623
232	0x3d5fe6b3	0.05466337
233	0x3c8fbe00	0.017546654
234	0x3e36a68b	0.17836969
235	0x3e751678	0.23934352
236	0x3e092959	0.13394679
237	0xbe85ad91	-0.26108983
238	0x3d9adcb3	0.07561626
239	0x3e2a7abc	0.16648382
240	0xbdbb3a1d	-0.091419436
241	0xbe856db9	-0.26060274
242	0x3e74c9b3	0.23905067
243	0x3e5fa4b6	0.21840176
244	0xbdaec68f	-0.08533966
245	0xbda32dd9	-0.07967729
246	0xbc15ace9	-0.009135463
247	0x3eb33ee0	0.35008907
248	0x3ccf35a5	0.025294134
249	0x3d8f68c7	0.070024066
250	0xbe0f694d	-0.14005013
251	0xbd318c00	-0.043346405
252	0x3e486cf0	0.19572806
253	0xbe8f6230	-0.280046
254	0x3dd36b25	0.103231706
255	0x3e7cb1c5	0.24677189

backbone.1.weight f4 [16, 16]
0	0xbe6be5aa	-0.23036829
1	0x3cca3eef	0.024688212
2	0xbde30b22	-0.11086108
3	0x3e4b7386	0.19868287
4	0x3e34fc4c	0.17674369
5	0xbd3b8c99	-0.04578838
6	0xbe2eaf20	-0.17058992
7	0x3e82ca94	0.2554518
8	0xbe4725e9	-0.19448055
9	0xbbe0200d	-0.0068397583
10	0x3e09b499	0.13447799
11	0x3df61155	0.120150246
12	0xbe877f40	-0.26464272
13	0xbe6aaeec	-0.2291829
14	0xbcf080a0	-0.029358208
15	0xbd88f048	-0.06686455
16	0xbd09724a	-0.03355626
17	0x3d85ff5a	0.06542845
18	0xbe7311c2	-0.23737243
19	0x3e313a8f	0.17307495
20	0x3e92cc46	0.28671473
21	0x3cf4979f	0.029857455
22	0xbd50a0f4	-0.050934747
23	0xbd2f55b3	-0.04280634
24	0x3e7768e2	0.24161103
25	0xbd9d16c3	-0.07670357
26	0x3ea3af30	0.31969595
27	0x3e5617d8	0.20907533
28	0x3e41a9eb	0.18912475
29	0x3dc63b17	0.09679239
30	0x3e89ee2a	0.26939517
31	0xbdd30d1a	-0.10305233
32	0xbe007a6f	-0.12546705
33	0x3dfc7d28	0.12328559
34	0xbd9d7981	-0.07689191
35	0xb93904a9	-0.00017644711
36	0xbcf0c449	-0.029390471
37	0x3e9d7d82	0.30759817
38	0xbe0736f5	-0.13204558
39	0xbe86e126	-0.2634365
40	0x3cd58fe3	0.026069587
41	0x3e107cac	0.14110059
42	0xbc04cab0	-0.008104965
43	0xbdb8e192	-0.09027399
44	0xbe1f082a	-0.15530458
45	0x3e587e80	0.21142006
46	0x3ea5028a	0.322285
47	0x3e94037a	0.28908902
48	0x3daf9feb	0.08575424
49	0x3e27398a	0.16330543
50	0x38035389	3.1310632e-05
51	0xbe024965	-0.1272331
52	0x3ce17bb5	0.027524808
53	0x3be13eeb	0.0068739555
54	0x3e37faab	0.17966716
55	0xbdca4868	-0.09877092
56	0xbe0f9ace	-0.14023897
57	0xbe3646b5	-0.1780041
58	0x3d887906	0.066637084
59	0xbc2b9ca2	-0.010474356
60	0xbde6c453	-0.112679146
61	0xbe938c8e	-0.28818172
62	0x3dad4697	0.084607296
63	0xbe881ec5	-0.26585975
64	0x3bbc11da	0.0057394328
65	0xbd370ea0	-0.04469168
66	0xbda15ee0	-0.07879424
67	0x3cd82584	0.026385076
68	0x3e4e462c	0.20143956
69	0x3c99d1f1	0.018776866
70	0x3c688968	0.014192916
71	0xbe398f0c	-0.18120974
72	0x3dc9dbb2	0.09856357
73	0x3dc03ac7	0.09386211
74	0x3d8013d2	0.062537804
75	0x3e6c2c4b	0.23063771
76	0x3e6a1ff8	0.22863758
77	0x3e503f85	0.20336731
78	0x3dc650fa	0.09683414
79	0x3ce2acc2	0.027670268
80	0x3e184fa6	0.14874133
81	0xb9e00b29	-0.00042732924
82	0xbd133979	-0.035943482
83	0x3e310176	0.17285714
84	0x3df4d24f	0.11954176
85	0xbea6e7ef	-0.32598826
86	0xbe09b29c	-0.1344704
87	0xbdb441e7	-0.088016324
88	0xbe45cb19	-0.19315757
89	0x3e49191f	0.19638489
90	0xbe486e73	-0.19573383
91	0xbdd73922	-0.10508944
92	0xbda4e642	-0.08051731
93	0xbe8922b4	-0.2678429
94	0x3e8c28a7	0.27374765
95	0x3e771d3d	0.24132247
96	0xbd1113e8	-0.035419375
97	0x3e167003	0.14691167
98	0x3c858053	0.016296541
99	0x3dc681ee	0.09692751
100	0xbdf33f18	-0.118772686
101	0x3e70804e	0.23486444
102	0xbd5e3e7e	-0.054258816
103	0x3dfc821b	0.12329503
104	0xbea17351	-0.31533292
105	0xbe616de6	-0.22014579
106	0x3ca32186	0.019913446
107	0x3c5e18df	0.013555734
108	0x3e01d88a	0.1268026
109	0xbe76130f	-0.24030708
110	0x3e7a654b	0.24452703
111	0xbe9b3a57	-0.30317947
112	0x3e9f9bde	0.31173605
113	0x3e5c17d2	0.21493462
114	0xbe6c8e81	-0.23101236
115	0xbe8d9ba0	-0.27657795
116	0x3e16cb2d	0.14725943
117	0x3e9ee25b	0.3103207
118	0x3e1df150	0.15424085
119	0xbe55ce3e	-0.20879456
120	0x3e2d73a8	0.1693865
121	0x3e9d392c	0.3070768
122	0xbdfeb9a3	-0.12437751
123	0xbdc451dd	-0.09585927
124	0xbeaab01a	-0.3333748
125	0x3d862fd2	0.0655209
126	0xbb1775da	-0.0023111016
127	0x3d117a9b	0.035517316
128	0xbdfbbd4e	-0.122919664
129	0x3dfcf068	0.12350541
130	0xbe4340c8	-0.19067681
131	0x3da7ebc8	0.081992686
132	0x3e999dba	0.30003148
133	0x3dd1952f	0.10233533
134	0xbdd52e9c	-0.10409281
135	0x3e3f123c	0.186593
136	0x3cf18f40	0.029487252
137	0x3d910a5d	0.07082055
138	0x3e94889c	0.29010475
139	0x3e89bf34	0.2690369
140	0xbe0d885d	-0.1382155
141	0x3dec9862	0.11552502
142	0x3ddd688c	0.10810956
143	0x3e1319c4	0.14365298
144	0xbdd6a5ab	-0.104808174
145	0x3e8460d4	0.25855124
146	0x3d9be40d	0.076118566
147	0xbdea4ae9	-0.11440069
148	0x3de244b6	0.11048262
149	0x3dd3bbae	0.103385314
150	0xbe46f3b7	-0.19428907
151	0x3d994635	0.07484094
152	0x3cb70630	0.022341818
153	0x3e47ddca	0.195182
154	0xbddb49d1	-0.10707439
155	0x3dbf6788	0.09345919
156	0x3dd64060	0.10461497
157	0x3e728786	0.2368451
158	0x3de48780	0.11158657
159	0xbd689c70	-0.056789815
160	0x3df76174	0.120791346
161	0x3d8148e7	0.06312733
162	0xbe902675	-0.2815434
163	0xbdd2cac0	-0.10292578
164	0x3e061521	0.13093998
165	0x3db1f107	0.086885504
166	0xbd909e31	-0.070614226
167	0xbdce49e5	-0.10072688
168	0x3d1084c7	0.035282876
169	0x3e60fdcc	0.21971816
170	0x3e6ab7f2	0.22921732
171	0x3e88909b	0.26672825
172	0xbd00c484	-0.031437412
173	0x3ddef460	0.108864546
174	0x3cbe532d	0.02323302
175	0x3e87c96d	0.26520863
176	0x3c76e793	0.01506986
177	0x3e5e0565	0.21681745
178	0x3dc47960	0.09593463
179	0x3d7a6c87	0.061138656
180	0xbb8f92f1	-0.0043815305
181	0x3e551087	0.20807086
182	0x3da194b7	0.07889693
183	0xbd7dbf76	-0.06195017
184	0x3e558987	0.20853244
185	0x3e951acc	0.29122007
186	0x3e95461d	0.29155055
187	0x3e624a6b	0.220987
188	0x3ce60a85	0.028081188
189	0x3ba3309e	0.004980161
190	0x3d8ef5a4	0.06980446
191	0x3c436ed8	0.011928283
192	0xbdeba059	-0.11505193
193	0xbd48f789	-0.049064193
194	0xbc9cc0f8	-0.019134983
195	0x3db5206d	0.08844075
196	0xbe02847f	-0.12745856
197	0xbdb3dfb2	-0.08782901
198	0x3d4a2206	0.049348854
199	0xbbf22cd6	-0.0073905988
200	0x3be21334	0.006899262
201	0xbe016152	-0.12634781
202	0xbe0b9392	-0.13630512
203	0x3e82e801	0.2556763
204	0xbe799241	-0.24372198
205	0xbd111d60	-0.035428405
206	0xbd2753a3	-0.040851247
207	0xbc57c557	-0.013169608
208	0xbe4d8458	-0.20070016
209	0x3e57d0e1	0.21075775
210	0x3e7192f8	0.2359122
211	0x3e0b6d63	0.13615946
212	0xbe093b63	-0.1340156
213	0x3e3724dd	0.17885156
214	0x3dbb1323	0.091345094
215	0x3d0c7ee4	0.0343007
216	0xbea5cfb1	-0.32385018
217	0xbde56146	-0.11200194
218	0x3e8b15d7	0.271651
219	0xbd52236e	-0.05130332
220	0xb9977106	-0.00028885173
221	0xbe9c8866	-0.30572814
222	0x3d3b078d	0.045661498
223	0xbe730520	-0.23732424
224	0x3ea4d943	0.32197008
225	0x3d7a1bf2	0.061061807
226	0xbe6c6efc	-0.23089212
227	0xbe7acc00	-0.24491882
228	0x3dc5e4d4	0.09662786
229	0x3ea2a950	0.317698
230	0xbdbb3aaf	-0.091420524
231	0xbe1a326b	-0.15058295
232	0x3dd344a4	0.103158265
233	0x3dd486da	0.103772834
234	0x3eb151bc	0.3463267
235	0x3e593764	0.21212536
236	0xbe9d4de0	-0.30723476
237	0x3eae53a6	0.34048194
238	0x3cf40be3	0.029790824
239	0x3e66674a	0.22500339
240	0xbea3b2ba	-0.31972295
241	0xbd980acf	-0.074239366
242	0xbe2bae2f	-0.16765665
243	0x3e516a80	0.20450783
244	0xbd8ef1b1	-0.06979693
245	0x3e2be6e4	0.16787297
246	0x3e589e47	0.21154128
247	0x3c84cd55	0.016211191
248	0x3bad09c6	0.005280706
249	0xbd927eb9	-0.07153077
250	0x3d84057d	0.06446359
251	0xbe8c50fd	-0.2740554
252	0x3d49d8b8	0.049278945
253	0x3b3477ae	0.0027537155
254	0xbd2437e5	-0.040092368
255	0xbe062033	-0.1309822

backbone.2.weight f4 [1, 16]
0	0xbd599ecf	-0.053129967
1	0x3df312f6	0.11868851
2	0x3e5c8876	0.2153643
3	0xbdf55b49	-0.11980302
4	0x3e980562	0.29691607
5	0xbea85012	-0.3287359
6	0xbe6c2d63	-0.23064189
7	0x3e80ed84	0.2518121
8	0x3e630d0a	0.22172943
9	0x3dbe053f	0.09278344
10	0x3e8c3853	0.27386722
11	0x3e74fd17	0.23924671
12	0xbd74132f	-0.059588607
13	0xbe38dfc9	-0.18054117
14	0x3eae251e	0.34012693
15	0xbdff6e8b	-0.12472256
