output/38/best.pth (torch, 714225 bytes, 4 tensors)

encoder.embeddings f4 [88656, 2]
0.09569905 0.10869805 0.10873169 0.117164075 0.1087573 0.117254764 0.1081985 0.11789739
0.10811461 0.117889106 0.10775266 0.11788811 0.109241545 0.11767363 0.10757589 0.11712699
0.10023397 0.109341696 0.106201716 0.11716243 0.113753535 0.1199957 0.113352254 0.11973356
0.11406744 0.119989045 0.11249105 0.11986048 0.113025606 0.11990114 0.11120734 0.119992174
0.111008614 0.11977016 0.10857337 0.11692401 0.1060644 0.11758483 0.11347232 0.11995961
0.114370994 0.119984545 0.1142372 0.1199458 0.11477537 0.1199094 0.115373105 0.119925454
0.11133306 0.11985106 0.112058766 0.12000045 0.11194756 0.11711105 0.10677743 0.11762654
0.114596315 0.1200279 0.11444943 0.11970618 0.114983216 0.120055184 0.11432827 0.11985084
0.11540802 0.11974606 0.114269584 0.11960765 0.11397887 0.11914218 0.11147584 0.11707333
0.111155115 0.11669502 0.11631253 0.11919189 0.11655575 0.119664565 0.11479122 0.12021994
0.11186677 0.120213576 0.11291074 0.120064944 0.11349881 0.12001386 0.113663934 0.11963645
0.111080006 0.11748546 0.11018079 0.1169378 0.11379021 0.11966723 0.11179356 0.11998702
0.11495308 0.12022792 0.11404411 0.11988809 0.11326009 0.11995321 0.112920135 0.120194934
0.11387451 0.11969657 0.11116382 0.11714451 0.110057585 0.11760965 0.113810964 0.11963373
0.11336439 0.11981103 0.114176124 0.11973147 0.11558344 0.119791575 0.11321758 0.120030515
0.11093469 0.12026623 0.11286187 0.120064445 0.10879893 0.11732766 0.10744589 0.11727472
0.11259482 0.119473785 0.11375924 0.12020957 0.11305604 0.12014219 0.11360563 0.11942026
0.11377997 0.11954126 0.11317071 0.1197858 0.11408658 0.119567424 0.107545525 0.11724408
0.09559401 0.11031388 0.10532257 0.11711825 0.10472169 0.11812495 0.11002198 0.11800365
0.11061655 0.11749177 0.10925129 0.11663414 0.10992931 0.11738105 0.10759343 0.11725463
0.09816702 0.10992816 0.1060544 0.11675185 0.11424178 0.11952082 0.112692684 0.11982764
0.11463148 0.1196338 0.11276031 0.11991784 0.11235033 0.11979883 0.11199223 0.11988325
0.11318397 0.11987726 0.10668529 0.11701014 0.11194434 0.11974952 0.117294386 0.12045783
0.11502399 0.12035263 0.11710591 0.120504245 0.114349306 0.12067547 0.11461954 0.12073162
0.11419314 0.12066791 0.113618545 0.12078785 0.11357247 0.11966503 0.11265301 0.119811706
0.11633104 0.12045856 0.11718514 0.1203294 0.117848784 0.120291494 0.117342584 0.12065322
0.11488747 0.12070559 0.11337918 0.120692134 0.11316117 0.120684884 0.11481887 0.119847365
0.111634575 0.119895935 0.11426406 0.12063047 0.116320014 0.120234184 0.11628984 0.1206846
0.11575339 0.12069499 0.11543293 0.12082163 0.11448991 0.12056811 0.11601254 0.12031038
0.114198126 0.11953745 0.11360485 0.11955534 0.11582544 0.12023138 0.11774431 0.12019784
0.11532166 0.12053067 0.113794 0.12090057 0.11434558 0.12076712 0.11579643 0.12058383
0.115628295 0.120518334 0.11329107 0.11980296 0.114386514 0.119293675 0.11690145 0.120198876
00000000: ddfd c33d 159d de3d b8ae de3d b8f3 ef3d
00000010: 26bc de3d 4423 f03d 2d97 dd3d 3074 f13d
00000020: 316b dd3d d86f f13d 6dad dc3d 526f f13d
00000030: 08ba df3d dffe f03d c050 dc3d 46e0 ef3d
00000040: 7847 cd3d 8aee df3d 4980 d93d dbf2 ef3d
00000050: 9df7 e83d 4ec0 f53d 3a25 e83d de36 f53d
00000060: 319c e93d d1bc f53d b561 e63d 6979 f53d
00000070: f879 e73d bb8e f53d adc0 e33d 75be f53d
00000080: 7c58 e33d 0f4a f53d b75b de3d db75 ef3d
00000090: 4b38 d93d 51d0 f03d 2d64 e83d 62ad f53d
000000a0: 573b ea3d 75ba f53d 31f5 e93d 25a6 f53d
000000b0: 590f eb3d 0f93 f53d bc48 ec3d 7a9b f53d
000000c0: 9602 e43d 7974 f53d 117f e53d ccc2 f53d
000000d0: c344 e53d ebd7 ef3d 20ae da3d 2fe6 f03d
000000e0: 79b1 ea3d 30d1 f53d 7664 ea3d 8428 f53d
000000f0: 527c eb3d 7edf f53d f124 ea3d 5b74 f53d
00000100: 0a5b ec3d 6c3d f53d 2c06 ea3d dbf4 f43d
00000110: c16d e93d d100 f43d 724d e43d 24c4 ef3d
00000120: 4ba5 e33d ccfd ee3d 4435 ee3d e11a f43d
00000130: c8b4 ee3d b212 f53d a917 eb3d df35 f63d
00000140: 681a e53d 8932 f63d bf3d e73d 9ce4 f53d
00000150: 1072 e83d d4c9 f53d a3c8 e83d f503 f53d
00000160: ea7d e33d 389c f03d 77a6 e13d 167d ef3d
00000170: d70a e93d 1814 f53d 06f4 e43d c1bb f53d
00000180: 856c eb3d 0e3a f63d f58f e93d e387 f53d
00000190: e8f4 e73d 07aa f53d ac42 e73d c328 f63d
000001a0: 0a37 e93d 7a23 f53d dba9 e33d 76e9 ef3d
000001b0: df65 e13d 54dd f03d b915 e93d 8702 f53d
000001c0: 972b e83d 7c5f f53d 2cd5 e93d c635 f53d
000001d0: 03b7 ec3d 4955 f53d 9ede e73d 8fd2 f53d
000001e0: ba31 e33d 244e f63d 2024 e73d 59e4 f53d
000001f0: f9d1 de3d 7c49 f03d 970c dc3d ba2d f03d
00000200: 1d98 e63d acae f43d 9bfa e83d 6f30 f63d
00000210: ed89 e73d 1c0d f63d 12aa e83d 9c92 f43d
00000220: 7905 e93d 0cd2 f43d 0cc6 e73d 4252 f53d
00000230: 3aa6 e93d c4df f43d d440 dc3d aa1d f03d
00000240: cbc6 c33d 3eec e13d 5cb3 d73d b1db ef3d
00000250: 5378 d63d 7eeb f13d 3453 e13d e6ab f13d
00000260: ee8a e23d 869f f03d 24bf df3d e1dd ee3d
00000270: 9e22 e13d 7a65 f03d f259 dc3d 3223 f03d
00000280: ca0b c93d 0422 e13d 0d33 d93d 981b ef3d
00000290: 98f7 e93d 55c7 f43d 6ccb e63d 3268 f53d
000002a0: e9c3 ea3d 9102 f53d e1ee e63d 7c97 f53d
000002b0: ee17 e63d 1759 f53d 2f5c e53d 5985 f53d
000002c0: ffcc e73d 3582 f53d d17d da3d 03a3 ef3d
000002d0: 1343 e53d 3d3f f53d 0a38 f03d 98b2 f63d
000002e0: b391 eb3d 717b f63d 39d5 ef3d eeca f63d
000002f0: f82f ea3d b324 f73d a6bd ea3d 2442 f73d
00000300: 18de e93d bd20 f73d d7b0 e83d 9f5f f73d
00000310: af98 e83d f012 f53d 9fb6 e63d d75f f53d
00000320: f83e ee3d fab2 f63d c3fe ef3d 436f f63d
00000330: b45a f13d 635b f63d 4f51 f03d 0919 f73d
00000340: 1f4a eb3d 7e34 f73d 5833 e83d 702d f73d
00000350: 0bc1 e73d a329 f73d 2826 eb3d 8972 f53d
00000360: aba0 e43d 008c f53d 4703 ea3d 1c0d f73d
00000370: 3039 ee3d 573d f63d 5e29 ee3d 7d29 f73d
00000380: 1d10 ed3d ef2e f73d 1a68 ec3d 5571 f73d
00000390: b079 ea3d 6aec f63d fc97 ed3d 4a65 f63d
000003a0: b5e0 e93d 0dd0 f43d a9a9 e83d 6ed9 f43d
000003b0: e335 ed3d df3b f63d ee23 f13d 492a f63d
000003c0: c32d ec3d c9d8 f63d d40c e93d b89a f73d
000003d0: 042e ea3d c054 f73d ae26 ed3d a8f4 f63d
000003e0: 87ce ec3d 51d2 f63d 2605 e83d 415b f53d
000003f0: 7a43 ea3d 3e50 f43d 076a ef3d d42a f63d

backbone.0.weight f4 [16, 16]
-0.085750185 -0.23799053 0.019732323 -0.07438647 -0.12593263 -0.08330748 0.27866843 0.036819667
0.055013888 -0.0029939045 -0.16268401 0.018659266 -0.011229656 -0.019268017 -0.2678867 -0.26330343
-0.05077614 -0.29430723 0.08145626 -0.013039093 -0.17745903 0.081060305 0.23065606 -0.035078924
0.21435012 0.12521471 -0.1349632 -0.0892398 -0.044710334 0.0031675063 -0.03552281 -0.23221867
-0.21284537 0.0051481654 0.1384128 0.022332279 -0.1210349 0.2726439 -0.0021480555 0.018058395
-0.078767456 -0.065486416 0.2932056 0.15055034 0.013662475 -0.14320141 -0.055567008 0.18908383
-0.14963505 -0.076934956 -0.032636262 -0.047464926 -0.29147986 -0.22858693 0.04366892 -0.114832446
-0.19468164 -0.05758657 0.05841046 0.14769988 -0.051346567 -0.2668453 -0.048794523 0.16202384
0.24387152 0.20329759 -0.11608947 -0.21275266 0.059780058 0.17177273 0.23671043 0.13560547
-0.21628591 -0.106426835 -0.31513235 0.03185457 -0.04260071 0.15414836 0.29305872 0.2918962
0.1899414 0.13375753 -0.09007514 0.09698188 0.065747544 0.23908451 0.21476674 -0.16754302
0.23905094 -0.0837633 -0.10533314 0.14668426 0.30674753 0.32913044 -0.051392548 0.14304979
-0.22631015 0.3074463 -0.18941067 -0.031525906 -0.006979707 0.065329455 0.12251802 -0.017445454
-0.2812988 0.26691848 -0.091562666 0.082506575 -0.08631218 -0.21076414 -0.054699168 0.17202574
-0.1983338 -0.14141352 0.19189179 0.011616566 0.18692957 0.14584906 0.112922 -0.093464434
0.22596669 0.10317792 0.27510655 0.15562195 0.2915368 0.14583334 -0.32054824 -0.051298417
-0.20843318 -0.06978224 0.03276234 0.19639702 0.031364325 0.063352086 -0.09907884 0.09026757
-0.14269455 -0.19214247 -0.08984 -0.17094845 -0.16144454 0.21643496 0.1416102 -0.11487266
-0.08085789 0.11674775 -0.04017145 0.18378673 0.20544298 -0.059284914 0.18026903 0.0842094
0.09673619 -0.02576093 0.08267477 -0.14147466 -0.09551222 0.03294019 0.22799085 -0.24544397
0.15440997 0.31699648 -0.28347856 -0.2873611 -0.24892627 -0.19700108 0.010139382 -0.04869497
-0.14649552 0.15185788 -0.23898472 0.14086114 -0.16567181 -0.09360967 0.3365674 0.27717242
0.12363824 -0.17258842 -0.12497304 -0.023984022 -0.069178365 -0.047599 0.07835991 -0.22089677
0.05078533 0.19048804 0.14661889 0.17630127 0.118761964 0.23714504 -0.31255618 -0.12642333
-0.020700859 0.27366808 -0.072676085 -0.13625626 -0.30232316 0.039548416 0.17338958 -0.08708155
-0.08139023 0.16727819 -0.07846641 0.17936715 -0.23624033 -0.30152386 0.19415545 -0.042965073
0.22818738 -0.0107597 0.010205563 -0.2324414 0.21775961 -0.091148645 0.16061334 -0.079446666
0.18495125 -0.21003771 -0.01732266 -0.22775768 -0.116343625 -0.11290097 -0.28462306 -0.11900474
0.22594093 -0.19675276 0.08924644 -0.14681453 0.035870455 0.14606172 0.058689043 -0.3057437
-0.2542347 0.15306783 -0.02204534 0.12017205 0.2050223 0.3244605 0.023385165 -0.12826261
0.13766068 0.07918256 -0.2908357 -0.046564717 -0.018970903 -0.02564979 -0.22072878 -0.0918935
-0.22808576 0.19475843 0.08650618 -0.12201368 -0.21404015 -0.30169797 -0.12206985 0.0768648
00000000: cb9d afbd cab3 73be aea5 a13c ef57 98bd
00000010: 7cf4 00be 1d9d aabd a1ad 8e3e 38d0 163d
00000020: 3e56 613d 6235 44bb a396 26be 51db 983c
00000030: 97fc 37bc f6d7 9dbc 7228 89be b5cf 86be
00000040: a4fa 4fbd 70af 96be 8ad2 a63d eca1 55bc
00000050: d2b7 35be f202 a63d 1a31 6c3e ebae 0fbd
00000060: 997e 5b3e 4938 003e cb33 0abe 5bc3 b6bd
00000070: 2f22 37bd f095 4f3b 5e80 11bd bbca 6dbe
00000080: 23f4 59be f1b1 a83b 16bc 0d3e 2ff2 b63c
00000090: 25e1 f7bd fb97 8b3e 64c6 0cbb 33ef 933c
000000a0: d550 a1bd be1d 86bd 0b1f 963e de29 1a3e
000000b0: 93d8 5f3c 64a3 12be 3b9a 63bd 319f 413e
000000c0: ee39 19be 1390 9dbd 9aad 05bd 956a 42bd
000000d0: d93c 95be b112 6abe 2ede 323d 462d ebbd
000000e0: a05a 47be e5df 6bbd ce3f 6f3d a33e 173e
000000f0: c750 52bd f29f 88be c4dc 47bd 94e9 253e
00000100: 75b9 793e 3e2d 503e 51c0 edbd d5db 59be
00000110: efdb 743d 31e5 2f3e 3864 723e 29dc 0a3e
00000120: 0e7a 5dbe 50f6 d9bd 0759 a1be f079 023d
00000130: 157e 2ebd 11d9 1d3e cb0b 963e 6b73 953e
00000140: 0080 423e bcf7 083e 5179 b8bd 709e c63d
00000150: a6a6 863d 92d2 743e d0eb 5b3e 6690 2bbe
00000160: c5c9 743e 188c abbd e7b8 d7bd 6634 163e
00000170: 030e 9d3e c983 a83e fe80 52bd a57b 123e
00000180: d9bd 67be 9a69 9d3e dff4 41be 4f21 01bd
00000190: 07b6 e4bb 73cb 853d baea fa3d c5e9 8ebc
000001a0: 6506 90be 8aa9 883e 3585 bbbd 35f9 a83d
000001b0: 71c4 b0bd 8ed2 57be 3c0c 60bd 8427 303e
000001c0: 0418 4bbe b5ce 10be 487f 443e 6953 3e3c
000001d0: 776a 3f3e 7559 153e a643 e73d 486a bfbd
000001e0: d063 673e f24e d33d c4da 8c3e 5c5b 1f3e
000001f0: 5044 953e 5655 153e e61e a4be 4a1e 52bd
00000200: 826f 55be fee9 8ebd ce31 063d 4d1c 493e
00000210: e177 003d bdbe 813d d9e9 cabd 34de b83d
00000220: 851e 12be ffc0 44be 09fe b7bd 1c0d 2fbe
00000230: b851 25be 20a1 5d3e 4402 113e 5b42 ebbd
00000240: d298 a5bd 7219 ef3d d18a 24bd 9732 3c3e
00000250: a55f 523e bdd4 72bd 7298 383e fa75 ac3d
00000260: a01d c63d 9608 d3bc 6451 a93d bcde 10be
00000270: e99b c3bd 4bec 063d 6f76 693e aa55 7bbe
00000280: a61d 1e3e 5d4d a23e 1a24 91be fe20 93be
00000290: 87e6 7ebe a7ba 49be a71f 263c 6074 47bd
000002a0: ec02 16be a280 1b3e 69b8 74be e73d 103e
000002b0: dfa5 29be 6db6 bfbd 9052 ac3e 8be9 8d3e
000002c0: 0c36 fd3d 05bb 30be ddf1 ffbd 247a c4bc
000002d0: 63ad 8dbd 2bf7 42bd 297b a03d c332 62be
000002e0: 4704 503d 4c0f 433e 4323 163e 5288 343e
000002f0: 7939 f33d 26d6 723e 5d07 a0be 1e75 01be
00000300: d994 a9bc 391e 8c3e 33d7 94bd c386 0bbe
00000310: 1aca 9abe 85fd 213d 0a8d 313e d057 b2bd
00000320: ecaf a6bd f94a 2b3e ffb2 a0bd 06ac 373e
00000330: fce8 71be 5661 9abe b0d0 463e 25fc 2fbd
00000340: f4a9 693e 7449 30bc 3c35 273c 1e05 6ebe
00000350: 60fc 5e3e 24ac babd d377 243e efb4 a2bd
00000360: dc63 3d3e 2014 57be 40e8 8dbc 4f39 69be
00000370: 9145 eebd a038 e7bd 1dba 91be c2b8 f3bd
00000380: 0f5d 673e 8e79 49be d6c6 b63d 8c56 16be
00000390: e6ec 123d 3491 153e ec63 703d 708a 9cbe
000003a0: 0d2b 82be d0bd 1c3e 6e98 b4bc c41c f63d
000003b0: 5ef1 513e b01f a63e 3f92 bf3c 4657 03be
000003c0: ecf6 0c3e 772a a23d 6be8 94be a5ba 3ebd
000003d0: de68 9bbc 821f d2bc ba06 62be a932 bcbd
000003e0: 508f 69be c16e 473e 272a b13d 4fe2 f9bd
000003f0: 572d 5bbe 2878 9abe c2ff f9bd 4b6b 9d3d

backbone.1.weight f4 [16, 16]
0.24675478 0.019513626 0.123669036 0.18596455 -0.20440142 0.28253534 -0.25632083 0.116191894
0.053883266 -0.125559 0.04038157 0.15282236 -0.23998915 0.051860448 0.2261717 -0.06212023
-0.007255309 -0.08716815 0.14316787 0.33539566 0.2527369 0.016369995 -0.1263875 0.041723058
-0.07017988 -0.017874422 0.28643006 -0.061559282 -0.016772276 -0.12902212 -0.08640283 0.30532435
-0.18342778 -0.24904528 0.14978008 0.083120115 0.033130936 0.10819877 0.0057226773 -0.25104168
-0.14198135 -0.22525978 0.1531067 -0.058711063 0.24125001 0.034000017 -0.031729534 0.32867536
0.16966763 0.0649705 0.13088883 0.11844701 0.16284633 0.18998142 0.012126414 -0.037535947
-0.12606072 0.052249473 -0.18065038 -0.1338958 0.07443925 0.24963473 -0.19819812 0.023600299
0.13281645 -0.021964762 -0.17711191 0.088370614 0.12792255 0.08036471 -0.26764882 0.20889309
0.12539749 0.18980686 -0.10141319 0.2260169 0.056860056 0.20808369 0.20093639 -0.042822275
-0.08370386 0.137678 -0.079272464 -0.13219057 -0.03660359 0.18144996 0.17295365 -0.041656457
-0.11868182 -0.08850558 -0.19005337 0.21186471 -0.074033424 0.2649169 -0.017498523 0.188493
0.0651622 0.04299113 0.031398878 0.032476388 0.19391176 0.021280201 -0.09692748 0.1765693
-0.047054812 0.12612106 -0.23236714 -0.06373912 -0.036863476 0.09273514 0.26908126 0.09033199
-0.13177285 0.034776505 0.1392727 -0.035623323 0.20972918 -0.05374314 0.05307328 -0.18847068
0.016379565 -0.18705568 0.33499944 -0.07259981 0.28566098 -0.29812822 -0.007818207 0.31415308
-0.07220711 -0.25522938 -0.07400774 -0.087808564 -0.0016493461 -0.16864811 0.1773921 -0.21964109
0.009833894 0.14906211 0.3205304 0.16268173 -0.008267156 -0.08664664 0.006078522 0.16656823
0.26660094 0.21328515 0.15785392 -0.2575333 0.0955361 0.26904115 -0.18724367 0.23756151
0.004922186 0.2565179 0.02252781 0.21481831 -0.12128017 0.053246427 -0.11280617 0.1295728
-0.08288936 0.068733715 -0.13961703 0.00064395013 -0.0037364962 -0.06821196 -0.12826984 0.10377057
0.0003030338 -0.15741646 -0.16625954 -0.012282833 -0.13247006 0.05934508 -0.16320372 0.082745805
-0.04542525 0.009476503 0.15970293 -0.05865558 -0.013704689 0.037385195 -0.04239686 -0.036788523
-0.045664605 -0.0022908035 -0.19501387 -0.20634665 -0.08295361 -0.08668566 0.10529446 6.072561e-07
-0.24402432 -0.0973239 -0.119800135 0.28406075 0.04020895 -0.17075041 0.20186335 -0.24463597
-0.124071844 0.10166655 0.18255998 -0.0034229106 0.09743303 -0.123624556 0.15301049 0.17608757
0.054112144 -0.24209948 -0.08082959 0.030645147 0.12946029 0.17188546 0.0796126 -0.0076707485
0.020380279 -0.15901506 0.23202269 -0.22911133 0.14639924 -0.22889659 -0.006734453 -0.07884397
-0.30098453 0.20048282 0.13676928 0.32001293 0.17847222 -0.050720114 0.35014114 0.14430515
0.15423492 -0.21391547 0.17989473 -0.067676164 0.13291048 -0.13775754 -0.08022302 -0.07493792
0.3132284 0.17680432 0.0109348195 -0.030988159 0.12782371 0.11343134 -0.042297293 0.3345192
0.1261095 0.17684233 0.08290198 0.091280155 0.023684932 -0.08945678 -0.06668889 0.11504221
00000000: 49ad 7c3e 0adb 9f3c 3146 fd3d 7e6d 3e3e
00000010: 9b4e 51be 79a8 903e 7c3c 83be 04f6 ed3d
00000020: b3b4 5c3d 8a92 00be 2567 253d 777d 1c3e
00000030: b7bf 75be 9f6b 543d 8e99 673e c871 7ebd
00000040: f1bd edbb 3785 b2bd 999a 123e fbb8 ab3e
00000050: bb66 813e 5e1a 863c ba6b 01be cce5 2a3d
00000060: 78ba 8fbd 616d 92bc f6a6 923e 9625 7cbd
00000070: 0366 89bc 601e 04be f8f3 b0bd 7953 9c3e
00000080: 7ed4 3bbe ba05 7fbe f35f 193e e13a aa3d
00000090: 4eb4 073d 5197 dd3d 4c85 bb3b 8988 80be
000000a0: 8f63 11be 80aa 66be 01c8 1c3e 037b 70bd
000000b0: 3e0a 773e 9a43 0b3d d4f6 01bd 2348 a83e
000000c0: 5abd 2d3e 410f 853d b907 063e 5994 f23d
000000d0: 30c1 263e 7d8a 423e dead 463c 4bbf 19bd
000000e0: 1016 01be 8b03 563d 6afc 38be fb1b 09be
000000f0: 9b73 983d 3fa0 7f3e 73f4 4abe 6a55 c13c
00000100: 0901 083e 72ef b3bc d35c 35be a7fb b43d
00000110: 21fe 023e 4196 a43d 4409 89be 12e8 553e
00000120: 3368 003e bb5c 423e b8b1 cfbd f970 673e
00000130: 17e6 683d e413 553e 45c2 4d3e 6966 2fbd
00000140: ee6c abbd 76fb 0c3e 9a59 a2bd f75c 07be
00000150: a5ed 15bd 05ce 393e c31a 313e f69f 2abd
00000160: 740f f3bd 6a42 b5bd 5a9d 42be 10f3 583e
00000170: d69e 97bd 30a3 873e 1059 8fbc 4f04 413e
00000180: c273 853d 7817 303d 1c9c 003d f605 053d
00000190: ce90 463e d153 ae3c ea81 c6bd 95ce 343e
000001a0: 8cbc 40bd e125 013e a7f1 6dbe a889 82bd
000001b0: 28fe 16bd eceb bd3d 05c5 893e faff b83d
000001c0: 76ef 06be cf71 0e3d 819d 0e3e c3e9 11bd
000001d0: 3fc3 563e c421 5cbd 5e63 593d 75fe 40be
000001e0: 702e 863c 868b 3fbe 0c85 ab3e 36af 94bd
000001f0: 2842 923e 43a4 98be f017 00bc acd8 a03e
00000200: 52e1 93bd 6dad 82be 5f91 97bd fad4 b3bd
00000210: df2e d8ba 17b2 2cbe 46a6 353e 98e9 60be
00000220: 571e 213c bda3 183e 901c a43e 0a96 263e
00000230: f772 07bc cb73 b1bd 572e c73b dd90 2a3e
00000240: eb7f 883e 6c67 5a3e 75a4 213e 68db 83be
00000250: 6ea8 c33d c3bf 893e cebc 3fbe 5343 733e
00000260: 4a4a a13b 5056 833e 3e8c b83c 55f9 5b3e
00000270: bd61 f8bd ed18 5a3d ec06 e7bd bbae 043e
00000280: e6c1 a9bd 43c4 8c3d c4f7 0ebe c3ce 283a
00000290: 01e0 74bb b6b2 8bbd 2b59 03be aa85 d43d
000002a0: 82e0 9e39 c831 21be f13f 2abe f03d 49bc
000002b0: 3ba6 07be d413 733d e01e 27be a276 a93d
000002c0: d40f 3abd 5643 1b3c 2a89 233e d540 70bd
000002d0: a289 60bc 3821 193d 54a8 2dbd 90af 16bd
000002e0: cf0a 3bbd 4e21 16bb b7b1 47be 894c 53be
000002f0: 95e3 a9bd 4088 b1bd 9fa4 d73d 5202 2335
00000300: 83e1 79be c151 c7bd c659 f5bd 6970 913e
00000310: 24b2 243d 32d9 2ebe 44b5 4e3e da81 7abe
00000320: 6119 febd 8d36 d03d 01f1 3a3e e952 60bb
00000330: f88a c73d df2e fdbd c8ae 1c3e 4d50 343e
00000340: b2a4 5d3d ede8 77be fc89 a5bd 880b fb3c
00000350: 3d91 043e be02 303e ee0b a33d e75a fbbb
00000360: 8bf4 a63c d8d4 22be 5b97 6d3e 299c 6abe
00000370: afe9 153e de63 6abe b0ac dcbb f378 a1bd
00000380: a51a 9abe 5e4b 4d3e 3f0d 0c3e bcd8 a33e
00000390: 6cc1 363e e5bf 4fbd b345 b33e bbc4 133e
000003a0: c2ef 1d3e a80c 5bbe 5336 383e cd99 8abd
000003b0: af19 083e 5010 0dbe f74b a4bd 0d79 99bd
000003c0: 795f a03e 310c 353e f527 333c e1da fdbc
000003d0: 38e4 023e b14e e83d ed3f 2dbd 1a46 ab3e
000003e0: d922 013e 2816 353e 83c8 a93d 17f1 ba3d
000003f0: e706 c23c 1e35 b7bd 2f94 88bd 409b eb3d

backbone.2.weight f4 [1, 16]
-0.32220724 0.12552759 0.35759816 -0.30513808 -0.1476234 -0.15291315 -0.27288476 0.25442928
0.3352568 -0.10097562 0.1918517 0.05554457 0.3146823 0.21390182 0.3418914 -0.17646754
00000000: 59f8 a4be 4e8a 003e 1b17 b73e 0f3b 9cbe
00000010: 972a 17be 4495 1cbe 8db7 8bbe 8e44 823e
00000020: c7a6 ab3e 4ecc cebd c674 443e b482 633d
00000030: 0a1e a13e 1409 5b3e 640c af3e e8b3 34be
