output/32/best.pth (torch, 714225 bytes, 4 tensors)

encoder.embeddings f4 [88656, 2]
0.11416024 0.112171896 0.12058803 0.119946636 0.12095042 0.12126936 0.12092046 0.11935179
0.120683625 0.12011576 0.12143519 0.11980031 0.12104385 0.11943281 0.12088068 0.11926975
0.11196341 0.11175361 0.12132756 0.11943842 0.12311039 0.122275606 0.123349406 0.12329981
0.12341215 0.122327834 0.12383333 0.12213817 0.123541035 0.12262905 0.12348106 0.12154923
0.123183094 0.121678405 0.1207112 0.1196407 0.122267656 0.11959907 0.12385068 0.12152489
0.122503646 0.12159806 0.12331468 0.12257136 0.123525515 0.12270533 0.1230235 0.12223529
0.12225083 0.120990284 0.122687824 0.12117484 0.120964624 0.120080315 0.11890894 0.11923876
0.12198064 0.12133729 0.12227009 0.12129281 0.12234615 0.12185457 0.12241668 0.1220933
0.122142024 0.12160977 0.120347925 0.1192186 0.12179484 0.120376304 0.11995258 0.11874976
0.116808765 0.11860831 0.11859136 0.120064996 0.12160331 0.120182514 0.1229198 0.12100819
0.12306614 0.121679045 0.122581355 0.12135963 0.120409265 0.11880239 0.12167747 0.11929461
0.11984501 0.118444204 0.11921938 0.118653044 0.1214561 0.11948315 0.12141184 0.119576305
0.12086882 0.11857657 0.12121063 0.119189925 0.1211742 0.11965928 0.121097624 0.118614785
0.121306956 0.119129084 0.11750419 0.11863219 0.12053379 0.11875099 0.12304816 0.12120015
0.122380145 0.120809264 0.12226613 0.12026122 0.12281488 0.12047898 0.12221977 0.12030075
0.12233188 0.12069412 0.12283022 0.12095069 0.12049658 0.11934864 0.1207988 0.119068295
0.123139285 0.12163504 0.12309062 0.122133195 0.123892136 0.12236451 0.12396868 0.12235056
0.12386418 0.12189935 0.12390265 0.12208559 0.12391067 0.12222887 0.12066742 0.1194424
0.110824734 0.11259943 0.12049693 0.11986383 0.12041162 0.12036184 0.121355966 0.12107749
0.122012354 0.12030028 0.12127421 0.12035231 0.11908802 0.12001438 0.12076211 0.11949445
0.112534784 0.11203868 0.120432615 0.11819931 0.12378272 0.121407375 0.12251071 0.12193676
0.12265718 0.12194331 0.12371413 0.122180074 0.123459116 0.12181412 0.12334039 0.12084608
0.12300094 0.12117529 0.12006403 0.11908243 0.12357322 0.120720394 0.122520626 0.12041694
0.12004279 0.119074054 0.12161155 0.12058174 0.12211443 0.12054563 0.12181003 0.120163456
0.11915625 0.117128156 0.1213462 0.1194596 0.123005584 0.12112932 0.120576575 0.117754936
0.10968134 0.10784647 0.10158036 0.1003809 0.107771955 0.10694554 0.108241476 0.10686102
0.10708364 0.105713986 0.09872053 0.097196445 0.10698881 0.105180316 0.11959817 0.1171831
0.11678956 0.11516354 0.10454926 0.10316435 0.09601379 0.09547236 0.101840965 0.10097053
0.10225648 0.10135955 0.10140691 0.100787304 0.09245314 0.091285504 0.10200036 0.10036308
0.11514741 0.113759406 0.103471406 0.102390505 0.095751606 0.0956986 0.096294396 0.09506206
0.10187546 0.100267045 0.10181418 0.10049232 0.101057425 0.100139506 0.09300383 0.09198528
0.09682207 0.09527255 0.10342682 0.10225389 0.10126192 0.09939324 0.09400634 0.09191421
00000000: d8cc e93d 61ba e53d dbf6 f63d 95a6 f53d
00000010: dbb4 f73d 125c f83d 25a5 f73d b66e f43d
00000020: fa28 f73d 40ff f53d 03b3 f83d dd59 f53d
00000030: d7e5 f73d 3099 f43d 4a90 f73d b343 f43d
00000040: 134d e53d 14df e43d 957a f83d 219c f43d
00000050: 4d21 fc3d a26b fa3d 9d9e fc3d 9c84 fc3d
00000060: 82bf fc3d 0487 fa3d 549c fd3d 9423 fa3d
00000070: 1503 fd3d f024 fb3d a3e3 fc3d cdee f83d
00000080: 6b47 fc3d 8732 f93d 6f37 f73d 2f06 f53d
00000090: 7767 fa3d 5bf0 f43d 6da5 fd3d 0be2 f83d
000000a0: 31e3 fa3d 6708 f93d 688c fc3d b106 fb3d
000000b0: f2fa fc3d ef4c fb3d bff3 fb3d 7f56 fa3d
000000c0: a55e fa3d c1c9 f73d c143 fb3d 842a f83d
000000d0: 4dbc f73d abec f53d 8886 f33d 7333 f43d
000000e0: fcd0 f93d af7f f83d be68 fa3d 5d68 f83d
000000f0: 9e90 fa3d e48e f93d 99b5 fa3d 0d0c fa3d
00000100: 9925 fa3d 8b0e f93d f978 f63d e228 f43d
00000110: 936f f93d da87 f63d b3a9 f53d 1333 f33d
00000120: 6f39 ef3d eae8 f23d 07e0 f23d a3e4 f53d
00000130: 280b f93d 4022 f63d 60bd fb3d 24d3 f73d
00000140: 1a0a fc3d dd32 f93d ef0b fb3d 668b f83d
00000150: 2299 f63d ab4e f33d 0a32 f93d bc50 f43d
00000160: 4d71 f53d e092 f23d 4a29 f43d 5e00 f33d
00000170: fabd f83d 95b3 f43d c5a6 f83d 6ce4 f43d
00000180: 128a f73d 46d8 f23d 473d f83d d919 f43d
00000190: 2e2a f83d ed0f f53d 0802 f83d 4fec f23d
000001a0: c86f f83d f3f9 f33d 09a6 f03d 6ff5 f23d
000001b0: 6bda f63d b833 f33d ac00 fc3d c937 f83d
000001c0: 71a2 fa3d d96a f73d aa66 fa3d 844b f63d
000001d0: 5e86 fb3d afbd f63d 5c4e fa3d 3d60 f63d
000001e0: 2389 fa3d 7b2e f73d 698e fb3d ffb4 f73d
000001f0: e9c6 f63d 0f6d f43d 5c65 f73d 14da f33d
00000200: 7330 fc3d cb1b f93d ef16 fc3d f820 fa3d
00000210: 29bb fd3d 3f9a fa3d 4be3 fd3d ee92 fa3d
00000220: 81ac fd3d 5ea6 f93d acc0 fd3d 0308 fa3d
00000230: e1c4 fd3d 2153 fa3d 7b20 f73d 389e f43d
00000240: 14f8 e23d 889a e63d 18c7 f63d 2b7b f53d
00000250: 5e9a f63d 4580 f63d 7a89 f83d 7af7 f73d
00000260: 9de1 f93d fe5f f63d 9d5e f83d 467b f63d
00000270: 6be4 f33d 19ca f53d 2052 f73d 82b9 f43d
00000280: a378 e63d 8974 e53d 60a5 f63d 7b12 f23d
00000290: cb81 fd3d 6ea4 f83d e5e6 fa3d fbb9 f93d
000002a0: b033 fb3d 6abd f93d d55d fd3d 8c39 fa3d
000002b0: 22d8 fc3d ae79 f93d e399 fc3d 267e f73d
000002c0: ebe7 fb3d c02a f83d 21e4 f53d 7de1 f33d
000002d0: f513 fd3d 413c f73d 18ec fa3d 289d f63d
000002e0: ffd8 f53d 19dd f33d 7a0f f93d 8ff3 f63d
000002f0: 2117 fa3d a1e0 f63d 8977 f93d 4218 f63d
00000300: 3108 f43d e3e0 ef3d 5b84 f83d 3ca7 f43d
00000310: 5aea fb3d a612 f83d daf0 f63d 8029 f13d
00000320: 9ca0 e03d 9cde dc3d 5d09 d03d 8094 cd3d
00000330: 8bb7 dc3d 4306 db3d b5ad dd3d f3d9 da3d
00000340: ab4e db3d 9380 d83d fd2d ca3d ee0e c73d
00000350: f31c db3d c768 d73d e3ef f43d b1fd ef3d
00000360: 5d2f ef3d ddda eb3d ec1d d63d d547 d33d
00000370: e1a2 c43d 0387 c33d ff91 d03d a3c9 ce3d
00000380: d86b d13d 9995 cf3d 6dae cf3d 9369 ce3d
00000390: 1258 bd3d e5f3 ba3d 91e5 d03d 298b cd3d
000003a0: 68d2 eb3d b1fa e83d d1e8 d33d 1db2 d13d
000003b0: 6b19 c43d a1fd c33d ff35 c53d e6af c23d
000003c0: 15a4 d03d cf58 cd3d f483 d03d ebce cd3d
000003d0: 32f7 ce3d f115 cd3d cb78 be3d c762 bc3d
000003e0: a64a c63d 411e c33d 71d1 d33d 7d6a d13d
000003f0: 6962 cf3d af8e cb3d 6586 c03d 843d bc3d

backbone.0.weight f4 [16, 16]
0.10931162 0.0714924 0.22492683 0.0673931 0.07955498 0.23246422 -0.02434781 0.1970992
0.1362025 -0.13149814 -0.21632111 -0.062349543 -0.08940703 0.030951485 0.019574182 -0.21216197
-0.08410326 0.33019453 -0.2154883 0.0786744 0.07607546 -0.31705865 0.051542714 0.29649022
-0.25435674 -0.03582521 0.07079884 -0.024730079 -0.040889926 -0.29744357 0.1486786 0.13590918
-0.2009756 -0.20608947 0.04686947 -0.21694794 -0.23044926 -0.040230546 -0.18132327 -0.16529058
-0.052839633 0.0012639717 0.0011275432 0.29589304 -0.11479953 -0.004533511 -0.13214067 0.26232508
0.086391695 0.27019358 -0.14766411 -0.05068028 0.31197953 0.106465384 0.13922448 -0.138271
-0.082870096 0.27506897 0.33783746 -0.08586934 -0.0577818 -0.33842865 0.3143152 0.26501477
0.07979622 -0.09709184 -0.32635534 -0.24601069 0.23048545 -0.062743604 0.32075348 0.20563652
-0.09350829 -0.13234806 0.24448667 -0.17289719 -0.20349877 -0.34652907 0.09645671 0.12892026
-0.18821049 -0.029637396 -0.17690098 -0.048118588 0.088703334 -0.29180512 0.14220133 -0.23042776
-0.2721553 0.03229396 -0.12239394 0.246202 0.11816918 0.016047806 -0.22213687 -0.08562331
0.14299357 0.070865974 0.24489957 -0.027440645 -0.024104381 0.030826483 0.18979566 0.08134741
0.13813768 0.048053753 -0.24284971 0.2610644 0.2472586 0.09930942 -0.0135792885 0.27115908
-0.14753863 -0.026063774 0.10043903 -0.2423655 0.21008496 -0.11031527 -0.11803724 0.2823239
0.08027412 0.23952252 -0.22706205 -0.31525 -0.2863297 0.13456227 0.19974384 -0.3320256
0.009983278 0.20787805 0.24298008 0.24085888 -0.0076311957 0.20686868 0.13231896 -0.1245414
0.09349147 0.08494572 0.03866046 -0.09384235 -0.06564304 -0.2207553 -0.09903159 0.1701058
0.1241931 0.2754078 -0.114640124 -0.15033935 -0.11621356 -0.027784673 0.11018673 0.24368924
-0.32408354 0.3374731 -0.05754989 -0.27450725 -0.2833596 0.054518495 -0.08828908 -0.088542834
-0.027663209 0.15151581 -0.26538673 0.021650527 0.24125572 -0.30543458 0.17954054 0.047792573
-0.165395 0.16752867 0.23328806 -0.0877859 -0.17348109 -0.07691004 0.10152961 0.35773107
0.13945319 0.16282988 -0.08262267 -0.034767646 0.32371688 -0.2259037 0.23955768 0.1800665
0.022445574 0.09358277 0.23459421 -0.11077265 -0.118071705 0.13579503 0.28491816 0.37135988
-0.04647046 -0.068733074 0.21340531 0.09704107 -0.22830933 0.19161074 0.077651724 -0.033072922
0.26937786 0.25475675 -0.1655242 -0.13410456 0.015100109 -0.08284654 -0.1850891 -0.36300752
-0.09729855 0.18263228 0.07086965 0.2557474 -0.1770817 0.08551826 -0.26194212 0.25074592
0.09793532 0.178806 -0.17959084 0.0733853 0.078120895 0.014665002 -0.120038524 0.29476246
0.31130263 0.25107202 -0.30706933 -0.326707 0.26439312 -0.17687836 0.18151489 0.113452695
-0.14405882 0.033316962 -0.15261732 -0.10959019 -0.29464045 -0.3440956 -0.12820472 0.029368797
0.21572652 0.097425945 0.0042084237 -0.2980751 -0.02746303 0.053435616 0.13279232 0.3209633
0.091160655 0.11580069 -0.19375534 0.05087474 -0.30792788 0.31770512 0.31035936 -0.28747094
00000000: c5de df3d 9b6a 923d 3853 663e 6505 8a3d
00000010: b9ed a23d 1a0b 6e3e 0f75 c7bc 5fd4 493e
00000020: ab78 0b3e 73a7 06be 4883 5dbe 3c62 7fbd
00000030: 081b b7bd f88d fd3c 095a a03c fd40 59be
00000040: 543e acbd 420f a93e f7a8 5cbe 0b20 a13d
00000050: 73cd 9b3d 8355 a2be 741e 533d 91cd 973e
00000060: 0c3b 82be 75bd 12bd fbfe 903d bc96 cabc
00000070: 327c 27bd 864a 98be 343f 183e c72b 0b3e
00000080: 8ccc 4dbe 1e09 53be 34fa 3f3d 9a27 5ebe
00000090: e4fa 6bbe c9c8 24bd cfac 39be ef41 29be
000000a0: 5f6e 58bd daab a53a 12ca 933a 4b7f 973e
000000b0: 041c ebbd d98d 94bb e24f 07be 794f 863e
000000c0: 21ee b03d d056 8a3e 4335 17be 2096 4fbd
000000d0: c8bb 9f3e 860a da3d dd90 0e3e ea96 0dbe
000000e0: ccb7 a9bd d7d5 8c3e 08f9 ac3e 44dc afbd
000000f0: 9cac 6cbd 8546 adbe eced a03e 04b0 873e
00000100: 336c a33d 16d8 c6bd 0c18 a7be 3aea 7bbe
00000110: 6104 6c3e b87f 80bd cd39 a43e 6192 523e
00000120: 4681 bfbd 4086 07be b75a 7a3e f60b 31be
00000130: fb61 50be 426c b1be 188b c53d ac03 043e
00000140: 40ba 40be 20ca f2bc 8825 35be ff17 45bd
00000150: 18aa b53d 7b67 95be 3a9d 113e 41f5 6bbe
00000160: f157 8bbe ac46 043d ada9 fabd 611c 7c3e
00000170: af02 f23d b076 833c d977 63be 465b afbd
00000180: e86c 123e 2e22 913d f4c6 7a3e 34cb e0bc
00000190: 8d76 c5bc d287 fc3c cb59 423e 7999 a63d
000001a0: f773 0d3e 03d4 443d 98ad 78be 3caa 853e
000001b0: 5c31 7d3e bd62 cb3d aa7b 5ebc 5dd5 8a3e
000001c0: 5e14 17be b283 d5bc fab2 cd3d a92e 78be
000001d0: 8320 573e f9ec e1bd 82bd f1bd c28c 903e
000001e0: c266 a43d 6445 753e f482 68be 7368 a1be
000001f0: ce99 92be b1ca 093e a689 4c3e 42ff a9be
00000200: e790 233c fcdd 543e c5cf 783e b6a3 763e
00000210: 1c0f fabb 62d5 533e 9f7e 073e 900f ffbd
00000220: 7578 bf3d 06f8 ad3d 6e5a 1e3d 6b30 c0bd
00000230: dc6f 86bd ad0d 62be 13d1 cabd 3730 2e3e
00000240: f458 fe3d 4002 8d3e 71c8 eabd 8ff2 19be
00000250: 6001 eebd af9c e3bc 95a9 e13d ac89 793e
00000260: 47ee a5be 46c9 ac3e 6fb9 6bbd 378c 8cbe
00000270: 8214 91be c94e 5f3d e8d0 b4bd f255 b5bd
00000280: f49d e2bc f626 1b3e c5e0 87be 725c b13c
00000290: bd0b 773e ec61 9cbe 7ad9 373e 25c2 433d
000002a0: 4f5d 29be a38c 2b3e 11e3 6e3e 18c9 b3bd
000002b0: 07a5 31be 0383 9dbd c2ee cf3d 8728 b73e
000002c0: d1cc 0e3e e0bc 263e 1336 a9bd 8568 0ebd
000002d0: 38be a53e 4d53 67be 9c4e 753e 5a63 383e
000002e0: c8df b73c 53a8 bf3d 7739 703e c5dc e2bd
000002f0: 94cf f1bd da0d 0b3e cbe0 913e e222 be3e
00000300: cf57 3ebd edc3 8cbd ec86 5a3e 78bd c63d
00000310: ecc9 69be 9b35 443e de07 9f3d 7977 07bd
00000320: e5eb 893e 7a6f 823e 2d7f 29be b552 09be
00000330: 7366 773c 72ab a9bd ff87 3dbe 1fdc b9be
00000340: 7644 c7bd f503 3b3e 1b24 913d 53f1 823e
00000350: e854 35be 3324 af3d 471d 86be c561 803e
00000360: 5092 c83d ec18 373e a9e6 37be 084b 963d
00000370: d9fd 9f3d 7a45 703c c2d6 f5bd 1beb 963e
00000380: 0f63 9f3e 838c 803e 3138 9dbe 2446 a7be
00000390: 895e 873e 9a1f 35be 0adf 393e e359 e83d
000003a0: 2884 13be 5e77 083d b747 1cbe d270 e0bd
000003b0: 1ddb 96be 4c2d b0be 1948 03be d596 f03c
000003c0: 6ae7 5c3e 4187 c73d d1e6 893b 4d9d 98be
000003d0: 26fa e0bc 4edf 5a3d b6fa 073e 4d55 a43e
000003e0: 70b2 ba3d ea28 ed3d cd67 46be 0862 503d
000003f0: b9a8 9dbe 3faa a23e 6ce7 9e3e 642f 93be

backbone.1.weight f4 [16, 16]
0.120532975 0.11574223 0.20733185 -0.18753803 -0.17050776 -0.048298854 0.26876223 0.1201527
-0.018064944 -0.3187338 0.087334804 -0.24635252 0.024202459 0.17564964 0.16731319 -0.24882126
-0.064615 -0.10444802 0.17614907 0.17191944 0.25658718 0.17399272 -0.15740104 -0.15481083
0.22168322 0.1286944 -0.051034797 0.0398016 -0.13953504 0.010051984 0.25513378 -0.07875362
0.16567554 0.31111744 -0.17265849 0.2974911 0.1362538 0.2640207 -0.0410233 0.34420907
-0.25793603 0.03499401 0.3224192 0.14132288 0.24347225 0.012851613 0.206272 0.3252216
0.22137046 0.18614475 -0.09627201 0.04892669 0.28648266 0.24136268 -0.12886897 0.31095108
-0.016178932 0.29114637 0.31163877 0.12258388 0.090774 -0.21723777 0.20613626 0.2760266
-0.018307835 -0.17285183 0.07630234 0.06814742 -0.06251787 -0.13507366 -0.07331974 -0.17208108
-0.0031259889 -0.0049360855 0.2284554 0.06920294 -0.0019093052 -0.069961466 -0.14798376 -0.18581137
-0.0040894155 -0.19483446 0.025483236 0.029947037 -0.2262428 -0.04627248 -0.20162931 0.07172276
0.17567885 -0.14457366 -0.0059605385 -0.17643887 -0.058489025 -0.2343175 -0.06878567 -0.069553815
0.082645305 0.14505866 -0.23689628 -0.010543596 0.33356795 0.0022747081 -0.11459948 -0.0099984
-0.16515088 0.25106037 0.015126623 0.22892216 0.31736818 -0.18985005 0.2612401 0.24556471
0.14263564 -0.27753985 0.09340939 -0.15425646 -0.021021504 -0.07401903 0.313559 0.024680715
0.22383994 0.115390785 -0.1564696 -0.35975426 -0.14099446 -0.13063018 0.15261666 -0.15118834
-0.2140626 0.16240199 0.20392665 0.35242876 0.30822995 -0.07881615 0.07237125 -0.010960276
0.2115139 0.025130779 0.29879948 0.08918638 -0.117701955 -0.21907322 0.102193266 -0.016527196
0.25179052 0.01947358 0.1889477 0.0754497 -0.16425309 -0.29808852 0.084065855 -0.20289817
0.26358753 -0.20388225 -0.06259943 -0.071396284 0.12035596 -0.13923667 -0.20713781 -0.15661803
0.040412944 0.031215133 -0.1952864 0.16544631 -0.040046524 0.2990829 -0.01273916 0.342258
-0.18945336 0.19648252 -0.048810255 0.27862218 0.08920655 -0.06111305 -0.010796618 0.32428563
0.027410703 0.01273374 0.154229 -0.018454293 0.1071023 -0.11636749 -0.07559524 0.201168
-0.21875569 0.26719695 -0.03592637 0.2193148 0.15407422 0.12094036 -0.113935664 -0.07284542
0.13462318 0.19443375 -0.09479243 -0.32153764 -0.16489698 0.12586987 0.21716972 0.090845995
0.24360995 -0.32264748 -0.28449553 -0.36043632 -0.2316094 -0.1641241 0.11305072 -0.040733166
-0.036631566 0.13054949 0.273615 0.19630778 0.12996903 -0.08805048 0.1324225 0.006728298
0.06525521 0.048298206 0.21831094 0.03857566 -0.13868243 -0.17207326 0.085100524 0.08349661
0.11318391 0.16950418 -0.2909849 0.27337766 0.0582534 0.2995347 0.10451782 0.06497102
-0.049328346 0.21330251 -0.021490863 -0.11894923 0.15772282 -0.0685377 0.29458484 0.079641104
0.049663447 0.009838582 0.07989999 0.2779727 0.06431848 0.3485624 -0.209617 -0.07746578
0.09332923 0.11489977 0.27168 -0.13811599 0.16450886 -0.1442557 0.1982408 0.15498598
00000000: fed9 f63d 430a ed3d cd4e 543e f809 40be
00000010: 9699 2ebe 05d5 45bd 349b 893e 9e12 f63d
00000020: effc 93bc 1431 a3be 97dc b23d d643 7cbe
00000030: 3c44 c63c 80dd 333e 2654 2b3e 00cb 7ebe
00000040: de54 84bd d8e8 d5bd 6c60 343e a60b 303e
00000050: 655f 833e 262b 323e bd2d 21be bb86 1ebe
00000060: ed00 633e 77c8 033e dd09 51bd 0107 233d
00000070: 46e2 0ebe 14b1 243c e5a0 823e 9449 a1bd
00000080: d9a6 293e c94a 9f3e 63cd 30be c150 983e
00000090: 1e86 0b3e b92d 873e 0c08 28bd 2c3c b03e
000000a0: 3110 84be e155 0f3d 2114 a53e f2b6 103e
000000b0: ca50 793e 928f 523c f838 533e 7283 a63e
000000c0: f0ae 623e bb9c 3e3e 422a c5bd 5a67 483d
000000d0: dbad 923e c727 773e 3af6 03be fb34 9f3e
000000e0: ae89 84bc 2311 953e 1e8f 9f3e 420d fb3d
000000f0: b8e7 b93d 9473 5ebe 6215 533e 5c53 8d3e
00000100: 50fa 95bc 1200 31be 6744 9c3d e090 8b3d
00000110: 5e09 80bd c050 0abe a928 96bd 0636 30be
00000120: 64dd 4cbb e3be a1bb 36f0 693e 45ba 8d3d
00000130: a741 faba f547 8fbd 0e89 17be 5645 3ebe
00000140: 8100 86bb af82 47be 38c2 d03c 7d53 f53c
00000150: 31ac 67be 3688 3dbd ea77 4ebe 62e3 923d
00000160: 28e5 333e 1e0b 14be 9f50 c3bb 64ac 34be
00000170: 3092 6fbd edf0 6fbe 80df 8cbd 3b72 8ebd
00000180: f141 a93d 428a 143e f094 72be 0cbf 2cbc
00000190: 6bc9 aa3e 4513 153b 22b3 eabd 54d0 23bc
000001a0: 501d 29be fc8a 803e a8d5 773c 926a 6a3e
000001b0: 157e a23e 0d68 42be 43c1 853e 5175 7b3e
000001c0: 140f 123e b419 8ebe 6c4d bf3d 68f5 1dbe
000001d0: 4a35 acbc 4a97 97bd ce8a a03e 362f ca3c
000001e0: 4c36 653e 0152 ec3d 9139 20be b631 b8be
000001f0: da60 10be ebc3 05be 8b47 1c3e 1ed1 1abe
00000200: 3a33 5bbe b54c 263e 26d2 503e 8b71 b43e
00000210: 51d0 9d3e 5d6a a1bd 6137 943d bb92 33bc
00000220: 1a97 583e 10df cd3c 3ffc 983e 59a7 b63d
00000230: b90d f1bd bb54 60be b44a d13d 0b64 87bc
00000240: b0ea 803e 0f87 9f3c 827b 413e 5f85 9a3d
00000250: f631 28be 0f9f 98be b82a ac3d 8ac4 4fbe
00000260: f2f4 863e 82c6 50be 2134 80bd 3738 92bd
00000270: 307d f63d 0f94 0ebe ef1b 54be 7a60 20be
00000280: 0b88 253d e1b6 ff3c 28f9 47be c26a 293e
00000290: d307 24bd 6521 993e e9b7 50bc 713c af3e
000002a0: 1000 42be b732 493e 43ed 47bd 91a7 8e3e
000002b0: ecb1 b63d ad51 7abd 4ce4 30bc c408 a63e
000002c0: 698c e03c 2da1 503c 35ee 1d3e 752d 97bc
000002d0: 7358 db3d 1452 eebd add1 9abd fcfe 4d3e
000002e0: 7e01 60be 0ace 883e 8827 13bd 0f94 603e
000002f0: a2c5 1d3e 94af f73d 1a57 e9bd fb2f 95bd
00000300: a9da 093e a419 473e 8922 c2bd 95a0 a4be
00000310: c1da 28be 08e4 003e bd61 5e3e 770d ba3d
00000320: e374 793e 0d32 a5be 66a9 91be 1c8b b8be
00000330: 042b 6dbe 2610 28be 2387 e73d d2d7 26bd
00000340: fb0a 16bd c4ae 053e 4417 8c3e e804 493e
00000350: 9a16 053e cf53 b4bd c499 073e 0e79 dc3b
00000360: 86a4 853d 57d4 453d e78c 5f3e 8301 1e3d
00000370: c402 0ebe f933 30be 2f49 ae3d 4500 ab3d
00000380: f7cc e73d 8192 2d3e f9fb 94be 28f8 8b3e
00000390: 1e9b 6e3d 9d5c 993e 700d d63d 870f 853d
000003a0: 850c 4abd f96b 5a3e 9b0d b0bc a79b f3bd
000003b0: 1782 213e 7e5d 8cbd d3d3 963e e01a a33d
000003c0: e66b 4b3d 0132 213c 9ba2 a33d 7052 8e3e
000003d0: 68b9 833d c576 b23e d7a5 56be 61a6 9ebd
000003e0: 6523 bf3d 9250 eb3d a419 8b3e 476e 0dbe
000003f0: 0375 283e c4b7 13be a3ff 4a3e a5b4 1e3e

backbone.2.weight f4 [1, 16]
-0.24908541 0.30020702 0.29616985 0.26525876 0.22107191 -0.09115864 0.3554862 -0.2216121
0.28952828 -0.23797123 0.2815596 0.09804247 -0.28276706 0.27880093 0.2562679 0.09421818
00000000: 3f10 7fbe bcb4 993e 93a3 973e ffcf 873e
00000010: ad60 623e 62b1 babd 4a02 b63e 48ee 62be
00000020: 0d3d 943e bbae 73be 9428 903e 7eca c83d
00000030: d8c6 90be ffbe 8e3e 8c35 833e 76f5 c03d
