output/41/best.pth (torch, 714225 bytes, 4 tensors)

encoder.embeddings f4 [88656, 2]
00000000: cde7 e2bd 8cc8 dbbd 1407 f5bd a205 ebbd
00000010: 6eab f5bd 2ace ecbd 6872 f5bd 0407 edbd
00000020: 68c0 f6bd 9178 edbd acdc f5bd a2f0 edbd
00000030: 2f5b f6bd 7e10 efbd 2645 f1bd eef3 eebd
00000040: ba12 e5bd 4f93 e2bd d22c f4bd 8db8 eabd
00000050: 36da fabd dd68 f0bd 6190 fabd 863d f1bd
00000060: f705 fbbd 83e9 f0bd 7b75 fbbd 6bde f0bd
00000070: 4cdc fbbd 8da5 f0bd 2bff fabd 6e41 f2bd
00000080: e37c f6bd 6ae2 f3bd d68d f1bd fa85 f0bd
00000090: 97f4 f5bd 9c52 ecbd b46b fbbd 7616 f1bd
000000a0: 7894 fbbd 7c5f f1bd 8668 fbbd 4c07 f1bd
000000b0: b555 fbbd d9b0 f1bd 7793 fcbd e2ba f1bd
000000c0: e791 fbbd f502 f2bd a3d5 f7bd 52ec f3bd
000000d0: 830e f3bd 2647 f1bd 750b f8bd b503 efbd
000000e0: cca7 fbbd 48e1 f1bd 7c20 fcbd c9e8 f1bd
000000f0: 3fd3 f9bd fcf2 f2bd 629f fabd ee95 f2bd
00000100: 1b6c fbbd d03e f2bd c6b5 fbbd 0a99 f2bd
00000110: 6b3f f9bd eb47 f3bd 507a f5bd 0d28 efbd
00000120: 9a48 f7bd 1dee eebd 6e6b fabd c884 f2bd
00000130: 65b5 fbbd 0648 f2bd c292 fbbd 579d f2bd
00000140: a7ab fbbd b8f7 f1bd 4bc2 fbbd 1c3b f2bd
00000150: 219f fabd 041c f3bd dd9a fabd ee1a f2bd
00000160: 7097 f6bd 1a53 edbd d83f f6bd 5bef edbd
00000170: 6a05 fbbd 6e35 f2bd 038d fabd 805c f2bd
00000180: 4ba3 fabd b66a f2bd 92b7 fabd 22d3 f1bd
00000190: e9f9 fbbd 12cf f1bd 4a97 fbbd c1f5 f1bd
000001a0: b10b fabd 55c3 f1bd 30ca f4bd 0013 eebd
000001b0: 4000 f5bd c7c7 edbd 90ac fabd 2848 f1bd
000001c0: 74b4 fabd 7f8a f1bd 00b0 fbbd e6a5 f1bd
000001d0: fa8f fbbd b57e f1bd f795 fabd ee3c f1bd
000001e0: f592 fbbd c2c3 f1bd 402a f9bd 1504 f3bd
000001f0: 00a3 f4bd 58d9 efbd 6d28 f6bd 573d edbd
00000200: 39d2 fabd b570 f1bd ffc4 f9bd 11af f0bd
00000210: 11ac fabd 6a74 f0bd 01ca fabd aa93 f0bd
00000220: 79d4 fabd 34c8 f0bd 1bbf fabd 139a f1bd
00000230: e8f0 f7bd 98e9 f2bd 99c9 f2bd c2bc efbd
00000240: 1b9b e6bd e342 debd 457c f6bd 3bc0 ecbd
00000250: e5c8 f5bd 5ede ecbd 725c f6bd acd8 ecbd
00000260: 08b0 f5bd 3dbc ecbd 6758 f6bd 0e0d edbd
00000270: 4405 f5bd b752 edbd 3485 f4bd d119 eebd
00000280: 940d e8bd 0e5d e1bd 5222 f4bd 092a eabd
00000290: 84b4 f9bd 0106 f0bd e65e fabd a86c f1bd
000002a0: f210 fabd e0d5 f0bd 5e63 f9bd dbb3 f0bd
000002b0: 051c fbbd 49a1 f0bd 918f fabd e9f5 f1bd
000002c0: 8563 f6bd dac2 f3bd 1d89 f1bd 5fd4 efbd
000002d0: b784 f9bd f769 f0bd 77f8 fbbd 15b7 f1bd
000002e0: c18f fcbd 9d3f f2bd 43db fcbd 67e7 f1bd
000002f0: ee21 fcbd 5c30 f2bd f5ab fcbd 39dc f1bd
00000300: 9f46 fcbd 3300 f3bd 8298 f8bd ce13 f5bd
00000310: a976 f6bd 9a59 f5bd fd82 fabd 8487 f0bd
00000320: e69d fcbd 2440 f2bd 26ee fcbd 6489 f2bd
00000330: 4483 fcbd e9cf f2bd 0a2f fdbd 17a2 f2bd
00000340: c32b fdbd 0fe5 f2bd fec0 fcbd 5e2a f3bd
00000350: 9b6f f9bd feda f4bd d492 f7bd 8751 f5bd
00000360: cc6e fabd cc1c f2bd aeab fbbd 33a8 f2bd
00000370: 1b3e fcbd 9e45 f3bd 7c55 fabd 060d f4bd
00000380: bec4 fabd 6892 f4bd 72cc fbbd 45a7 f3bd
00000390: 53a2 fcbd 3d40 f3bd 19a0 fbbd ecb2 f3bd
000003a0: 85cb fabd a116 f2bd e407 fabd 6c9e f2bd
000003b0: 8f87 fbbd 571a f3bd 8040 fcbd 0d31 f3bd
000003c0: 44db fbbd 3a6e f3bd 9f75 fbbd 99b8 f3bd
000003d0: 5714 fcbd d18a f3bd 8ade fbbd c7a6 f2bd
000003e0: cfee fbbd ecae f2bd f8a9 fbbd 20db f0bd
000003f0: 5708 fbbd b131 f2bd ccf0 fbbd 66b6 f2bd
-0.11079369 -0.10731611 -0.11964241 -0.11475684 -0.11995588 -0.1156276 -0.11984712 -0.11573604
-0.12048417 -0.11595262 -0.120049804 -0.11618163 -0.12029111 -0.116730675 -0.11780767 -0.1166762
-0.111852124 -0.11063253 -0.11922611 -0.114609815 -0.12248652 -0.11738751 -0.12234569 -0.11779313
-0.12256997 -0.11763289 -0.12278267 -0.11761173 -0.12297878 -0.11750326 -0.12255701 -0.11828886
-0.12035539 -0.119084194 -0.11794631 -0.11744304 -0.120095424 -0.11539194 -0.12276402 -0.11771862
-0.122841775 -0.1178579 -0.12275796 -0.1176897 -0.12272207 -0.11801309 -0.12332814 -0.11803223
-0.12283688 -0.1181697 -0.12101295 -0.11910309 -0.11868002 -0.117811486 -0.1211156 -0.11670629
-0.12287864 -0.11810547 -0.123108834 -0.11811978 -0.12198495 -0.11862752 -0.12237431 -0.11845003
-0.12276479 -0.11828387 -0.1229053 -0.11845596 -0.12170299 -0.11878952 -0.1198622 -0.11677561
-0.120743945 -0.1166651 -0.12227522 -0.11841732 -0.12290458 -0.11830144 -0.12283851 -0.118464164
-0.122885995 -0.11814827 -0.12292918 -0.118276805 -0.12237383 -0.11870578 -0.12236569 -0.11821543
-0.12040603 -0.11588116 -0.12023896 -0.11617919 -0.12256892 -0.11826597 -0.12233927 -0.11834049
-0.12238177 -0.1183676 -0.122420445 -0.118078485 -0.12303526 -0.11807074 -0.122847155 -0.11814452
-0.12209261 -0.11804835 -0.11952627 -0.11624718 -0.11962938 -0.1161037 -0.12239945 -0.11781341
-0.1224145 -0.11793994 -0.12289429 -0.11799221 -0.12283321 -0.117917456 -0.12235635 -0.117791995
-0.12283889 -0.11804916 -0.12166262 -0.11866013 -0.11945152 -0.11711377 -0.12019429 -0.11583965
-0.12247128 -0.11789075 -0.12195777 -0.11752141 -0.1223985 -0.11740954 -0.122455604 -0.11746915
-0.12247557 -0.11756936 -0.12243482 -0.117969655 -0.12106496 -0.11860961 -0.11854858 -0.117059246
-0.11260053 -0.108526014 -0.12035421 -0.115601026 -0.12001208 -0.11565851 -0.12029351 -0.115647644
-0.11996466 -0.11559341 -0.1202858 -0.115747556 -0.11963895 -0.11588042 -0.11939469 -0.11626018
-0.11330715 -0.11004077 -0.119206086 -0.11433799 -0.12192634 -0.11719895 -0.12225132 -0.11788303
-0.12210263 -0.117595434 -0.12177156 -0.11753055 -0.12261204 -0.11749513 -0.12234414 -0.11814482
-0.120307006 -0.11902399 -0.117937304 -0.117104284 -0.121835165 -0.11738961 -0.1230325 -0.11802498
-0.123321064 -0.118285395 -0.12346508 -0.118117146 -0.12311159 -0.1182563 -0.12337486 -0.11809582
-0.123181574 -0.118652724 -0.121384636 -0.11966668 -0.120343514 -0.11979981 -0.12232015 -0.117445976
-0.12334804 -0.1182864 -0.12350111 -0.118426114 -0.123297244 -0.11856062 -0.123624876 -0.118473224
-0.123618625 -0.11860096 -0.12341498 -0.11873315 -0.1217949 -0.11955832 -0.12088552 -0.11978441
-0.12228164 -0.11821899 -0.12288605 -0.11848488 -0.12316533 -0.11878513 -0.12223336 -0.119165465
-0.12244557 -0.11941987 -0.12294854 -0.118971385 -0.123356484 -0.11877487 -0.122863956 -0.11899361
-0.122458495 -0.11820722 -0.12208536 -0.11846623 -0.12281715 -0.11870258 -0.1231699 -0.1187459
-0.12297681 -0.118862584 -0.12278294 -0.119004436 -0.12308567 -0.118917115 -0.12298305 -0.118482165
-0.123014085 -0.1184977 -0.12288278 -0.11760545 -0.1225745 -0.11825884 -0.12301788 -0.11851196

backbone.0.weight f4 [16, 16]
00000000: 6c3f 2a3d d431 f13d fee2 733e 0e5f a9bc
00000010: e7a7 f5bd e2b1 a1bd 145a 3ebe da16 06be
00000020: 21ce a53d 3851 84be e2e4 8a3e 3317 39be
00000030: e96a 71be 2b20 83be edea 4d3e 914a e03d
00000040: 9aae 453d d56c 323e b691 503e 00ef bdbd
00000050: 2315 68bd 1011 51be 9bcc 303e 761d 1d3e
00000060: c3f5 393d 0e7e 51be 3f18 573e 5eee 633d
00000070: cf5d 87be c327 3ebe 64e2 f53c cc1b 593e
00000080: c576 85be 261c 76be 6c07 15bd 068f 08be
00000090: cbe1 94be 813d b9bd 12da ff3c 4cbd 243e
000000a0: 3449 953e 84d6 b93d 7286 a9be 0fa6 a53e
000000b0: dadd a43e 2252 af3c a40b 72be e6fb cdbd
000000c0: 14e6 d9bc 7d44 e23d fc74 3cbe 8251 a3bd
000000d0: 3a71 57bd e47a 233e b1af 733d d6f6 763d
000000e0: 1d86 133e 2103 663e 89ef 893e 885e f63d
000000f0: e9aa 0fbe 6d39 31be e40f 873e f803 773e
00000100: c38f fc3c 3b50 c0bd 1c56 bd3d 40de 473e
00000110: daba 80be 78cd 393d 9449 5abe f51e ab3c
00000120: 0b1f 023e 665d fabd 333b 4dbd e8d1 84be
00000130: b139 e3bd 3b7a afbd fb55 a53e 5f4a 653e
00000140: be92 86be be56 27be 7fc9 043e 5dc0 303e
00000150: 0fca 243e d995 773e df84 983e cdd6 653e
00000160: 65db 833d e8f3 e43d 9663 c2bd 046d b53e
00000170: d7d0 bbbc d188 4e3d d98a 09be 8beb 433d
00000180: 1e26 41bd d1aa 553e db3a afbd 695b 273e
00000190: 82eb 473e 1a9b c43d 67d1 7f3e b869 66bc
000001a0: 7e3e e33d 428b e53d e7a3 563e 3a22 c23d
000001b0: c267 b53e 03e2 e3bd 443f 40be 221c 48be
000001c0: 34af f4bd ec5e a2bd b26f 67be dcef 3f3e
000001d0: 00bb 32be c351 52ba e123 8e3d a5f6 663e
000001e0: 0e36 84bd 30ed 58be 2e28 d33c edbe 7cbe
000001f0: 0f58 873d f1d2 8c3e b36a 2a3d 2a85 a8bd
00000200: 1736 81bd 6912 35bb a11d e73c af09 f4bd
00000210: 3c1a 9ebd 283e 753d 8254 473e 57b0 6ebe
00000220: e088 f9bc f819 5cbe cea7 dd3d 25b6 2c3e
00000230: c96c bb3d 70f2 1a3e eef1 4f3e 81f3 e43d
00000240: cc41 17be 89b6 ad3c 2b6f 523e c710 81bd
00000250: 1937 b3bd 20e6 733e 20f7 913e f020 3cbe
00000260: 1cd1 293d 6aec 883d d2f0 383d 7424 4d3e
00000270: f487 8b3e 7435 1c3e c163 153d f742 99be
00000280: 79fa a2be d703 77be b570 773e c61a 86be
00000290: 1929 0ebe dad9 b23d 1316 9d3e 1a2d 993e
000002a0: 74e0 c7bd 4a69 8d3e 8a34 5abd d4c6 a53e
000002b0: 8b13 b33e aae9 85be 7935 92be 2407 20be
000002c0: 3601 4dbe 17cf d5bd a64e 413e fab4 92bd
000002d0: 570a 17be 64fd a23e 83a4 b93e a1e5 023e
000002e0: d7e0 873e d402 b93c d658 a0bb 3778 8a3d
000002f0: e69f c53c 4c8b 8dbe 6d45 92be bb99 cd3d
00000300: e296 373e d244 6fbe dc08 4d3e 1c0e ca3b
00000310: 78d0 09be 3e1b 6d3e 47e5 a53d 458d 3a3e
00000320: 9b86 593e 126c 25be 3882 1bbe 7c8a 2ebd
00000330: 5b66 7d3e cc98 f2bc 9499 bfbd 0fe3 0abd
00000340: 9f70 f0bd f25c e3bc 4568 413e f98a 7fbe
00000350: b72e 263d 9889 1a3e 83b3 1d3d e056 0e3c
00000360: 2138 0c3e c74d 913e a8e6 19be 5e39 0cbe
00000370: 4412 463c f9b0 0e3e 4623 90be 3d95 dfbd
00000380: 2415 4a3d 0b32 0ebd ba9b 13be db42 f9bd
00000390: 4235 7d3d 5f60 2cbe 53ae 383e 0656 c7bd
000003a0: 7d1e 5a3e 9454 9ebe 0d45 203e a45b d5bd
000003b0: ec7e 83be 0d57 50be a4ff 143d ede9 97bd
000003c0: fad1 80bd 4168 31be 2179 703e cd0a 4fbd
000003d0: b068 1f3c 82a2 873e aab5 00be 2bbc 3abd
000003e0: 776d 913e d57c 1e3e 83ad 94be 84f4 863e
000003f0: 1bd7 f73c 4b5e 2cbc be15 993c 37c2 91be
0.04156439 0.11777082 0.2381706 -0.020675208 -0.119949155 -0.078952566 -0.1858905 -0.13094655
0.080959566 -0.25843215 0.2712775 -0.18075256 -0.23575939 -0.2561048 0.20109148 0.109517224
0.048262216 0.17424329 0.20368084 -0.09274101 -0.056660783 -0.20416665 0.17265551 0.1534327
0.045400392 -0.20458242 0.21005343 0.055647247 -0.26438758 -0.18569855 0.030015178 0.2120201
-0.26067176 -0.24034175 -0.03638403 -0.13335809 -0.29078516 -0.09044934 0.031231914 0.16087836
0.29157412 0.09074119 -0.33110386 0.32353255 0.3220051 0.021401469 -0.23637253 -0.100578114
-0.026598968 0.11048219 -0.18404001 -0.07974531 -0.052598216 0.15964848 0.059493724 0.060293995
0.14406629 0.22462131 0.26940563 0.12029749 -0.14030041 -0.17307062 0.2637931 0.24122608
0.03083027 -0.09390303 0.0924494 0.19518375 -0.25142556 0.045361966 -0.2131713 0.020888785
0.12707154 -0.122248456 -0.050105285 -0.25941396 -0.11094988 -0.085682355 0.3229216 0.22391652
-0.2628383 -0.16341683 0.1296749 0.17260881 0.16092704 0.24178256 0.29788873 0.22445221
0.064383306 0.11179334 -0.09491651 0.35434735 -0.022926731 0.050423447 -0.13431872 0.047832053
-0.047155492 0.20865943 -0.08556148 0.16343464 0.19523433 0.09599896 0.24982224 -0.014063291
0.11095904 0.11208202 0.20960961 0.094791844 0.35430723 -0.11127093 -0.18774134 -0.19541982
-0.1194748 -0.07928261 -0.22601202 0.18743843 -0.17454147 -0.00080230477 0.06940437 0.22555025
-0.064556226 -0.2118423 0.025775995 -0.24682207 0.06608593 0.27504686 0.041605663 -0.08228524
-0.06309145 -0.0027629382 0.02821237 -0.119159095 -0.077198476 0.05987373 0.19465831 -0.23309456
-0.030460775 -0.21494281 0.10823022 0.16866358 0.091516085 0.15131545 0.20307133 0.11179257
-0.14771193 0.021205204 0.2055022 -0.06302028 -0.087507434 0.23818254 0.28508854 -0.1837194
0.041459188 0.066857174 0.04515154 0.20033437 0.27252162 0.15254766 0.036472086 -0.29933903
-0.3183172 -0.24122559 0.24164088 -0.26192302 -0.13882865 0.08732958 0.30680904 0.29917222
-0.09759608 0.27619392 -0.05327276 0.32378256 0.34975848 -0.26154834 -0.2855642 -0.15627724
-0.20019993 -0.1043989 0.18877658 -0.07163425 -0.14750038 0.31833947 0.36258325 0.12782909
0.26538727 0.022584356 -0.0048934026 0.067612104 0.024124097 -0.27645338 -0.28568593 0.100390874
0.17928651 -0.23366097 0.20022911 0.0061662327 -0.13458431 0.23154923 0.08100372 0.18217953
0.21242754 -0.16154507 -0.15186393 -0.042612538 0.24746077 -0.029613875 -0.093554646 -0.033907946
-0.11740231 -0.02775428 0.18887432 -0.24955358 0.040571894 0.1509155 0.038501274 0.008687705
0.13693286 0.28379652 -0.15029395 -0.13693759 0.012089316 0.13934697 -0.28151911 -0.10917137
0.049336568 -0.034715693 -0.14414874 -0.12170955 0.06181837 -0.16833638 0.1803525 -0.097332045
0.21300693 -0.30923903 0.15651341 -0.1041787 -0.2568277 -0.20345707 0.03637661 -0.07417665
-0.0629005 -0.17324926 0.23483707 -0.05054741 0.009729549 0.2649117 -0.125693 -0.045589607
0.28403828 0.15477307 -0.2903863 0.26358426 0.030253937 -0.010520528 0.018687125 -0.28468487

backbone.1.weight f4 [16, 16]
00000000: c1eb 493d 45cb a43d ad13 84be ac3d 6ebe
00000010: 5510 043e 4355 b43d a948 fe3b 1529 2d3e
00000020: 557b 063e 4b06 7dbe edd1 e7bd 45d0 91bd
00000030: dbc8 babc fcf6 4a3e 39be fabd f67f 50be
00000040: f7fe 69bd 22b8 17be 6002 bb3e bf9f 49be
00000050: d753 84be c643 453d 2b63 cf3d 7955 91ba
00000060: adbf 4ebe 48c6 7a3e e2d9 a03e 9382 6b3e
00000070: 9811 af3e 3196 043d aea3 62be c2fe 103e
00000080: 6dbe 583e 5687 813e 4b2a 1d3e b4f4 3d3e
00000090: 76a7 b1bd cb65 f7bd f567 60be c064 46be
000000a0: 0296 3ebd 8c14 13bd b8cf 5ebe 669e 7b3e
000000b0: 2631 4cbe ab77 9abd 41a2 8d3e 0bdf ddbb
000000c0: 5910 3cbe 6cb9 09be 4199 463e 1d8a aebc
000000d0: 5031 873d bd38 b8bd 7055 3abe 075b a0bd
000000e0: 784e 15bd a78e 1fbe 0c92 90be a4ed f5bd
000000f0: 7abc 813e 66e2 8d3e a262 4f3e 1d1f 50be
00000100: 8f70 d93c bc83 12bd 7503 843e 24e8 ff3d
00000110: 46e8 52be 6de7 a23e 5e80 f03d c758 763e
00000120: 960d bf3d 66aa 173e d10b c13d 5660 04bc
00000130: a611 16be 40b9 6c3e d0cf 9ebd 1a5d 763e
00000140: 21de 5ebd c059 5abe 57bd 653d 6f63 7dbd
00000150: 69e5 1abd 23ac 753e b3f6 b2be ebec 9e3d
00000160: 9967 613e ee49 523e 9e4e 65be ea31 f5bc
00000170: 17c1 203d 9200 9abe ed79 3e3d 22ab f73d
00000180: b675 92ba 1240 11be f6ac 943d 8c9b 443e
00000190: 24f0 e4bd eb3d 55be 0364 fdbc 4fb8 66be
000001a0: 6c2b 9cbd 9556 293e 664d 59be c10f 9c3c
000001b0: 04bb ff3d bb31 f3bd 89bb 9f3e d501 beba
000001c0: 77ba 893e c92c 5d3e c7c9 47bd 14f2 77bd
000001d0: 7947 c8bd 265c fa3d 7870 5dbe a076 76be
000001e0: ddc5 7a3e 06fe 1d3e 07a5 403c ec80 92bd
000001f0: 614e 57be 4dd1 083d 56d4 f03d fc55 bb3d
00000200: a241 2cbc 3dd4 2b3e 7fd8 00be d2ed 343e
00000210: 3b1a 943e e146 353d fa60 dfbd dbd7 1abd
00000220: efca f2bb b4c1 62be 6199 203d e17f df3d
00000230: cef0 273d a804 6bbe b68c 963e 2d72 cbbd
00000240: 0167 4cbe 3689 393d 8e4e 4a3e 70a4 a3bd
00000250: 5003 a8bb fa11 b13d dcde 53be 511c 4539
00000260: 4d83 fe3d 9fb1 713e 862a a6be 2ea4 033b
00000270: cdea 93bd 8316 d8bd a569 47bd 7a57 80bb
00000280: 2cd0 ce3d 9ecd 74be 138a 933c f7e3 bcbb
00000290: 8433 86be 035d 893e fd47 9fbd 1216 25be
000002a0: f948 45bd 2ac9 473e be23 a93e b3b7 023e
000002b0: bf8e a13e 1a5c 303e 6882 64be e909 833e
000002c0: 0e74 173e 8d52 343e 703c a3bd 52ff b9bd
000002d0: 3337 e2bd 2a59 0b3e bca1 2abe 61ab 483e
000002e0: 2584 873e 2948 f53d 16bb f5bd fd36 263d
000002f0: 2a88 013e dcf9 17bd e362 df3d 4407 babd
00000300: 9729 123e ae0a 1f3e 7a82 26be 4229 b43d
00000310: 0999 6f3e 8da7 c63d 84f1 94be b739 2bbc
00000320: c727 85bd 9ce7 86be d085 523e 9f5b 84bd
00000330: ff68 e13c 9640 cfbd f9bc 12be d80b 8ebc
00000340: 015f 82be 10cd c8bd f73f 9b3e 7f01 203e
00000350: 84fc d13c a284 913e 34c3 a03c d110 443e
00000360: 987a 16bd 93cc be3d b67c a83e b97a dd3d
00000370: e308 e8bd 335e 1e3e 79f0 2bbe 83fb 42bd
00000380: 7c53 7cbc f8da bbbd d650 9bbe c771 b03a
00000390: 695f 05be 51c5 4c3e bf82 11be bc13 f33d
000003a0: f0ca acbd 3e1a 78be 705e 003d d0f9 bfbc
000003b0: 92b2 b3bd 2b4d 153d c4c6 9c3d e30d 21be
000003c0: 9b9e 213c d598 443d 9656 c1bd 75a8 4c3c
000003d0: ed29 453e 8a12 26bd 199f 5cbe c03c e83d
000003e0: 0841 7c3d a602 bf3c f3b8 f0bd a0dd 1f3e
000003f0: 74d8 2e3e 06e2 a2bd 1b6c a93c 1cc5 3fbe
0.049297098 0.08046583 -0.2579626 -0.23265713 0.12896855 0.08805325 0.0077601266 0.16910203
0.13132985 -0.24709432 -0.11319337 -0.071198024 -0.022800853 0.1982078 -0.12243313 -0.20361313
-0.05712792 -0.14816335 0.3652525 -0.19689845 -0.25845215 0.048160337 0.10126337 -0.0011088095
-0.20190306 0.24489701 0.3141623 0.22999029 0.3419311 0.032369796 -0.22132751 0.14159682
0.21166392 0.25298566 0.15348165 0.18550378 -0.08674519 -0.12079962 -0.21914656 -0.1937437
-0.046529777 -0.035908267 -0.21758926 0.24572143 -0.19940624 -0.07542356 0.27662852 -0.0067709736
-0.18365611 -0.13449639 0.19394399 -0.021306092 0.066012025 -0.08995197 -0.18196654 -0.07829862
-0.036451787 -0.15581761 -0.28236425 -0.12008217 0.2533911 0.2771179 0.20252469 -0.20324369
0.02654293 -0.035770163 0.25783888 0.12495449 -0.20596418 0.3181719 0.11743234 0.24057303
0.09328763 0.14811096 0.09426082 -0.008079609 -0.1465517 0.23117542 -0.07754481 0.24058953
-0.054411057 -0.213233 0.05608877 -0.061862405 -0.03781644 0.23991446 -0.34953842 0.07760032
0.22012176 0.20536014 -0.22393271 -0.029931027 0.039246645 -0.3007856 0.046502996 0.12093188
-0.0011173997 -0.14184597 0.07259552 0.19199961 -0.11178616 -0.20824401 -0.030931478 -0.22531246
-0.076254696 0.16536935 -0.21220931 0.01905048 0.12486842 -0.1187472 0.31197765 -0.0014496396
0.26900074 0.21599115 -0.048776414 -0.060533598 -0.09779257 0.12224607 -0.21624935 -0.2406869
0.24489541 0.15428934 0.011758096 -0.07153496 -0.21025993 0.03340273 0.1175925 0.091472596
-0.010513695 0.16780181 -0.12582587 0.17668846 0.28926262 0.04425705 -0.10907169 -0.037803512
-0.0074094455 -0.22144204 0.039208774 0.10913063 0.041001134 -0.22950995 0.2940423 -0.09933887
-0.19961168 0.04529687 0.19756529 -0.07990348 -0.005127348 0.08646007 -0.20690483 0.00018797933
0.124273874 0.23602913 -0.32454318 0.0020086872 -0.07222519 -0.10551169 -0.048684735 -0.003916678
0.100982994 -0.23906562 0.018010175 -0.00576448 -0.26211178 0.26828775 -0.077774025 -0.161217
-0.048165295 0.19510332 0.33035082 0.12765388 0.3155422 0.17222634 -0.22315371 0.25593498
0.14790365 0.17609616 -0.07970512 -0.090819016 -0.11045685 0.13608232 -0.1666326 0.19596626
0.26468006 0.11976654 -0.119985744 0.040579785 0.12649599 -0.03710352 0.10907533 -0.09083417
0.14273678 0.15531418 -0.1626071 0.08796932 0.23398222 0.096999265 -0.29090512 -0.010450772
-0.065017276 -0.2634858 0.20558858 -0.06462788 0.027515886 -0.10119741 -0.143299 -0.017339632
-0.25463107 -0.098047376 0.3032224 0.1562557 0.025633104 0.28421503 0.01962433 0.1914704
-0.03673801 0.09316363 0.32907647 0.10814423 -0.1132982 0.15465622 -0.16790952 -0.04760314
-0.015400764 -0.09172624 -0.3033511 0.0013461643 -0.13024677 0.19997145 -0.14210032 0.118689984
-0.08437145 -0.2422876 0.031340063 -0.02343455 -0.08774294 0.036450546 0.07655099 -0.15727954
0.009864475 0.047997314 -0.09440343 0.012491335 0.19254275 -0.040545024 -0.21545066 0.11339712
0.061585456 0.023316693 -0.11754026 0.15611887 0.17074758 -0.07953267 0.020681432 -0.18727535

backbone.2.weight f4 [1, 16]
00000000: 1071 8c3c 5282 ab3e 90eb 90be 12b1 43be
00000010: afbc 183e 2a82 36be fcf6 a0be db26 8dbe
00000020: 3ef2 98be f30a 90be 60b4 073e 514f 05be
00000030: dbef 99be 5e30 d83d 253e a43e 08c4 aabd
0.017143756 0.33497864 -0.2830472 -0.19110516 0.14915727 -0.17823091 -0.31438434 -0.27568707
-0.29872316 -0.28133354 0.13252401 -0.13018538 -0.30065808 0.105561 0.32078663 -0.08338171
